2025-03-23 17:06:22,905 [INFO] Activator:176 - 


2025-03-23 17:06:22,914 [INFO] Activator:177 - !SESSION log4j initialized
2025-03-23 17:06:32,346 [INFO] LogOutputStream:77 - [STDOUT_REDIRECT] 
2025-03-23 17:06:34,256 [INFO] McuFinderGlobals:63 - Set McuFinder mode to 2 (CubeIDE integrated)
2025-03-23 17:06:34,493 [INFO] ApplicationProperties:184 - Using Application install path: C:\ST\STM32CubeIDE_1.16.0\STM32CubeIDE\plugins\com.st.stm32cube.common.mx_6.12.0.202406281431
2025-03-23 17:06:34,508 [INFO] DbMcusXml:78 - Set database path to: C:\ST\STM32CubeIDE_1.16.0\STM32CubeIDE\plugins\com.st.stm32cube.common.mx_6.12.0.202406281431\\db\/mcu/
2025-03-23 17:06:34,510 [INFO] ApiDb:274 - Set plugin database path to: C:\ST\STM32CubeIDE_1.16.0\STM32CubeIDE\plugins\com.st.stm32cube.common.mx_6.12.0.202406281431\\db\/plugins/boardmanager/
2025-03-23 17:06:34,510 [WARN] ApiDb:259 - Overriding images path with different value:  => C:\ST\STM32CubeIDE_1.16.0\STM32CubeIDE\plugins\com.st.stm32cube.common.mx_6.12.0.202406281431\\db\/plugins/mcufinder/images/
2025-03-23 17:06:34,524 [INFO] ApiDb:250 - Set database path to: C:\Users\OS\.stmcufinder\plugins\mcufinder//mcu/
2025-03-23 17:06:34,525 [INFO] DbMcusAds:125 - Set database path to: C:\Users\OS\.stmcufinder\plugins\mcufinder//mcu/
2025-03-23 17:06:35,082 [INFO] CrossReferenceDbSqlite:203 - Set database path to: C:\Users\OS\.stmcufinder\plugins\mcufinder//mcu/cs/
2025-03-23 17:06:35,192 [INFO] RulesReader:64 - Compatibility file has been processed (297 Rules)
2025-03-23 17:06:35,269 [INFO] DbMcusXml:78 - Set database path to: C:\ST\STM32CubeIDE_1.16.0\STM32CubeIDE\plugins\com.st.stm32cube.common.mx_6.12.0.202406281431\\db\/mcu/
2025-03-23 17:06:35,270 [INFO] ApiDb:274 - Set plugin database path to: C:\ST\STM32CubeIDE_1.16.0\STM32CubeIDE\plugins\com.st.stm32cube.common.mx_6.12.0.202406281431\\db\/plugins/boardmanager/
2025-03-23 17:06:35,270 [INFO] ApiDb:261 - Set plugin images path to: C:\ST\STM32CubeIDE_1.16.0\STM32CubeIDE\plugins\com.st.stm32cube.common.mx_6.12.0.202406281431\\db\/plugins/mcufinder/images/
2025-03-23 17:06:35,270 [WARN] DbFile:41 - Overriding database path with different value: C:\Users\OS\.stmcufinder\plugins\mcufinder/ => C:\Users\OS\.stmcufinder\plugins\mcufinder
2025-03-23 17:06:35,270 [INFO] ApiDb:250 - Set database path to: C:\Users\OS\.stmcufinder\plugins\mcufinder//mcu/
2025-03-23 17:06:35,270 [WARN] DbFile:41 - Overriding database path with different value: C:\Users\OS\.stmcufinder\plugins\mcufinder/ => C:\Users\OS\.stmcufinder\plugins\mcufinder
2025-03-23 17:06:35,270 [INFO] DbMcusAds:125 - Set database path to: C:\Users\OS\.stmcufinder\plugins\mcufinder//mcu/
2025-03-23 17:06:35,270 [WARN] DbFile:41 - Overriding database path with different value: C:\Users\OS\.stmcufinder\plugins\mcufinder/ => C:\Users\OS\.stmcufinder\plugins\mcufinder
2025-03-23 17:06:35,270 [WARN] DbFile:41 - Overriding database path with different value: C:\Users\OS\.stmcufinder\plugins\mcufinder/ => C:\Users\OS\.stmcufinder\plugins\mcufinder
2025-03-23 17:06:36,082 [INFO] CrossReferenceDbSqlite:203 - Set database path to: C:\Users\OS\.stmcufinder\plugins\mcufinder//mcu/cs/
2025-03-23 17:06:36,171 [INFO] MainPanel:268 - HeapMemory: 268435456
2025-03-23 17:06:36,273 [INFO] DbMcusXml:78 - Set database path to: C:\ST\STM32CubeIDE_1.16.0\STM32CubeIDE\plugins\com.st.stm32cube.common.mx_6.12.0.202406281431\\db\/mcu/
2025-03-23 17:06:36,273 [INFO] ApiDb:274 - Set plugin database path to: C:\ST\STM32CubeIDE_1.16.0\STM32CubeIDE\plugins\com.st.stm32cube.common.mx_6.12.0.202406281431\\db\/plugins/boardmanager/
2025-03-23 17:06:36,274 [INFO] ApiDb:261 - Set plugin images path to: C:\ST\STM32CubeIDE_1.16.0\STM32CubeIDE\plugins\com.st.stm32cube.common.mx_6.12.0.202406281431\\db\/plugins/mcufinder/images/
2025-03-23 17:06:36,274 [WARN] DbFile:41 - Overriding database path with different value: C:\Users\OS\.stmcufinder\plugins\mcufinder/ => C:\Users\OS\.stmcufinder\plugins\mcufinder
2025-03-23 17:06:36,274 [INFO] ApiDb:250 - Set database path to: C:\Users\OS\.stmcufinder\plugins\mcufinder//mcu/
2025-03-23 17:06:36,275 [WARN] DbFile:41 - Overriding database path with different value: C:\Users\OS\.stmcufinder\plugins\mcufinder/ => C:\Users\OS\.stmcufinder\plugins\mcufinder
2025-03-23 17:06:36,275 [INFO] DbMcusAds:125 - Set database path to: C:\Users\OS\.stmcufinder\plugins\mcufinder//mcu/
2025-03-23 17:06:36,275 [WARN] DbFile:41 - Overriding database path with different value: C:\Users\OS\.stmcufinder\plugins\mcufinder/ => C:\Users\OS\.stmcufinder\plugins\mcufinder
2025-03-23 17:06:36,275 [WARN] DbFile:41 - Overriding database path with different value: C:\Users\OS\.stmcufinder\plugins\mcufinder/ => C:\Users\OS\.stmcufinder\plugins\mcufinder
2025-03-23 17:06:37,082 [INFO] CrossReferenceDbSqlite:203 - Set database path to: C:\Users\OS\.stmcufinder\plugins\mcufinder//mcu/cs/
2025-03-23 17:06:37,101 [INFO] ApplicationProperties:184 - Using Application install path: C:\ST\STM32CubeIDE_1.16.0\STM32CubeIDE\plugins\com.st.stm32cube.common.mx_6.12.0.202406281431
2025-03-23 17:06:37,102 [INFO] PluginManage:196 - Search for loadable plugins [exclusion list=, ]
2025-03-23 17:06:37,104 [INFO] PluginManage:310 - Check plugin analytics
2025-03-23 17:06:38,153 [INFO] AnalyticsPlugin:253 - Accepted Software Licenses: STM32CubeMX.6.10.0
2025-03-23 17:06:38,153 [INFO] AnalyticsPlugin:255 - Accepted CMSIS Pack Licenses: STMicroelectronics.X-CUBE-AI.10.0.0
2025-03-23 17:06:38,153 [INFO] AnalyticsPlugin:257 - Accepted Firmware Licenses: FW.F4.1.28.0,FW.F7.1.17.0
2025-03-23 17:06:38,156 [INFO] PluginManage:359 - Loaded plugin analytics (category:tool,tabindex:-1)
2025-03-23 17:06:38,156 [INFO] PluginManage:310 - Check plugin cadmodel
2025-03-23 17:06:38,174 [INFO] CADModel:105 - Init CAD model plugin
2025-03-23 17:06:38,174 [INFO] PluginManage:359 - Loaded plugin cadmodel (category:power,tabindex:5)
2025-03-23 17:06:38,174 [INFO] PluginManage:310 - Check plugin clock
2025-03-23 17:06:38,196 [INFO] PluginManage:359 - Loaded plugin clock (category:base,tabindex:2)
2025-03-23 17:06:38,196 [INFO] PluginManage:310 - Check plugin ddr
2025-03-23 17:06:38,199 [INFO] PluginManage:359 - Loaded plugin ddr (category:tool,tabindex:6)
2025-03-23 17:06:38,199 [INFO] PluginManage:310 - Check plugin filemanager
2025-03-23 17:06:38,335 [INFO] PluginManage:359 - Loaded plugin filemanager (category:base,tabindex:10)
2025-03-23 17:06:38,336 [INFO] PluginManage:310 - Check plugin ipmanager
2025-03-23 17:06:38,343 [INFO] PluginManage:359 - Loaded plugin ipmanager (category:base,tabindex:5)
2025-03-23 17:06:38,343 [INFO] PluginManage:310 - Check plugin lpbam
2025-03-23 17:06:38,361 [INFO] PluginManage:359 - Loaded plugin lpbam (category:base,tabindex:0)
2025-03-23 17:06:38,362 [INFO] PluginManage:310 - Check plugin memorymap
2025-03-23 17:06:38,383 [INFO] PluginManage:359 - Loaded plugin memorymap (category:base,tabindex:4)
2025-03-23 17:06:38,383 [INFO] PluginManage:310 - Check plugin pinoutandconfiguration
2025-03-23 17:06:38,405 [INFO] PluginManage:359 - Loaded plugin pinoutandconfiguration (category:base,tabindex:1)
2025-03-23 17:06:38,405 [INFO] PluginManage:310 - Check plugin pinoutconfig
2025-03-23 17:06:38,494 [WARN] SupportedApi:132 - Cannot load RTOS API schema: s4s-elt-must-match.1: The content of 'definitions' must match (annotation?, (simpleType | complexType)?, (unique | key | keyref)*)). A problem was found starting at: attribute.
2025-03-23 17:06:38,613 [INFO] PluginManage:359 - Loaded plugin pinoutconfig (category:base,tabindex:0)
2025-03-23 17:06:38,613 [INFO] PluginManage:310 - Check plugin power
2025-03-23 17:06:38,636 [INFO] PluginManage:359 - Loaded plugin power (category:power,tabindex:4)
2025-03-23 17:06:38,636 [INFO] PluginManage:310 - Check plugin projectmanager
2025-03-23 17:06:38,655 [INFO] PluginManage:359 - Loaded plugin projectmanager (category:projectmanager,tabindex:4)
2025-03-23 17:06:38,655 [INFO] PluginManage:310 - Check plugin rif
2025-03-23 17:06:38,674 [INFO] PluginManage:359 - Loaded plugin rif (category:base,tabindex:3)
2025-03-23 17:06:38,674 [INFO] PluginManage:310 - Check plugin thirdparty
2025-03-23 17:06:38,962 [INFO] PluginManage:359 - Loaded plugin thirdparty (category:base,tabindex:-1)
2025-03-23 17:06:38,962 [WARN] IntegrityCheckThread:84 - waiting for thirdparty lock release [integrity check]
2025-03-23 17:06:38,962 [INFO] PluginManage:310 - Check plugin tools
2025-03-23 17:06:38,962 [INFO] IntegrityCheckThread:86 - entering critical section [integrity check]
2025-03-23 17:06:38,962 [INFO] ThirdPartyUpdaterWithRetryManager:70 - Updater plugin not ready yet. [1/15]
2025-03-23 17:06:39,001 [INFO] PluginManage:359 - Loaded plugin tools (category:base,tabindex:7)
2025-03-23 17:06:39,001 [INFO] PluginManage:310 - Check plugin tutovideos
2025-03-23 17:06:39,169 [INFO] PluginManage:359 - Loaded plugin tutovideos (category:base,tabindex:-1)
2025-03-23 17:06:39,169 [INFO] PluginManage:310 - Check plugin updater
2025-03-23 17:06:39,184 [INFO] PluginManage:359 - Loaded plugin updater (category:base,tabindex:12)
2025-03-23 17:06:39,184 [INFO] PluginManage:310 - Check plugin userauth
2025-03-23 17:06:39,189 [INFO] UserAuth:113 - Init User Auth plugin
2025-03-23 17:06:39,189 [INFO] PluginManage:359 - Loaded plugin userauth (category:base,tabindex:14)
2025-03-23 17:06:39,190 [INFO] PluginManage:283 - PluginManage : Loaded plugins [18]
2025-03-23 17:06:39,403 [INFO] PinOutPanel:1561 - setPackage(No Configuration,No Configuration)
2025-03-23 17:06:39,497 [INFO] CADModel:165 - CPN selected for project level
2025-03-23 17:06:39,498 [INFO] CADModel:114 - Register for checkConnection events
2025-03-23 17:06:39,529 [INFO] IPUIPlugin:80 - create IPUIPlugin
2025-03-23 17:06:39,529 [INFO] PluginManager:220 - loadIPPluginJar : add adc
2025-03-23 17:06:39,572 [INFO] IPUIPlugin:80 - create IPUIPlugin
2025-03-23 17:06:39,573 [INFO] PluginManager:220 - loadIPPluginJar : add aes
2025-03-23 17:06:39,619 [INFO] IPUIPlugin:80 - create IPUIPlugin
2025-03-23 17:06:39,619 [INFO] PluginManager:220 - loadIPPluginJar : add can
2025-03-23 17:06:39,652 [INFO] IPUIPlugin:80 - create IPUIPlugin
2025-03-23 17:06:39,652 [INFO] PluginManager:220 - loadIPPluginJar : add comp
2025-03-23 17:06:39,690 [INFO] IPUIPlugin:80 - create IPUIPlugin
2025-03-23 17:06:39,690 [INFO] PluginManager:220 - loadIPPluginJar : add cryp
2025-03-23 17:06:39,704 [INFO] IPUIPlugin:80 - create IPUIPlugin
2025-03-23 17:06:39,704 [INFO] PluginManager:220 - loadIPPluginJar : add ddr_ctrl_phy
2025-03-23 17:06:39,738 [INFO] IPUIPlugin:80 - create IPUIPlugin
2025-03-23 17:06:39,738 [INFO] PluginManager:220 - loadIPPluginJar : add dfsdm
2025-03-23 17:06:39,753 [INFO] IPUIPlugin:80 - create IPUIPlugin
2025-03-23 17:06:39,753 [INFO] PluginManager:220 - loadIPPluginJar : add dma
2025-03-23 17:06:39,802 [INFO] IPUIPlugin:80 - create IPUIPlugin
2025-03-23 17:06:39,802 [INFO] PluginManager:220 - loadIPPluginJar : add dma3
2025-03-23 17:06:39,852 [INFO] IPUIPlugin:80 - create IPUIPlugin
2025-03-23 17:06:39,852 [INFO] PluginManager:220 - loadIPPluginJar : add extmemmanager
2025-03-23 17:06:39,876 [INFO] IPUIPlugin:80 - create IPUIPlugin
2025-03-23 17:06:39,876 [INFO] PluginManager:220 - loadIPPluginJar : add fatfs
2025-03-23 17:06:39,926 [INFO] IPUIPlugin:80 - create IPUIPlugin
2025-03-23 17:06:39,927 [INFO] PluginManager:220 - loadIPPluginJar : add fmc
2025-03-23 17:06:39,942 [INFO] IPUIPlugin:80 - create IPUIPlugin
2025-03-23 17:06:39,942 [INFO] PluginManager:220 - loadIPPluginJar : add freertos
2025-03-23 17:06:39,965 [INFO] IPUIPlugin:80 - create IPUIPlugin
2025-03-23 17:06:39,965 [INFO] PluginManager:220 - loadIPPluginJar : add genericplugin
2025-03-23 17:06:40,072 [INFO] IPUIPlugin:80 - create IPUIPlugin
2025-03-23 17:06:40,072 [INFO] PluginManager:220 - loadIPPluginJar : add gfxmmu
2025-03-23 17:06:40,232 [INFO] IPUIPlugin:80 - create IPUIPlugin
2025-03-23 17:06:40,232 [INFO] PluginManager:220 - loadIPPluginJar : add gic
2025-03-23 17:06:40,247 [INFO] IPUIPlugin:80 - create IPUIPlugin
2025-03-23 17:06:40,247 [INFO] PluginManager:220 - loadIPPluginJar : add gpio
2025-03-23 17:06:40,357 [INFO] IPUIPlugin:80 - create IPUIPlugin
2025-03-23 17:06:40,357 [INFO] PluginManager:220 - loadIPPluginJar : add gtzc
2025-03-23 17:06:40,420 [INFO] IPUIPlugin:80 - create IPUIPlugin
2025-03-23 17:06:40,420 [INFO] PluginManager:220 - loadIPPluginJar : add hash
2025-03-23 17:06:40,507 [INFO] IPUIPlugin:80 - create IPUIPlugin
2025-03-23 17:06:40,507 [INFO] PluginManager:220 - loadIPPluginJar : add i2c
2025-03-23 17:06:40,569 [INFO] IPUIPlugin:80 - create IPUIPlugin
2025-03-23 17:06:40,569 [INFO] PluginManager:220 - loadIPPluginJar : add i2s
2025-03-23 17:06:40,615 [INFO] IPUIPlugin:80 - create IPUIPlugin
2025-03-23 17:06:40,616 [INFO] PluginManager:220 - loadIPPluginJar : add i3c
2025-03-23 17:06:40,733 [INFO] IPUIPlugin:80 - create IPUIPlugin
2025-03-23 17:06:40,733 [INFO] PluginManager:220 - loadIPPluginJar : add ipddr
2025-03-23 17:06:40,838 [INFO] IPUIPlugin:80 - create IPUIPlugin
2025-03-23 17:06:40,839 [INFO] PluginManager:220 - loadIPPluginJar : add linkedlist
2025-03-23 17:06:40,881 [INFO] IPUIPlugin:80 - create IPUIPlugin
2025-03-23 17:06:40,881 [INFO] PluginManager:220 - loadIPPluginJar : add lorawan
2025-03-23 17:06:40,924 [INFO] IPUIPlugin:80 - create IPUIPlugin
2025-03-23 17:06:40,924 [INFO] PluginManager:220 - loadIPPluginJar : add ltdc
2025-03-23 17:06:40,937 [INFO] IPUIPlugin:80 - create IPUIPlugin
2025-03-23 17:06:40,937 [INFO] PluginManager:220 - loadIPPluginJar : add mdma
2025-03-23 17:06:40,950 [INFO] IPUIPlugin:80 - create IPUIPlugin
2025-03-23 17:06:40,950 [INFO] PluginManager:220 - loadIPPluginJar : add nvic
2025-03-23 17:06:40,991 [INFO] IPUIPlugin:80 - create IPUIPlugin
2025-03-23 17:06:40,991 [INFO] PluginManager:220 - loadIPPluginJar : add opamp
2025-03-23 17:06:41,064 [INFO] IPUIPlugin:80 - create IPUIPlugin
2025-03-23 17:06:41,064 [INFO] PluginManager:220 - loadIPPluginJar : add openamp
2025-03-23 17:06:41,114 [INFO] IPUIPlugin:80 - create IPUIPlugin
2025-03-23 17:06:41,114 [INFO] PluginManager:220 - loadIPPluginJar : add pdm2pcm
2025-03-23 17:06:41,127 [INFO] IPUIPlugin:80 - create IPUIPlugin
2025-03-23 17:06:41,129 [INFO] PluginManager:220 - loadIPPluginJar : add plateformsettings
2025-03-23 17:06:41,156 [INFO] IPUIPlugin:80 - create IPUIPlugin
2025-03-23 17:06:41,156 [INFO] PluginManager:220 - loadIPPluginJar : add quadspi
2025-03-23 17:06:41,185 [INFO] IPUIPlugin:80 - create IPUIPlugin
2025-03-23 17:06:41,186 [INFO] PluginManager:220 - loadIPPluginJar : add radio
2025-03-23 17:06:41,198 [INFO] IPUIPlugin:80 - create IPUIPlugin
2025-03-23 17:06:41,198 [INFO] PluginManager:220 - loadIPPluginJar : add resmgrutility
2025-03-23 17:06:41,253 [INFO] IPUIPlugin:80 - create IPUIPlugin
2025-03-23 17:06:41,253 [INFO] PluginManager:220 - loadIPPluginJar : add sai
2025-03-23 17:06:41,293 [INFO] IPUIPlugin:80 - create IPUIPlugin
2025-03-23 17:06:41,293 [INFO] PluginManager:220 - loadIPPluginJar : add spi
2025-03-23 17:06:41,368 [INFO] IPUIPlugin:80 - create IPUIPlugin
2025-03-23 17:06:41,368 [INFO] PluginManager:220 - loadIPPluginJar : add stm32_wpan
2025-03-23 17:06:41,395 [INFO] IPUIPlugin:80 - create IPUIPlugin
2025-03-23 17:06:41,396 [INFO] PluginManager:220 - loadIPPluginJar : add tim
2025-03-23 17:06:41,465 [INFO] IPUIPlugin:80 - create IPUIPlugin
2025-03-23 17:06:41,465 [INFO] PluginManager:220 - loadIPPluginJar : add touchsensing
2025-03-23 17:06:41,491 [INFO] IPUIPlugin:80 - create IPUIPlugin
2025-03-23 17:06:41,491 [INFO] PluginManager:220 - loadIPPluginJar : add tracer_emb
2025-03-23 17:06:41,518 [INFO] IPUIPlugin:80 - create IPUIPlugin
2025-03-23 17:06:41,519 [INFO] PluginManager:220 - loadIPPluginJar : add ts
2025-03-23 17:06:41,544 [INFO] IPUIPlugin:80 - create IPUIPlugin
2025-03-23 17:06:41,545 [INFO] PluginManager:220 - loadIPPluginJar : add tsc
2025-03-23 17:06:41,570 [INFO] IPUIPlugin:80 - create IPUIPlugin
2025-03-23 17:06:41,570 [INFO] PluginManager:220 - loadIPPluginJar : add ucpd
2025-03-23 17:06:41,623 [INFO] IPUIPlugin:80 - create IPUIPlugin
2025-03-23 17:06:41,623 [INFO] PluginManager:220 - loadIPPluginJar : add usart
2025-03-23 17:06:41,672 [INFO] IPUIPlugin:80 - create IPUIPlugin
2025-03-23 17:06:41,672 [INFO] PluginManager:220 - loadIPPluginJar : add usbx
2025-03-23 17:06:41,792 [INFO] CADModel:165 - CPN selected for project level
2025-03-23 17:06:41,792 [INFO] CADModel:114 - Register for checkConnection events
2025-03-23 17:06:41,792 [FATAL] Updater:334 - Updater called before beeing initialized
2025-03-23 17:06:41,792 [ERROR] CADModel:125 - Updater not yet initialized, retry later 
2025-03-23 17:06:41,912 [INFO] CADModel:165 - CPN selected for project level
2025-03-23 17:06:41,912 [INFO] CADModel:114 - Register for checkConnection events
2025-03-23 17:06:41,912 [FATAL] Updater:334 - Updater called before beeing initialized
2025-03-23 17:06:41,912 [ERROR] CADModel:125 - Updater not yet initialized, retry later 
2025-03-23 17:06:41,915 [FATAL] Updater:334 - Updater called before beeing initialized
2025-03-23 17:06:41,964 [INFO] ThirdPartyUpdaterWithRetryManager:70 - Updater plugin not ready yet. [2/15]
2025-03-23 17:06:42,046 [FATAL] Updater:334 - Updater called before beeing initialized
2025-03-23 17:06:42,057 [INFO] DbMcusAds:53 - JSON generation date=Tue Dec 17 23:01:15 ICT 2024 (1734451275189)
2025-03-23 17:06:42,058 [FATAL] Updater:334 - Updater called before beeing initialized
2025-03-23 17:06:42,094 [WARN] DetailPanel:346 - Failed to get advertising image, set to default
2025-03-23 17:06:42,172 [FATAL] Updater:334 - Updater called before beeing initialized
2025-03-23 17:06:42,175 [FATAL] Updater:334 - Updater called before beeing initialized
2025-03-23 17:06:42,175 [FATAL] Updater:334 - Updater called before beeing initialized
2025-03-23 17:06:42,175 [WARN] DetailPanel:346 - Failed to get advertising image, set to default
2025-03-23 17:06:42,176 [FATAL] Updater:334 - Updater called before beeing initialized
2025-03-23 17:06:42,239 [ERROR] Updater:1164 - MainUpdater not yet initialized. External WinMGr cannot be set.
2025-03-23 17:06:42,252 [INFO] Updater:1100 - Updater Version found : 6.12.0
2025-03-23 17:06:42,271 [INFO] ApplicationProperties:184 - Using Application install path: C:\ST\STM32CubeIDE_1.16.0\STM32CubeIDE\plugins\com.st.stm32cube.common.mx_6.12.0.202406281431
2025-03-23 17:06:42,698 [INFO] MainUpdater:2873 - connection check result : 10
2025-03-23 17:06:42,699 [INFO] MainUpdater:290 - Updater Check For Update Now.
2025-03-23 17:06:42,699 [INFO] MicroXplorer:498 - Change Database Version : DB.6.0.120
2025-03-23 17:06:42,722 [INFO] McuFinderGlobals:63 - Set McuFinder mode to 2 (CubeIDE integrated)
2025-03-23 17:06:42,732 [INFO] UserAuth:417 - Internet connection configuration mode: 1
2025-03-23 17:06:42,770 [INFO] JxBrowserEngine:152 - Initiate JxBrowser Engine with user profile folder
2025-03-23 17:06:42,936 [INFO] CheckServerUpdateThread:120 - End of CheckServer Thread
2025-03-23 17:06:42,940 [INFO] MainUpdater:2873 - connection check result : 10
2025-03-23 17:06:42,949 [INFO] MainUpdater:2873 - connection check result : 10
2025-03-23 17:06:43,146 [INFO] RulesReader:64 - Compatibility file has been processed (297 Rules)
2025-03-23 17:06:43,160 [INFO] RulesReader:64 - Compatibility file has been processed (297 Rules)
2025-03-23 17:06:43,167 [INFO] MicroXplorer:468 - Change Database Path : 
2025-03-23 17:06:43,167 [INFO] MicroXplorer:498 - Change Database Version : DB.6.0.120
2025-03-23 17:06:43,179 [WARN] ThirdParty:871 - waiting for thirdparty lock release [close project]
2025-03-23 17:06:45,391 [WARN] PackLoader:240 - Cannot read IP mode file for STMicroelectronics.FP-SNS-MOTENVWB1.1.4.0
2025-03-23 17:06:45,420 [WARN] PackLoader:240 - Cannot read IP mode file for STMicroelectronics.FP-ATR-ASTRA1.2.0.2
2025-03-23 17:06:45,441 [WARN] PackLoader:240 - Cannot read IP mode file for STMicroelectronics.FP-ATR-ASTRA1.2.0.1
2025-03-23 17:06:45,472 [WARN] PackLoader:240 - Cannot read IP mode file for STMicroelectronics.X-CUBE-SMBUS.2.1.0
2025-03-23 17:06:45,497 [WARN] PackLoader:240 - Cannot read IP mode file for STMicroelectronics.X-CUBE-WB05N.1.1.0
2025-03-23 17:06:45,521 [WARN] PackLoader:240 - Cannot read IP mode file for STMicroelectronics.X-CUBE-TOUCHGFX.4.23.0
2025-03-23 17:06:45,540 [WARN] PackLoader:240 - Cannot read IP mode file for STMicroelectronics.X-CUBE-TOUCHGFX.4.23.2
2025-03-23 17:06:45,597 [WARN] PackLoader:240 - Cannot read IP mode file for STMicroelectronics.X-CUBE-AZRTOS-F7.1.1.0
2025-03-23 17:06:45,629 [WARN] PackLoader:240 - Cannot read IP mode file for STMicroelectronics.FP-SNS-MOTENV1.4.3.2
2025-03-23 17:06:45,732 [WARN] PackLoader:240 - Cannot read IP mode file for STMicroelectronics.X-CUBE-MEMS1.11.0.0
2025-03-23 17:06:45,909 [INFO] WebApp:167 - Instantiating new browser for Auth
2025-03-23 17:06:45,918 [WARN] PackLoader:240 - Cannot read IP mode file for STMicroelectronics.FP-SNS-FLIGHT1.5.0.2
2025-03-23 17:06:45,945 [WARN] PackLoader:240 - Cannot read IP mode file for STMicroelectronics.X-CUBE-DISPLAY.3.0.0
2025-03-23 17:06:45,995 [WARN] PackLoader:240 - Cannot read IP mode file for STMicroelectronics.X-CUBE-BLE1.7.0.0
2025-03-23 17:06:46,088 [WARN] PackLoader:240 - Cannot read IP mode file for STMicroelectronics.X-CUBE-NFC10.1.0.0
2025-03-23 17:06:46,118 [WARN] PackLoader:240 - Cannot read IP mode file for STMicroelectronics.X-CUBE-BLEMGR.4.0.0
2025-03-23 17:06:46,146 [WARN] PackLoader:240 - Cannot read IP mode file for emotas.I-CUBE-CANOPEN.1.3.0
2025-03-23 17:06:46,174 [WARN] PackLoader:240 - Cannot read IP mode file for STMicroelectronics.X-CUBE-BLEMGR.3.1.0
2025-03-23 17:06:46,209 [WARN] PackLoader:240 - Cannot read IP mode file for STMicroelectronics.X-CUBE-AI.10.0.0
2025-03-23 17:06:46,378 [WARN] PackLoader:240 - Cannot read IP mode file for STMicroelectronics.FP-SNS-SMARTAG2.1.2.0
2025-03-23 17:06:46,410 [ERROR] Engine:466 - C:\Users\OS\.stm32cubemx\thirdparties\pdsc\STMicroelectronics.FP-SNS-FLIGHT1.5.1.0.pdsc: PDSC version is not supported
2025-03-23 17:06:46,498 [WARN] PackLoader:240 - Cannot read IP mode file for STMicroelectronics.X-CUBE-MEMS1.11.1.0
2025-03-23 17:06:46,698 [INFO] LogOutputStream:77 - [STDOUT_REDIRECT] 1 : Invalid condition id : UX_CORESTACK_Condition cause : null
2025-03-23 17:06:46,700 [INFO] LogOutputStream:77 - [STDOUT_REDIRECT] 1 : Invalid condition id : UX_CORESTACK_Condition cause : null
2025-03-23 17:06:46,702 [INFO] LogOutputStream:77 - [STDOUT_REDIRECT] 1 : Invalid condition id : UX_CORESTACK_Condition cause : null
2025-03-23 17:06:46,704 [INFO] LogOutputStream:77 - [STDOUT_REDIRECT] 1 : Invalid condition id : UX_CORESTACK_Condition cause : null
2025-03-23 17:06:46,706 [INFO] LogOutputStream:77 - [STDOUT_REDIRECT] 1 : Invalid condition id : UX_CORESTACK_Condition cause : null
2025-03-23 17:06:46,710 [WARN] PackLoader:240 - Cannot read IP mode file for STMicroelectronics.X-CUBE-AZRTOS-WL.2.0.0
2025-03-23 17:06:46,736 [WARN] PackLoader:240 - Cannot read IP mode file for STMicroelectronics.FP-SNS-MOTENV1.5.0.0
2025-03-23 17:06:46,764 [WARN] PackLoader:240 - Cannot read IP mode file for wolfSSL.I-CUBE-wolfMQTT.1.19.0
2025-03-23 17:06:46,789 [WARN] PackLoader:240 - Cannot read IP mode file for WES.I-CUBE-Cesium.1.3.0
2025-03-23 17:06:46,815 [WARN] PackLoader:240 - Cannot read IP mode file for STMicroelectronics.X-CUBE-BLE2.3.3.0
2025-03-23 17:06:46,843 [WARN] PackLoader:240 - Cannot read IP mode file for STMicroelectronics.X-CUBE-NFC9.1.0.0
2025-03-23 17:06:46,867 [WARN] PackLoader:240 - Cannot read IP mode file for STMicroelectronics.X-CUBE-BLE1.7.1.0
2025-03-23 17:06:46,929 [WARN] PackLoader:240 - Cannot read IP mode file for STMicroelectronics.X-CUBE-TCPP.4.1.0
2025-03-23 17:06:46,954 [WARN] PackLoader:240 - Cannot read IP mode file for STMicroelectronics.X-CUBE-ALGOBUILD.1.3.0
2025-03-23 17:06:46,998 [WARN] PackLoader:240 - Cannot read IP mode file for STMicroelectronics.X-CUBE-AZRTOS-G0.1.1.0
2025-03-23 17:06:47,026 [WARN] PackLoader:240 - Cannot read IP mode file for STMicroelectronics.X-CUBE-SAFEA1.1.2.2
2025-03-23 17:06:47,049 [WARN] PackLoader:240 - Cannot read IP mode file for STMicroelectronics.X-CUBE-NFC4.3.0.0
2025-03-23 17:06:47,070 [WARN] PackLoader:240 - Cannot read IP mode file for wolfSSL.I-CUBE-wolfMQTT.1.18.0
2025-03-23 17:06:47,098 [WARN] PackLoader:240 - Cannot read IP mode file for EmbeddedOffice.I-CUBE-FS-RTOS.1.0.1
2025-03-23 17:06:47,099 [ERROR] ConditionMgr:805 - Attr not supported : Dmpu
2025-03-23 17:06:47,099 [ERROR] ConditionMgr:805 - Attr not supported : Dmpu
2025-03-23 17:06:47,099 [ERROR] ConditionMgr:805 - Attr not supported : Dmpu
2025-03-23 17:06:47,099 [ERROR] ConditionMgr:805 - Attr not supported : Dmpu
2025-03-23 17:06:47,099 [ERROR] ConditionMgr:805 - Attr not supported : Dmpu
2025-03-23 17:06:47,099 [ERROR] ConditionMgr:805 - Attr not supported : Dmpu
2025-03-23 17:06:47,099 [ERROR] ConditionMgr:805 - Attr not supported : Dmpu
2025-03-23 17:06:47,099 [ERROR] ConditionMgr:805 - Attr not supported : Dmpu
2025-03-23 17:06:47,100 [ERROR] ConditionMgr:805 - Attr not supported : Dmpu
2025-03-23 17:06:47,100 [ERROR] ConditionMgr:805 - Attr not supported : Dmpu
2025-03-23 17:06:47,100 [ERROR] ConditionMgr:805 - Attr not supported : Dmpu
2025-03-23 17:06:47,100 [ERROR] ConditionMgr:805 - Attr not supported : Dmpu
2025-03-23 17:06:47,101 [ERROR] ConditionMgr:805 - Attr not supported : Dmpu
2025-03-23 17:06:47,101 [ERROR] ConditionMgr:805 - Attr not supported : Dmpu
2025-03-23 17:06:47,101 [ERROR] ConditionMgr:805 - Attr not supported : Dmpu
2025-03-23 17:06:47,101 [ERROR] ConditionMgr:805 - Attr not supported : Dmpu
2025-03-23 17:06:47,101 [ERROR] ConditionMgr:805 - Attr not supported : Dmpu
2025-03-23 17:06:47,101 [ERROR] ConditionMgr:805 - Attr not supported : Dmpu
2025-03-23 17:06:47,101 [ERROR] ConditionMgr:805 - Attr not supported : Dmpu
2025-03-23 17:06:47,101 [ERROR] ConditionMgr:805 - Attr not supported : Dmpu
2025-03-23 17:06:47,101 [ERROR] ConditionMgr:805 - Attr not supported : Dmpu
2025-03-23 17:06:47,101 [ERROR] ConditionMgr:805 - Attr not supported : Dmpu
2025-03-23 17:06:47,102 [ERROR] ConditionMgr:805 - Attr not supported : Dmpu
2025-03-23 17:06:47,102 [ERROR] ConditionMgr:805 - Attr not supported : Dmpu
2025-03-23 17:06:47,102 [ERROR] ConditionMgr:805 - Attr not supported : Dmpu
2025-03-23 17:06:47,102 [ERROR] ConditionMgr:805 - Attr not supported : Dmpu
2025-03-23 17:06:47,102 [ERROR] ConditionMgr:805 - Attr not supported : Dmpu
2025-03-23 17:06:47,102 [ERROR] ConditionMgr:805 - Attr not supported : Dmpu
2025-03-23 17:06:47,102 [ERROR] ConditionMgr:805 - Attr not supported : Dmpu
2025-03-23 17:06:47,102 [ERROR] ConditionMgr:805 - Attr not supported : Dmpu
2025-03-23 17:06:47,102 [ERROR] ConditionMgr:805 - Attr not supported : Dmpu
2025-03-23 17:06:47,102 [ERROR] ConditionMgr:805 - Attr not supported : Dmpu
2025-03-23 17:06:47,102 [ERROR] ConditionMgr:805 - Attr not supported : Dmpu
2025-03-23 17:06:47,102 [ERROR] ConditionMgr:805 - Attr not supported : Dmpu
2025-03-23 17:06:47,102 [ERROR] ConditionMgr:805 - Attr not supported : Dmpu
2025-03-23 17:06:47,102 [ERROR] ConditionMgr:805 - Attr not supported : Dmpu
2025-03-23 17:06:47,103 [ERROR] ConditionMgr:805 - Attr not supported : Dmpu
2025-03-23 17:06:47,103 [ERROR] ConditionMgr:805 - Attr not supported : Dmpu
2025-03-23 17:06:47,103 [ERROR] ConditionMgr:805 - Attr not supported : Dmpu
2025-03-23 17:06:47,103 [ERROR] ConditionMgr:805 - Attr not supported : Dmpu
2025-03-23 17:06:47,103 [ERROR] ConditionMgr:805 - Attr not supported : Dmpu
2025-03-23 17:06:47,103 [ERROR] ConditionMgr:805 - Attr not supported : Dmpu
2025-03-23 17:06:47,103 [ERROR] ConditionMgr:805 - Attr not supported : Dmpu
2025-03-23 17:06:47,103 [ERROR] ConditionMgr:805 - Attr not supported : Dmpu
2025-03-23 17:06:47,105 [ERROR] ConditionMgr:805 - Attr not supported : Dmpu
2025-03-23 17:06:47,105 [ERROR] ConditionMgr:805 - Attr not supported : Dmpu
2025-03-23 17:06:47,105 [ERROR] ConditionMgr:805 - Attr not supported : Dmpu
2025-03-23 17:06:47,105 [ERROR] ConditionMgr:805 - Attr not supported : Dmpu
2025-03-23 17:06:47,105 [ERROR] ConditionMgr:805 - Attr not supported : Dmpu
2025-03-23 17:06:47,105 [ERROR] ConditionMgr:805 - Attr not supported : Dmpu
2025-03-23 17:06:47,105 [ERROR] ConditionMgr:805 - Attr not supported : Dmpu
2025-03-23 17:06:47,105 [ERROR] ConditionMgr:805 - Attr not supported : Dmpu
2025-03-23 17:06:47,106 [ERROR] ConditionMgr:805 - Attr not supported : Dmpu
2025-03-23 17:06:47,106 [ERROR] ConditionMgr:805 - Attr not supported : Dmpu
2025-03-23 17:06:47,106 [ERROR] ConditionMgr:805 - Attr not supported : Dmpu
2025-03-23 17:06:47,106 [ERROR] ConditionMgr:805 - Attr not supported : Dmpu
2025-03-23 17:06:47,106 [ERROR] ConditionMgr:805 - Attr not supported : Dmpu
2025-03-23 17:06:47,106 [ERROR] ConditionMgr:805 - Attr not supported : Dmpu
2025-03-23 17:06:47,106 [ERROR] ConditionMgr:805 - Attr not supported : Dmpu
2025-03-23 17:06:47,106 [ERROR] ConditionMgr:805 - Attr not supported : Dmpu
2025-03-23 17:06:47,106 [ERROR] ConditionMgr:805 - Attr not supported : Dmpu
2025-03-23 17:06:47,106 [ERROR] ConditionMgr:805 - Attr not supported : Dmpu
2025-03-23 17:06:47,106 [ERROR] ConditionMgr:805 - Attr not supported : Dmpu
2025-03-23 17:06:47,106 [ERROR] ConditionMgr:805 - Attr not supported : Dmpu
2025-03-23 17:06:47,125 [ERROR] Engine:466 - C:\Users\OS\.stm32cubemx\thirdparties\pdsc\STMicroelectronics.X-CUBE-TCPP.4.2.0.pdsc: PDSC version is not supported
2025-03-23 17:06:47,151 [WARN] PackLoader:240 - Cannot read IP mode file for RealThread.X-CUBE-RT-Thread_Nano.4.1.1
2025-03-23 17:06:47,225 [WARN] PackLoader:240 - Cannot read IP mode file for STMicroelectronics.FP-ATR-SIGFOX1.3.2.0
2025-03-23 17:06:47,248 [WARN] ConditionMgr:438 - getConditionDescription Invalid condition id : Cortex-A Device cause : null
2025-03-23 17:06:47,352 [WARN] ConditionMgr:1039 - genDependencies : Invalid condition id : Cortex-A Device cause : null
2025-03-23 17:06:47,353 [WARN] ConditionMgr:1039 - genDependencies : Invalid condition id : Cortex-A Device cause : null
2025-03-23 17:06:47,353 [WARN] ConditionMgr:1039 - genDependencies : Invalid condition id : Cortex-A Device cause : null
2025-03-23 17:06:47,379 [WARN] PackLoader:240 - Cannot read IP mode file for STMicroelectronics.X-CUBE-EEPRMA1.5.1.0
2025-03-23 17:06:47,435 [WARN] PackLoader:240 - Cannot read IP mode file for SEGGER.I-CUBE-embOS.1.3.1
2025-03-23 17:06:47,494 [WARN] PackLoader:240 - Cannot read IP mode file for STMicroelectronics.X-CUBE-ALGOBUILD.1.4.0
2025-03-23 17:06:47,513 [WARN] PackLoader:240 - Cannot read IP mode file for STMicroelectronics.X-CUBE-AI.9.1.0
2025-03-23 17:06:47,541 [WARN] PackLoader:240 - Cannot read IP mode file for STMicroelectronics.X-CUBE-GNSS1.6.0.0
2025-03-23 17:06:47,586 [WARN] PackLoader:240 - Cannot read IP mode file for STMicroelectronics.X-CUBE-AZRTOS-F4.1.1.0
2025-03-23 17:06:47,615 [WARN] PackLoader:240 - Cannot read IP mode file for STMicroelectronics.X-CUBE-ISPU.2.1.0
2025-03-23 17:06:47,640 [WARN] PackLoader:240 - Cannot read IP mode file for STMicroelectronics.X-CUBE-FREERTOS.1.2.0
2025-03-23 17:06:47,662 [WARN] PackLoader:240 - Cannot read IP mode file for wolfSSL.I-CUBE-wolfSSL.5.6.6
2025-03-23 17:06:47,719 [WARN] PackLoader:240 - Cannot read IP mode file for STMicroelectronics.X-CUBE-AZRTOS-L5.2.0.0
2025-03-23 17:06:47,755 [WARN] PackLoader:240 - Cannot read IP mode file for STMicroelectronics.X-CUBE-NFC6.3.1.0
2025-03-23 17:06:47,803 [WARN] PackLoader:240 - Cannot read IP mode file for ITTIA_DB.I-CUBE-ITTIADB.8.8.0
2025-03-23 17:06:47,833 [WARN] PackLoader:240 - Cannot read IP mode file for STMicroelectronics.X-CUBE-DPower.1.2.0
2025-03-23 17:06:47,864 [WARN] PackLoader:240 - Cannot read IP mode file for STMicroelectronics.X-CUBE-AI.9.0.0
2025-03-23 17:06:47,896 [WARN] PackLoader:240 - Cannot read IP mode file for STMicroelectronics.X-CUBE-FREERTOS.1.3.0
2025-03-23 17:06:47,920 [INFO] WebApp:448 - Apply proxy settings
2025-03-23 17:06:47,920 [WARN] PackLoader:240 - Cannot read IP mode file for STMicroelectronics.X-CUBE-NFC7.1.0.1
2025-03-23 17:06:47,920 [INFO] WebApp:533 - Chromium requires no authentication
2025-03-23 17:06:47,948 [INFO] WebApp:476 - Direct internet connection detected
2025-03-23 17:06:47,949 [WARN] PackLoader:240 - Cannot read IP mode file for wolfSSL.I-CUBE-wolfTPM.3.2.0
2025-03-23 17:06:47,975 [WARN] PackLoader:240 - Cannot read IP mode file for STMicroelectronics.X-CUBE-AI.8.1.0
2025-03-23 17:06:48,003 [INFO] WebApp:869 - Register for checkConnection events
2025-03-23 17:06:48,003 [INFO] WebApp:448 - Apply proxy settings
2025-03-23 17:06:48,004 [INFO] WebApp:533 - Chromium requires no authentication
2025-03-23 17:06:48,005 [INFO] WebApp:476 - Direct internet connection detected
2025-03-23 17:06:48,023 [WARN] ConditionMgr:438 - getConditionDescription Invalid condition id : LAN8742 Phy interface Condition cause : null
2025-03-23 17:06:48,023 [WARN] PackLoader:240 - Cannot read IP mode file for STMicroelectronics.X-CUBE-AZRTOS-L4.2.0.0
2025-03-23 17:06:48,025 [WARN] ConditionMgr:1039 - genDependencies : Invalid condition id : LAN8742 Phy interface Condition cause : null
2025-03-23 17:06:48,025 [WARN] ConditionMgr:1039 - genDependencies : Invalid condition id : LAN8742 Phy interface Condition cause : null
2025-03-23 17:06:48,026 [WARN] ConditionMgr:1039 - genDependencies : Invalid condition id : LAN8742 Phy interface Condition cause : null
2025-03-23 17:06:48,053 [WARN] PackLoader:240 - Cannot read IP mode file for STMicroelectronics.X-CUBE-SFXS2LP1.4.0.0
2025-03-23 17:06:48,100 [WARN] PackLoader:240 - Cannot read IP mode file for STMicroelectronics.X-CUBE-AZRTOS-H7.3.3.0
2025-03-23 17:06:48,129 [WARN] PackLoader:240 - Cannot read IP mode file for STMicroelectronics.X-CUBE-IPS.3.0.0
2025-03-23 17:06:48,175 [WARN] ConditionMgr:438 - getConditionDescription Invalid condition id : UX DEVICE CLASS RTOS Condition cause : null
2025-03-23 17:06:48,176 [WARN] ConditionMgr:438 - getConditionDescription Invalid condition id : UX DEVICE CLASS RTOS Condition cause : null
2025-03-23 17:06:48,178 [WARN] PackLoader:240 - Cannot read IP mode file for STMicroelectronics.X-CUBE-AZRTOS-WB.2.0.0
2025-03-23 17:06:48,179 [WARN] ConditionMgr:1039 - genDependencies : Invalid condition id : UX DEVICE CLASS RTOS Condition cause : null
2025-03-23 17:06:48,179 [WARN] ConditionMgr:1039 - genDependencies : Invalid condition id : UX DEVICE CLASS RTOS Condition cause : null
2025-03-23 17:06:48,180 [WARN] ConditionMgr:1039 - genDependencies : Invalid condition id : UX DEVICE CLASS RTOS Condition cause : null
2025-03-23 17:06:48,180 [WARN] ConditionMgr:1039 - genDependencies : Invalid condition id : UX DEVICE CLASS RTOS Condition cause : null
2025-03-23 17:06:48,181 [WARN] ConditionMgr:1039 - genDependencies : Invalid condition id : UX DEVICE CLASS RTOS Condition cause : null
2025-03-23 17:06:48,208 [WARN] PackLoader:240 - Cannot read IP mode file for STMicroelectronics.X-CUBE-GNSS1.7.0.0
2025-03-23 17:06:48,220 [INFO] WebApp:186 - Connection restablished
2025-03-23 17:06:48,247 [WARN] PackLoader:240 - Cannot read IP mode file for STMicroelectronics.X-CUBE-GNSS1.7.0.1
2025-03-23 17:06:48,273 [WARN] PackLoader:240 - Cannot read IP mode file for STMicroelectronics.X-CUBE-TOUCHGFX.4.25.0
2025-03-23 17:06:48,302 [WARN] PackLoader:240 - Cannot read IP mode file for STMicroelectronics.FP-SNS-STBOX1.2.0.0
2025-03-23 17:06:48,338 [WARN] PackLoader:240 - Cannot read IP mode file for STMicroelectronics.X-CUBE-SUBG2.5.0.0
2025-03-23 17:06:48,389 [WARN] PackLoader:240 - Cannot read IP mode file for STMicroelectronics.X-CUBE-AZRTOS-H7RS.1.1.0
2025-03-23 17:06:48,412 [INFO] WebApp:220 - Starting web application
2025-03-23 17:06:48,412 [INFO] WebApp:578 - Web application path used C:\ST\STM32CubeIDE_1.16.0\STM32CubeIDE\plugins\com.st.stm32cube.common.mx_6.12.0.202406281431\db\plugins\mcufinder\reactClient1\index.html
2025-03-23 17:06:48,420 [WARN] PackLoader:240 - Cannot read IP mode file for Cesanta.I-CUBE-Mongoose.7.13.0
2025-03-23 17:06:48,470 [WARN] PackLoader:240 - Cannot read IP mode file for STMicroelectronics.X-CUBE-AZRTOS-G4.2.0.0
2025-03-23 17:06:48,512 [WARN] PackLoader:240 - Cannot read IP mode file for Infineon.AIROC-Wi-Fi-Bluetooth-STM32.1.5.1
2025-03-23 17:06:48,538 [WARN] PackLoader:240 - Cannot read IP mode file for STMicroelectronics.FP-SNS-MOTENVWB1.1.3.1
2025-03-23 17:06:48,557 [WARN] PackLoader:240 - Cannot read IP mode file for STMicroelectronics.X-CUBE-ISPU.2.0.0
2025-03-23 17:06:48,595 [ERROR] Engine:466 - C:\Users\OS\.stm32cubemx\thirdparties\pdsc\STMicroelectronics.X-CUBE-IPS.3.1.0.pdsc: PDSC version is not supported
2025-03-23 17:06:48,651 [WARN] PackLoader:240 - Cannot read IP mode file for STMicroelectronics.X-CUBE-ALS.1.0.2
2025-03-23 17:06:48,836 [WARN] PackLoader:240 - Cannot read IP mode file for STMicroelectronics.X-CUBE-MEMS1.10.0.0
2025-03-23 17:06:48,879 [INFO] UserAuth:417 - Internet connection configuration mode: 1
2025-03-23 17:06:49,014 [WARN] PackLoader:240 - Cannot read IP mode file for STMicroelectronics.X-CUBE-FREERTOS.1.1.0
2025-03-23 17:06:49,038 [WARN] PackLoader:240 - Cannot read IP mode file for STMicroelectronics.X-CUBE-TOUCHGFX.4.24.0
2025-03-23 17:06:49,060 [WARN] PackLoader:240 - Cannot read IP mode file for STMicroelectronics.X-CUBE-TOUCHGFX.4.24.2
2025-03-23 17:06:49,081 [WARN] PackLoader:240 - Cannot read IP mode file for STMicroelectronics.X-CUBE-TOUCHGFX.4.24.1
2025-03-23 17:06:49,104 [WARN] PackLoader:240 - Cannot read IP mode file for portGmbH.I-Cube-SoM-uGOAL.1.1.0
2025-03-23 17:06:49,127 [WARN] PackLoader:240 - Cannot read IP mode file for STMicroelectronics.X-CUBE-ALS.1.0.1
2025-03-23 17:06:49,172 [WARN] PackLoader:240 - Cannot read IP mode file for STMicroelectronics.X-CUBE-AZRTOS-H7RS.1.0.0
2025-03-23 17:06:49,279 [WARN] PackLoader:240 - Cannot read IP mode file for STMicroelectronics.FP-ATR-ASTRA1.2.0.0
2025-03-23 17:06:49,315 [WARN] PackLoader:240 - Cannot read IP mode file for STMicroelectronics.X-CUBE-TOF1.3.4.2
2025-03-23 17:06:49,358 [WARN] PackLoader:240 - Cannot read IP mode file for STMicroelectronics.X-CUBE-TOF1.3.4.1
2025-03-23 17:06:49,414 [WARN] PackLoader:240 - Cannot read IP mode file for STMicroelectronics.X-CUBE-AZRTOS-H7.3.2.0
2025-03-23 17:06:49,440 [WARN] PackLoader:240 - Cannot read IP mode file for wolfSSL.I-CUBE-wolfSSH.1.4.17
2025-03-23 17:06:49,441 [INFO] ThirdParty:978 - Integrity check success = true
2025-03-23 17:06:49,441 [INFO] IntegrityCheckThread:100 - exiting critical section [integrity check]
2025-03-23 17:06:49,441 [INFO] IntegrityCheckThread:103 - End integrity checks thread
2025-03-23 17:06:49,442 [INFO] ThirdParty:873 - entering critical section [close project]
2025-03-23 17:06:49,443 [INFO] ThirdParty:883 - exiting critical section [close project]
2025-03-23 17:06:49,446 [INFO] PinOutPanel:1561 - setPackage(No Configuration,No Configuration)
2025-03-23 17:06:49,450 [INFO] UtilMem:75 - Begin LoadConfig() Used Memory: 203445880 Bytes (268435456)
2025-03-23 17:06:49,452 [INFO] MicroXplorer:468 - Change Database Path : 
2025-03-23 17:06:49,453 [INFO] MicroXplorer:498 - Change Database Version : DB.6.0.120
2025-03-23 17:06:49,453 [INFO] OpenFileManager:332 - Change cursor
2025-03-23 17:06:49,470 [INFO] ThirdPartyDownloadManager:103 - Found SW packSTMicroelectronics.X-CUBE-AI.10.0.0up-to-date on disk
2025-03-23 17:06:49,540 [INFO] Mcu:2032 - Initializing MCU STM32F746NGHx STM32F746NGHx STM32F746NGH6
2025-03-23 17:06:53,021 [INFO] Context:742 - Trying to add GPIOservice into a context  which must be forbidden
2025-03-23 17:06:53,725 [INFO] ApiDbMcu:508 - Load IP Config File for STMicroelectronics.X-CUBE-AI.10.0.0
2025-03-23 17:06:54,022 [INFO] RtosManager:555 - Registered RTOS mode: class=CMSIS, group=RTOS, mode=CMSIS_V1, owner=FREERTOS
2025-03-23 17:06:54,022 [INFO] RtosManager:555 - Registered RTOS mode: class=CMSIS, group=RTOS2, mode=CMSIS_V2, owner=FREERTOS
2025-03-23 17:06:54,022 [INFO] RtosManager:555 - Registered RTOS mode: class=RTOS, group=Core, mode=CMSIS_V1, owner=FREERTOS
2025-03-23 17:06:54,023 [INFO] RtosManager:555 - Registered RTOS mode: class=RTOS, group=Core, mode=CMSIS_V2, owner=FREERTOS
2025-03-23 17:06:54,023 [WARN] ModelIntegratedComponent:184 - Missing modes for component STMicroelectronics:FreeRTOS:0.0.1:STMicroelectronics:RTOS:FreeRTOS:Core:::10.2.0:
2025-03-23 17:06:54,026 [WARN] ModelIntegratedComponent:63 - No mode defined for component null
2025-03-23 17:06:54,027 [WARN] ModelIntegratedComponent:63 - No mode defined for component null
2025-03-23 17:06:54,027 [WARN] ModelIntegratedComponent:63 - No mode defined for component null
2025-03-23 17:06:54,027 [WARN] ModelIntegratedComponent:63 - No mode defined for component null
2025-03-23 17:06:54,027 [WARN] ModelIntegratedComponent:63 - No mode defined for component null
2025-03-23 17:06:54,027 [WARN] ModelIntegratedComponent:63 - No mode defined for component null
2025-03-23 17:06:54,027 [WARN] ModelIntegratedComponent:63 - No mode defined for component null
2025-03-23 17:06:54,027 [WARN] ModelIntegratedComponent:63 - No mode defined for component null
2025-03-23 17:06:54,027 [WARN] ModelIntegratedComponent:63 - No mode defined for component null
2025-03-23 17:06:54,027 [WARN] ModelIntegratedComponent:63 - No mode defined for component null
2025-03-23 17:06:54,027 [WARN] ModelIntegratedComponent:63 - No mode defined for component null
2025-03-23 17:06:54,027 [WARN] ModelIntegratedComponent:63 - No mode defined for component null
2025-03-23 17:06:54,027 [WARN] ModelIntegratedComponent:63 - No mode defined for component null
2025-03-23 17:06:54,027 [WARN] ModelIntegratedComponent:63 - No mode defined for component null
2025-03-23 17:06:54,027 [WARN] ModelIntegratedComponent:63 - No mode defined for component null
2025-03-23 17:06:54,027 [WARN] ModelIntegratedComponent:63 - No mode defined for component null
2025-03-23 17:06:54,028 [WARN] ModelIntegratedComponent:63 - No mode defined for component null
2025-03-23 17:06:54,028 [WARN] ModelIntegratedComponent:63 - No mode defined for component null
2025-03-23 17:06:54,028 [WARN] ModelIntegratedComponent:63 - No mode defined for component null
2025-03-23 17:06:54,028 [WARN] ModelIntegratedComponent:63 - No mode defined for component null
2025-03-23 17:06:54,028 [WARN] ModelIntegratedComponent:63 - No mode defined for component null
2025-03-23 17:06:54,028 [WARN] ModelIntegratedComponent:63 - No mode defined for component null
2025-03-23 17:06:54,028 [WARN] ModelIntegratedComponent:63 - No mode defined for component null
2025-03-23 17:06:54,028 [WARN] ModelIntegratedComponent:63 - No mode defined for component null
2025-03-23 17:06:54,028 [WARN] ModelIntegratedComponent:63 - No mode defined for component null
2025-03-23 17:06:54,028 [WARN] ModelIntegratedComponent:63 - No mode defined for component null
2025-03-23 17:06:54,028 [WARN] ModelIntegratedComponent:63 - No mode defined for component null
2025-03-23 17:06:54,028 [WARN] ModelIntegratedComponent:63 - No mode defined for component null
2025-03-23 17:06:54,028 [WARN] ModelIntegratedComponent:63 - No mode defined for component null
2025-03-23 17:06:54,028 [WARN] ModelIntegratedComponent:63 - No mode defined for component null
2025-03-23 17:06:54,028 [WARN] ModelIntegratedComponent:63 - No mode defined for component null
2025-03-23 17:06:54,028 [WARN] ModelIntegratedComponent:63 - No mode defined for component null
2025-03-23 17:06:54,028 [WARN] ModelIntegratedComponent:63 - No mode defined for component null
2025-03-23 17:06:54,028 [WARN] ModelIntegratedComponent:63 - No mode defined for component null
2025-03-23 17:06:54,028 [WARN] ModelIntegratedComponent:63 - No mode defined for component null
2025-03-23 17:06:54,029 [WARN] ModelPack:524 - Component already loaded: STMicroelectronics:HAL Drivers:0.0.0:STMicroelectronics:Device:STMicro_Driver:XSPI:HAL::0.0.1:HAL_XSPI
2025-03-23 17:06:54,240 [INFO] IPUIPlugin:80 - create IPUIPlugin
2025-03-23 17:06:54,264 [INFO] PluginManager:220 - loadIPPluginJar : add ai.10.0.0
2025-03-23 17:06:54,908 [INFO] Middleware:617 - instanceName : STMicroelectronics.X-CUBE-AI.10.0.0 bspName : COM Port check condition success for : !SEMDeviceJjApplicationJjApplicationTemplate
2025-03-23 17:06:54,909 [INFO] Middleware:617 - instanceName : STMicroelectronics.X-CUBE-AI.10.0.0 bspName : COM Port check condition success for : !SEMDeviceJjApplicationJjApplicationTemplate
2025-03-23 17:06:54,909 [INFO] Middleware:617 - instanceName : STMicroelectronics.X-CUBE-AI.10.0.0 bspName : COM Port check condition success for : !SEMDeviceJjApplicationJjApplicationTemplate
2025-03-23 17:06:54,926 [INFO] ThirdPartyModel:298 - Start build external matchings
2025-03-23 17:06:55,937 [INFO] ThirdPartyModel:316 - End build external matchings
2025-03-23 17:06:55,995 [INFO] ImportTextPane:205 - (OptionalMessage_ERROR) IP (RCC) : Invalid parameter (FamilyName)
2025-03-23 17:06:55,995 [INFO] ImportTextPane:205 - (OptionalMessage_ERROR) IP (RCC) : Parameter (LCDTFToutputFreq_Value) has invalid value (96000000)
2025-03-23 17:06:55,995 [INFO] ImportTextPane:205 - (OptionalMessage_ERROR) IP (RCC) : Invalid parameter (PLLMUL)
2025-03-23 17:06:55,996 [INFO] ImportTextPane:205 - (OptionalMessage_ERROR) IP (RCC) : Parameter (PLLP) has invalid value (2)
2025-03-23 17:06:55,996 [INFO] ImportTextPane:205 - (OptionalMessage_ERROR) IP (RCC) : Invalid parameter (PRESCALERUSB)
2025-03-23 17:06:55,996 [INFO] ImportTextPane:205 - (OptionalMessage_ERROR) IP (RCC) : Parameter (SDMMCFreq_Value) has invalid value (216000000)
2025-03-23 17:06:55,996 [INFO] ImportTextPane:205 - (OptionalMessage_ERROR) IP (RCC) : Invalid parameter (SYSCLKSourceVirtual)
2025-03-23 17:06:55,997 [INFO] ImportTextPane:205 - (OptionalMessage_ERROR) IP (STMicroelectronics.X-CUBE-AI.10.0.0) : Parameter (ModelName) has Id (c11b3522642c75eed0c13020aaece17b16782c5a381a7873b59b3e4f04ea4c08) currently not set
2025-03-23 17:06:55,997 [INFO] ImportTextPane:205 - (OptionalMessage_ERROR) IP (STMicroelectronics.X-CUBE-AI.10.0.0) : Parameter (ModelKind) has Id (c11b3522642c75eed0c13020aaece17b16782c5a381a7873b59b3e4f04ea4c08) currently not set
2025-03-23 17:06:55,997 [INFO] ImportTextPane:205 - (OptionalMessage_ERROR) IP (STMicroelectronics.X-CUBE-AI.10.0.0) : Parameter (ModelCompression) has Id (c11b3522642c75eed0c13020aaece17b16782c5a381a7873b59b3e4f04ea4c08) currently not set
2025-03-23 17:06:55,997 [INFO] ImportTextPane:205 - (OptionalMessage_ERROR) IP (STMicroelectronics.X-CUBE-AI.10.0.0) : Parameter (ModelType) has Id (c11b3522642c75eed0c13020aaece17b16782c5a381a7873b59b3e4f04ea4c08) currently not set
2025-03-23 17:06:55,997 [INFO] ImportTextPane:205 - (OptionalMessage_ERROR) IP (STMicroelectronics.X-CUBE-AI.10.0.0) : Invalid parameter (LatestDirectoryUsed)
2025-03-23 17:06:55,997 [INFO] ImportTextPane:205 - (OptionalMessage_ERROR) IP (STMicroelectronics.X-CUBE-AI.10.0.0) : Parameter (ModelName) has Id (fa3792fcf65903fb6a173b49f1cf7a96553e78f8217c20469db5eba39f1602ea) currently not set
2025-03-23 17:06:55,997 [INFO] ImportTextPane:205 - (OptionalMessage_ERROR) IP (STMicroelectronics.X-CUBE-AI.10.0.0) : Parameter (ModelMacc) has Id (c11b3522642c75eed0c13020aaece17b16782c5a381a7873b59b3e4f04ea4c08) currently not set
2025-03-23 17:06:55,997 [INFO] ImportTextPane:205 - (OptionalMessage_ERROR) IP (STMicroelectronics.X-CUBE-AI.10.0.0) : Parameter (ModelActualCompression) has Id (c11b3522642c75eed0c13020aaece17b16782c5a381a7873b59b3e4f04ea4c08) currently not set
2025-03-23 17:06:55,997 [INFO] ImportTextPane:205 - (OptionalMessage_ERROR) IP (STMicroelectronics.X-CUBE-AI.10.0.0) : Parameter (ModelFlashOccupation) has Id (c11b3522642c75eed0c13020aaece17b16782c5a381a7873b59b3e4f04ea4c08) currently not set
2025-03-23 17:06:55,997 [INFO] ImportTextPane:205 - (OptionalMessage_ERROR) IP (STMicroelectronics.X-CUBE-AI.10.0.0) : Parameter (ModelRamOccupation) has Id (c11b3522642c75eed0c13020aaece17b16782c5a381a7873b59b3e4f04ea4c08) currently not set
2025-03-23 17:06:55,997 [INFO] ImportTextPane:205 - (OptionalMessage_ERROR) IP (STMicroelectronics.X-CUBE-AI.10.0.0) : Parameter (ModelStructureFile) has Id (c11b3522642c75eed0c13020aaece17b16782c5a381a7873b59b3e4f04ea4c08) currently not set
2025-03-23 17:06:56,656 [INFO] ApiDb:581 - Connected to CubeFinder SQLite database (C:\Users\OS\.stmcufinder\plugins\mcufinder\mcu\cube-finder-db.db)
2025-03-23 17:06:56,728 [INFO] ApiDb:668 - CubeFinder database Data Model version=2.1
2025-03-23 17:06:56,728 [INFO] ApiDb:669 - CubeFinder database Configuration version=3.0.39
2025-03-23 17:06:56,729 [INFO] ApiDb:670 - CubeFinder database generation date=2025-02-07 (1738919966)
2025-03-23 17:06:56,729 [INFO] ApiDb:671 - CubeFinder database FW Pack versions=[FP-ATR-ASTRA1_V2.0.0, FP-SNS-FLIGHT1_V5.0.2, FP-SNS-MOTENV1_V5.0.0, FP-SNS-MOTENVWB1_V1.4.0, FP-SNS-SMARTAG2_V1.2.0, FP-SNS-STBOX1_V2.0.0, STM32Cube_FW_C0_V1.3.0, STM32Cube_FW_F4_V1.28.1, STM32Cube_FW_F7_V1.17.2, STM32Cube_FW_G0_V1.6.2, STM32Cube_FW_G4_V1.6.1, STM32Cube_FW_H5_V1.4.0, STM32Cube_FW_H7RS_V1.1.0, STM32Cube_FW_H7_V1.12.0, STM32Cube_FW_L0_V1.12.2, STM32Cube_FW_L4_V1.18.1, STM32Cube_FW_L5_V1.5.1, STM32Cube_FW_N6_V1.0.0, STM32Cube_FW_U0_V1.2.0, STM32Cube_FW_U3_V1.0.0, STM32Cube_FW_U5_V1.7.0, STM32Cube_FW_WB0_V1.1.0, STM32Cube_FW_WBA_V1.5.0, STM32Cube_FW_WB_V1.21.0, STM32Cube_FW_WL3_V1.0.0, STM32Cube_FW_WL_V1.3.0, X-CUBE-ALGOBUILD_V1.4.0, X-CUBE-ALS_V1.0.2, X-CUBE-AZRTOS-F4_V1.1.0, X-CUBE-AZRTOS-F7_V1.1.0, X-CUBE-AZRTOS-G0_V1.1.0, X-CUBE-AZRTOS-G4_V2.0.0, X-CUBE-AZRTOS-H7RS_V1.0.0, X-CUBE-AZRTOS-H7_V3.3.0, X-CUBE-AZRTOS-L4_V2.0.0, X-CUBE-AZRTOS-L5_V2.0.0, X-CUBE-AZRTOS-WB_V2.0.0, X-CUBE-AZRTOS-WL_V2.0.0, X-CUBE-BLE1_V7.0.0, X-CUBE-BLE2_V3.3.0, X-CUBE-BLEMGR_V4.0.0, X-CUBE-EEPRMA1_V5.1.0, X-CUBE-FREERTOS_V1.2.0, X-CUBE-GNSS1_V6.0.0, X-CUBE-MEMS1_V11.1.0, X-CUBE-NFC4_V3.0.0, X-CUBE-NFC7_V1.0.1, X-CUBE-SFXS2LP1_V4.0.0, X-CUBE-SUBG2_V5.0.0, X-CUBE-TOF1_V3.4.2]
2025-03-23 17:06:56,848 [INFO] DbBoardsSqlite:226 - include board P-NUCLEO-WB55-NUCLEO as a kit item of type 'Nucleo-64'
2025-03-23 17:06:56,848 [INFO] DbBoardsSqlite:226 - include board P-NUCLEO-WB55-USBDONGLE as a kit item of type 'Nucleo USB Dongle'
2025-03-23 17:06:56,849 [INFO] DbBoardsSqlite:226 - include board STEVAL-IDP005V1 as a kit item of type 'Evaluation Board'
2025-03-23 17:06:56,850 [INFO] DbBoardsSqlite:226 - include board STEVAL-IDP005V2 as a kit item of type 'Evaluation Board'
2025-03-23 17:06:57,355 [INFO] ApiDb:240 - Found 646 in-development CPN: [B-G473E-ZEST1S, B-WB1M-WPAN1, B-WL5M-SUBG1, NUCLEO-C031C6, NUCLEO-C071RB, NUCLEO-H503RB, NUCLEO-H533RE, NUCLEO-H563ZI, NUCLEO-H7S3L8, NUCLEO-U031R8, NUCLEO-U083RC, NUCLEO-U545RE-Q, NUCLEO-U5A5ZJ-Q, NUCLEO-WB05KZ, NUCLEO-WB07CC, NUCLEO-WB09KE, NUCLEO-WBA52CG, NUCLEO-WBA55CG, STEVAL-PROTEUS1, STEVAL-SMARTAG2, STEVAL-STWINBX1, STM320518-EVAL, STM32C0116-DK, STM32C011D6Y3TR, STM32C011D6Y6TR, STM32C011F4P3, STM32C011F4P6, STM32C011F4U3, STM32C011F4U6TR, STM32C011F6P3, STM32C011F6P6, STM32C011F6U3, STM32C011F6U6TR, STM32C011J4M3, STM32C011J4M6, STM32C011J6M3, STM32C011J6M6, STM32C0316-DK, STM32C031C4T3, STM32C031C4T6, STM32C031C4U3, STM32C031C4U6, STM32C031C6T3, STM32C031C6T6, STM32C031C6U3, STM32C031C6U6, STM32C031F4P3, STM32C031F4P6, STM32C031F6P3, STM32C031F6P6, STM32C031G4U3, STM32C031G4U6, STM32C031G6U3, STM32C031G6U6, STM32C031K4T3, STM32C031K4T6, STM32C031K4U3, STM32C031K4U6, STM32C031K6T3, STM32C031K6T6, STM32C031K6U3, STM32C031K6U6, STM32C071C8T6, STM32C071C8T6N, STM32C071C8U6, STM32C071C8U6N, STM32C071CBT6, STM32C071CBT6N, STM32C071CBU6, STM32C071CBU6N, STM32C071F8P6, STM32C071F8P6N, STM32C071FBP6, STM32C071FBP6N, STM32C071FBY6TR, STM32C071G8U6, STM32C071G8U6N, STM32C071GBU6, STM32C071GBU6N, STM32C071K8T6, STM32C071K8T6N, STM32C071K8U6, STM32C071K8U6N, STM32C071KBT6, STM32C071KBT6N, STM32C071KBU6, STM32C071KBU6N, STM32C071R8T6, STM32C071R8T6N, STM32C071RBI6N, STM32C071RBT6, STM32C071RBT6N, STM32G071K8TXN, STM32G071K8UXN, STM32G081GBU6N, STM32G081KBT6N, STM32G081KBUXN, STM32G0B1CCT6N, STM32G0B1KCT6, STM32G0B1NEY6TR, STM32G0B1RCT6N, STM32G0C1CCT6, STM32G0C1CCT6N, STM32G0C1CCU6N, STM32G0C1CET6N, STM32G0C1CEU6N, STM32G0C1KCT6, STM32G0C1NEY6TR, STM32G0C1RCI6N, STM32G0C1RCT6N, STM32G0C1REI6N, STM32G0C1RET6N, STM32G0C1VCI6, STM32G0C1VEI6, STM32G411C6T3, STM32G411C6T6, STM32G411C6U3, STM32G411C6U6, STM32G411C8T3, STM32G411C8T6, STM32G411C8U3, STM32G411C8U6, STM32G411CBT3, STM32G411CBT6, STM32G411CBU3, STM32G411CBU6, STM32G411K6T3, STM32G411K6T6, STM32G411K6U3, STM32G411K6U6, STM32G411K8T3, STM32G411K8T6, STM32G411K8U3, STM32G411K8U6, STM32G411KBT3, STM32G411KBT6, STM32G411KBU3, STM32G411KBU6, STM32G411M6T3, STM32G411M6T6, STM32G411M8T3, STM32G411M8T6, STM32G411MBT3, STM32G411MBT6, STM32G411R6T3, STM32G411R6T6, STM32G411R8T3, STM32G411R8T6, STM32G411RBT3, STM32G411RBT6, STM32G414CBT3, STM32G414CBT6, STM32G414CBU3, STM32G414CBU6, STM32G414CCT3, STM32G414CCT6, STM32G414CCU3, STM32G414CCU6, STM32G414MBT3, STM32G414MBT6, STM32G414MCT3, STM32G414MCT6, STM32G414RBT3, STM32G414RBT6, STM32G414RCT3, STM32G414RCT6, STM32G414VBT3, STM32G414VBT6, STM32G414VCT3, STM32G414VCT6, STM32G431CBT3Z, STM32G431RBT3Z, STM32G471CCT6, STM32G471CCU6, STM32G471CET3, STM32G471CET6, STM32G471CEU3, STM32G471CEU6, STM32G471MCT6, STM32G471MET3, STM32G471MET6, STM32G471MEY6TR, STM32G471QCT6, STM32G471QET3, STM32G471RCT6, STM32G471RET3, STM32G471RET6, STM32G471VCH6, STM32G471VCI6, STM32G471VCT6, STM32G471VEH3, STM32G471VEH6, STM32G471VEI3, STM32G471VEI6, STM32G471VET3, STM32G471VET6, STM32G473QET3Z, STM32G473RET3Z, STM32G474CCT6, STM32G491RET3Z, STM32H503CBT6, STM32H503CBU6, STM32H503EBY6TR, STM32H503KBU6, STM32H503RBT6, STM32H523CCT6, STM32H523CCU6, STM32H523CET6, STM32H523CEU6, STM32H523HEY6TR, STM32H523RCT6, STM32H523RET6, STM32H523VCI6, STM32H523VCT6, STM32H523VEI6, STM32H523VET6, STM32H523ZCJ6, STM32H523ZCT6, STM32H523ZEJ6, STM32H523ZET6, STM32H533CET6, STM32H533CEU6, STM32H533HEY6TR, STM32H533RET6, STM32H533VEI6, STM32H533VET6, STM32H533ZEJ6, STM32H533ZET6, STM32H562AGI6, STM32H562AII6, STM32H562IGK6, STM32H562IGT6, STM32H562IIK6, STM32H562IIT6, STM32H562RGT6, STM32H562RGV6, STM32H562RIT6, STM32H562RIV6, STM32H562VGT6, STM32H562VIT6, STM32H562ZGT6, STM32H562ZIT6, STM32H563AGI6, STM32H563AII3Q, STM32H563AII6, STM32H563IGK6, STM32H563IGT6, STM32H563IIK3Q, STM32H563IIK6, STM32H563IIT3Q, STM32H563IIT6, STM32H563MIY3QTR, STM32H563RGT6, STM32H563RGV6, STM32H563RIT6, STM32H563RIV6, STM32H563VGT6, STM32H563VIT3Q, STM32H563VIT6, STM32H563ZGT6, STM32H563ZIT3Q, STM32H563ZIT6, STM32H573AII3Q, STM32H573AII6, STM32H573I-DK, STM32H573IIK3Q, STM32H573IIK6, STM32H573IIT3Q, STM32H573IIT6, STM32H573MIY3QTR, STM32H573RIT6, STM32H573RIV6, STM32H573VIT3Q, STM32H573VIT6, STM32H573ZIT3Q, STM32H573ZIT6, STM32H7R3A8I6, STM32H7R3I8K6, STM32H7R3I8T6, STM32H7R3L8H6, STM32H7R3L8H6H, STM32H7R3R8V6, STM32H7R3V8H6, STM32H7R3V8T6, STM32H7R3V8Y6TR, STM32H7R3Z8J6, STM32H7R3Z8T6, STM32H7R7A8I6, STM32H7R7I8K6, STM32H7R7I8T6, STM32H7R7L8H6, STM32H7R7L8H6H, STM32H7R7Z8J6, STM32H7S3A8I6, STM32H7S3I8K6, STM32H7S3I8T6, STM32H7S3L8H6, STM32H7S3L8H6H, STM32H7S3R8V6, STM32H7S3V8H6, STM32H7S3V8T6, STM32H7S3V8Y6TR, STM32H7S3Z8J6, STM32H7S3Z8T6, STM32H7S78-DK, STM32H7S7A8I6, STM32H7S7I8K6, STM32H7S7I8T6, STM32H7S7L8H6, STM32H7S7L8H6H, STM32H7S7Z8J6, STM32L4R5QGI6STR, STM32MP131AAE3, STM32MP131AAF3, STM32MP131AAG3, STM32MP131CAE3, STM32MP131CAF3, STM32MP131CAG3, STM32MP131DAE7, STM32MP131DAF7, STM32MP131DAG7, STM32MP131FAE7, STM32MP131FAF7, STM32MP131FAG7, STM32MP133AAE3, STM32MP133AAF3, STM32MP133AAG3, STM32MP133CAE3, STM32MP133CAF3, STM32MP133CAG3, STM32MP133DAE7, STM32MP133DAF7, STM32MP133DAG7, STM32MP133FAE7, STM32MP133FAF7, STM32MP133FAG7, STM32MP135AAE3, STM32MP135AAF3, STM32MP135AAG3, STM32MP135CAE3, STM32MP135CAF3, STM32MP135CAG3, STM32MP135DAE7, STM32MP135DAF7, STM32MP135DAG7, STM32MP135F-DK, STM32MP135FAE7, STM32MP135FAF7, STM32MP135FAF7T, STM32MP135FAF7U, STM32MP135FAG7, STM32MP251AAI3, STM32MP251AAK3, STM32MP251AAL3, STM32MP251CAI3, STM32MP251CAK3, STM32MP251CAL3, STM32MP251DAI3, STM32MP251DAK3, STM32MP251DAL3, STM32MP251FAI3, STM32MP251FAK3, STM32MP251FAL3, STM32MP253AAI3, STM32MP253AAK3, STM32MP253AAL3, STM32MP253CAI3, STM32MP253CAK3, STM32MP253CAL3, STM32MP253DAI3, STM32MP253DAK3, STM32MP253DAL3, STM32MP253FAI3, STM32MP253FAK3, STM32MP253FAL3, STM32MP255AAI3, STM32MP255AAK3, STM32MP255AAL3, STM32MP255CAI3, STM32MP255CAK3, STM32MP255CAL3, STM32MP255DAI3, STM32MP255DAK3, STM32MP255DAL3, STM32MP255FAI3, STM32MP255FAK3, STM32MP255FAL3, STM32MP257AAI3, STM32MP257AAK3, STM32MP257AAL3, STM32MP257CAI3, STM32MP257CAK3, STM32MP257CAL3, STM32MP257DAI3, STM32MP257DAK3, STM32MP257DAL3, STM32MP257F-DK, STM32MP257F-EV1, STM32MP257FAI3, STM32MP257FAK3, STM32MP257FAL3, STM32U031C6T6, STM32U031C6U6, STM32U031C8T6, STM32U031C8U6, STM32U031F4P6, STM32U031F6P6, STM32U031F8P6, STM32U031G6Y6TR, STM32U031G8Y6TR, STM32U031K4U6, STM32U031K6U6, STM32U031K8U6, STM32U031R6I6, STM32U031R6T6, STM32U031R8I6, STM32U031R8T6, STM32U073C8T6, STM32U073C8U6, STM32U073CBT6, STM32U073CBU6, STM32U073CCT6, STM32U073CCU6, STM32U073H8Y6TR, STM32U073HBY6TR, STM32U073HCY6TR, STM32U073K8U6, STM32U073KBU6, STM32U073KCU6, STM32U073M8I6, STM32U073M8T6, STM32U073MBI6, STM32U073MBT6, STM32U073MCI6, STM32U073MCT6, STM32U073R8I6, STM32U073R8T6, STM32U073RBI6, STM32U073RBT6, STM32U073RCI6, STM32U073RCT6, STM32U083C-DK, STM32U083CCT6, STM32U083CCU6, STM32U083HCY6TR, STM32U083KCU6, STM32U083MCI6, STM32U083MCT6, STM32U083RCI6, STM32U083RCT6, STM32U535CBT6, STM32U535CBT6Q, STM32U535CBU6, STM32U535CBU6Q, STM32U535CCT6, STM32U535CCT6Q, STM32U535CCU6, STM32U535CCU6Q, STM32U535CET6, STM32U535CET6Q, STM32U535CEU6, STM32U535CEU6Q, STM32U535JEY6QTR, STM32U535NCY6QTR, STM32U535NEY6QTR, STM32U535RBI6, STM32U535RBI6Q, STM32U535RBT6, STM32U535RBT6Q, STM32U535RCI6, STM32U535RCI6Q, STM32U535RCT6, STM32U535RCT6Q, STM32U535REI6, STM32U535REI6Q, STM32U535RET6, STM32U535RET6Q, STM32U535VCI6, STM32U535VCI6Q, STM32U535VCT6, STM32U535VCT6Q, STM32U535VEI6, STM32U535VEI6Q, STM32U535VET6, STM32U535VET6Q, STM32U545CET6, STM32U545CET6Q, STM32U545CEU6, STM32U545CEU6Q, STM32U545JEY6QTR, STM32U545NEY6QTR, STM32U545REI6, STM32U545REI6Q, STM32U545RET6, STM32U545RET6Q, STM32U545VEI6, STM32U545VEI6Q, STM32U545VET6, STM32U545VET6Q, STM32U595AIH6, STM32U595AIH6Q, STM32U595AJH6, STM32U595AJH6Q, STM32U595QII6, STM32U595QII6Q, STM32U595QJI6, STM32U595QJI6Q, STM32U595RIT6, STM32U595RIT6Q, STM32U595RJT6, STM32U595RJT6Q, STM32U595VIT6, STM32U595VIT6Q, STM32U595VJT6, STM32U595VJT6Q, STM32U595ZIT6, STM32U595ZIT6Q, STM32U595ZIY6QTR, STM32U595ZJT6, STM32U595ZJT6Q, STM32U595ZJY6QTR, STM32U599BJY6QTR, STM32U599NIH6Q, STM32U599NJH6Q, STM32U599VIT6Q, STM32U599VJT6, STM32U599VJT6Q, STM32U599ZIT6Q, STM32U599ZIY6QTR, STM32U599ZJT6Q, STM32U599ZJY6QTR, STM32U5A5AJH6, STM32U5A5AJH6Q, STM32U5A5QII3Q , STM32U5A5QJI6, STM32U5A5QJI6Q, STM32U5A5RJT6, STM32U5A5RJT6Q, STM32U5A5VJT6, STM32U5A5VJT6Q, STM32U5A5ZJT6, STM32U5A5ZJT6Q, STM32U5A5ZJY6QTR, STM32U5A9BJY6QTR, STM32U5A9J-DK, STM32U5A9NJH6Q, STM32U5A9VJT6Q, STM32U5A9ZJT6Q, STM32U5A9ZJY6QTR, STM32U5F7VIT6, STM32U5F7VIT6Q, STM32U5F7VJT6, STM32U5F7VJT6Q, STM32U5F9BJY6QTR, STM32U5F9NJH6Q, STM32U5F9VIT6Q, STM32U5F9VJT6Q, STM32U5F9ZIJ6QTR, STM32U5F9ZIT6Q, STM32U5F9ZJJ6QTR, STM32U5F9ZJT6Q, STM32U5G7VJT6, STM32U5G7VJT6Q, STM32U5G9BJY6QTR, STM32U5G9J-DK1, STM32U5G9J-DK2, STM32U5G9NJH6Q, STM32U5G9VJT6Q, STM32U5G9ZJJ6QTR, STM32U5G9ZJT6Q, STM32WB05KZV6TR, STM32WB05KZV7TR, STM32WB05TZF6TR, STM32WB05TZF7TR, STM32WB06CCF6TR, STM32WB06CCF7TR, STM32WB06CCV6TR, STM32WB06CCV7TR, STM32WB06KCV6TR, STM32WB06KCV7TR, STM32WB07CCF6TR, STM32WB07CCF7TR, STM32WB07CCV6TR, STM32WB07CCV7TR, STM32WB07KCV6TR, STM32WB07KCV7TR, STM32WB09KEV6TR, STM32WB09KEV7TR, STM32WB09TEF6TR, STM32WB09TEF7TR, STM32WB1MMCH6, STM32WBA50KGU6, STM32WBA50KGU6TR, STM32WBA52CEU6, STM32WBA52CEU6TR, STM32WBA52CEU7, STM32WBA52CEU7TR, STM32WBA52CGU6, STM32WBA52CGU6TR, STM32WBA52CGU6U, STM32WBA52CGU7, STM32WBA52CGU7TR, STM32WBA52KEU6, STM32WBA52KEU6TR, STM32WBA52KGU6, STM32WBA52KGU6TR, STM32WBA54CEU6, STM32WBA54CEU6TR, STM32WBA54CEU7, STM32WBA54CEU7TR, STM32WBA54CGU6, STM32WBA54CGU6TR, STM32WBA54CGU7, STM32WBA54CGU7TR, STM32WBA54KEU6, STM32WBA54KEU6TR, STM32WBA54KEU7, STM32WBA54KEU7TR, STM32WBA54KGU6, STM32WBA54KGU6TR, STM32WBA54KGU7, STM32WBA54KGU7TR, STM32WBA55CEU6, STM32WBA55CEU6TR, STM32WBA55CEU7, STM32WBA55CEU7TR, STM32WBA55CGU6, STM32WBA55CGU6TR, STM32WBA55CGU6U, STM32WBA55CGU7, STM32WBA55CGU7TR, STM32WBA55G-DK1, STM32WBA55HEF6, STM32WBA55HEF7, STM32WBA55HGF6, STM32WBA55HGF7, STM32WBA55UEI6, STM32WBA55UEI6TR, STM32WBA55UEI7, STM32WBA55UEI7TR, STM32WBA55UGI6, STM32WBA55UGI6TR, STM32WBA55UGI7, STM32WBA55UGI7TR, STM32WL5MOCH6, STM32WL5MOCH6TR]
2025-03-23 17:06:57,358 [INFO] ApiDb:668 - CubeFinder database Data Model version=2.1
2025-03-23 17:06:57,358 [INFO] ApiDb:669 - CubeFinder database Configuration version=3.0.39
2025-03-23 17:06:57,359 [INFO] ApiDb:670 - CubeFinder database generation date=2025-02-07 (1738919966)
2025-03-23 17:06:57,359 [INFO] ApiDb:671 - CubeFinder database FW Pack versions=[FP-ATR-ASTRA1_V2.0.0, FP-SNS-FLIGHT1_V5.0.2, FP-SNS-MOTENV1_V5.0.0, FP-SNS-MOTENVWB1_V1.4.0, FP-SNS-SMARTAG2_V1.2.0, FP-SNS-STBOX1_V2.0.0, STM32Cube_FW_C0_V1.3.0, STM32Cube_FW_F4_V1.28.1, STM32Cube_FW_F7_V1.17.2, STM32Cube_FW_G0_V1.6.2, STM32Cube_FW_G4_V1.6.1, STM32Cube_FW_H5_V1.4.0, STM32Cube_FW_H7RS_V1.1.0, STM32Cube_FW_H7_V1.12.0, STM32Cube_FW_L0_V1.12.2, STM32Cube_FW_L4_V1.18.1, STM32Cube_FW_L5_V1.5.1, STM32Cube_FW_N6_V1.0.0, STM32Cube_FW_U0_V1.2.0, STM32Cube_FW_U3_V1.0.0, STM32Cube_FW_U5_V1.7.0, STM32Cube_FW_WB0_V1.1.0, STM32Cube_FW_WBA_V1.5.0, STM32Cube_FW_WB_V1.21.0, STM32Cube_FW_WL3_V1.0.0, STM32Cube_FW_WL_V1.3.0, X-CUBE-ALGOBUILD_V1.4.0, X-CUBE-ALS_V1.0.2, X-CUBE-AZRTOS-F4_V1.1.0, X-CUBE-AZRTOS-F7_V1.1.0, X-CUBE-AZRTOS-G0_V1.1.0, X-CUBE-AZRTOS-G4_V2.0.0, X-CUBE-AZRTOS-H7RS_V1.0.0, X-CUBE-AZRTOS-H7_V3.3.0, X-CUBE-AZRTOS-L4_V2.0.0, X-CUBE-AZRTOS-L5_V2.0.0, X-CUBE-AZRTOS-WB_V2.0.0, X-CUBE-AZRTOS-WL_V2.0.0, X-CUBE-BLE1_V7.0.0, X-CUBE-BLE2_V3.3.0, X-CUBE-BLEMGR_V4.0.0, X-CUBE-EEPRMA1_V5.1.0, X-CUBE-FREERTOS_V1.2.0, X-CUBE-GNSS1_V6.0.0, X-CUBE-MEMS1_V11.1.0, X-CUBE-NFC4_V3.0.0, X-CUBE-NFC7_V1.0.1, X-CUBE-SFXS2LP1_V4.0.0, X-CUBE-SUBG2_V5.0.0, X-CUBE-TOF1_V3.4.2]
2025-03-23 17:06:59,534 [INFO] ApiDb:240 - Found 646 in-development CPN: [B-G473E-ZEST1S, B-WB1M-WPAN1, B-WL5M-SUBG1, NUCLEO-C031C6, NUCLEO-C071RB, NUCLEO-H503RB, NUCLEO-H533RE, NUCLEO-H563ZI, NUCLEO-H7S3L8, NUCLEO-U031R8, NUCLEO-U083RC, NUCLEO-U545RE-Q, NUCLEO-U5A5ZJ-Q, NUCLEO-WB05KZ, NUCLEO-WB07CC, NUCLEO-WB09KE, NUCLEO-WBA52CG, NUCLEO-WBA55CG, STEVAL-PROTEUS1, STEVAL-SMARTAG2, STEVAL-STWINBX1, STM320518-EVAL, STM32C0116-DK, STM32C011D6Y3TR, STM32C011D6Y6TR, STM32C011F4P3, STM32C011F4P6, STM32C011F4U3, STM32C011F4U6TR, STM32C011F6P3, STM32C011F6P6, STM32C011F6U3, STM32C011F6U6TR, STM32C011J4M3, STM32C011J4M6, STM32C011J6M3, STM32C011J6M6, STM32C0316-DK, STM32C031C4T3, STM32C031C4T6, STM32C031C4U3, STM32C031C4U6, STM32C031C6T3, STM32C031C6T6, STM32C031C6U3, STM32C031C6U6, STM32C031F4P3, STM32C031F4P6, STM32C031F6P3, STM32C031F6P6, STM32C031G4U3, STM32C031G4U6, STM32C031G6U3, STM32C031G6U6, STM32C031K4T3, STM32C031K4T6, STM32C031K4U3, STM32C031K4U6, STM32C031K6T3, STM32C031K6T6, STM32C031K6U3, STM32C031K6U6, STM32C071C8T6, STM32C071C8T6N, STM32C071C8U6, STM32C071C8U6N, STM32C071CBT6, STM32C071CBT6N, STM32C071CBU6, STM32C071CBU6N, STM32C071F8P6, STM32C071F8P6N, STM32C071FBP6, STM32C071FBP6N, STM32C071FBY6TR, STM32C071G8U6, STM32C071G8U6N, STM32C071GBU6, STM32C071GBU6N, STM32C071K8T6, STM32C071K8T6N, STM32C071K8U6, STM32C071K8U6N, STM32C071KBT6, STM32C071KBT6N, STM32C071KBU6, STM32C071KBU6N, STM32C071R8T6, STM32C071R8T6N, STM32C071RBI6N, STM32C071RBT6, STM32C071RBT6N, STM32G071K8TXN, STM32G071K8UXN, STM32G081GBU6N, STM32G081KBT6N, STM32G081KBUXN, STM32G0B1CCT6N, STM32G0B1KCT6, STM32G0B1NEY6TR, STM32G0B1RCT6N, STM32G0C1CCT6, STM32G0C1CCT6N, STM32G0C1CCU6N, STM32G0C1CET6N, STM32G0C1CEU6N, STM32G0C1KCT6, STM32G0C1NEY6TR, STM32G0C1RCI6N, STM32G0C1RCT6N, STM32G0C1REI6N, STM32G0C1RET6N, STM32G0C1VCI6, STM32G0C1VEI6, STM32G411C6T3, STM32G411C6T6, STM32G411C6U3, STM32G411C6U6, STM32G411C8T3, STM32G411C8T6, STM32G411C8U3, STM32G411C8U6, STM32G411CBT3, STM32G411CBT6, STM32G411CBU3, STM32G411CBU6, STM32G411K6T3, STM32G411K6T6, STM32G411K6U3, STM32G411K6U6, STM32G411K8T3, STM32G411K8T6, STM32G411K8U3, STM32G411K8U6, STM32G411KBT3, STM32G411KBT6, STM32G411KBU3, STM32G411KBU6, STM32G411M6T3, STM32G411M6T6, STM32G411M8T3, STM32G411M8T6, STM32G411MBT3, STM32G411MBT6, STM32G411R6T3, STM32G411R6T6, STM32G411R8T3, STM32G411R8T6, STM32G411RBT3, STM32G411RBT6, STM32G414CBT3, STM32G414CBT6, STM32G414CBU3, STM32G414CBU6, STM32G414CCT3, STM32G414CCT6, STM32G414CCU3, STM32G414CCU6, STM32G414MBT3, STM32G414MBT6, STM32G414MCT3, STM32G414MCT6, STM32G414RBT3, STM32G414RBT6, STM32G414RCT3, STM32G414RCT6, STM32G414VBT3, STM32G414VBT6, STM32G414VCT3, STM32G414VCT6, STM32G431CBT3Z, STM32G431RBT3Z, STM32G471CCT6, STM32G471CCU6, STM32G471CET3, STM32G471CET6, STM32G471CEU3, STM32G471CEU6, STM32G471MCT6, STM32G471MET3, STM32G471MET6, STM32G471MEY6TR, STM32G471QCT6, STM32G471QET3, STM32G471RCT6, STM32G471RET3, STM32G471RET6, STM32G471VCH6, STM32G471VCI6, STM32G471VCT6, STM32G471VEH3, STM32G471VEH6, STM32G471VEI3, STM32G471VEI6, STM32G471VET3, STM32G471VET6, STM32G473QET3Z, STM32G473RET3Z, STM32G474CCT6, STM32G491RET3Z, STM32H503CBT6, STM32H503CBU6, STM32H503EBY6TR, STM32H503KBU6, STM32H503RBT6, STM32H523CCT6, STM32H523CCU6, STM32H523CET6, STM32H523CEU6, STM32H523HEY6TR, STM32H523RCT6, STM32H523RET6, STM32H523VCI6, STM32H523VCT6, STM32H523VEI6, STM32H523VET6, STM32H523ZCJ6, STM32H523ZCT6, STM32H523ZEJ6, STM32H523ZET6, STM32H533CET6, STM32H533CEU6, STM32H533HEY6TR, STM32H533RET6, STM32H533VEI6, STM32H533VET6, STM32H533ZEJ6, STM32H533ZET6, STM32H562AGI6, STM32H562AII6, STM32H562IGK6, STM32H562IGT6, STM32H562IIK6, STM32H562IIT6, STM32H562RGT6, STM32H562RGV6, STM32H562RIT6, STM32H562RIV6, STM32H562VGT6, STM32H562VIT6, STM32H562ZGT6, STM32H562ZIT6, STM32H563AGI6, STM32H563AII3Q, STM32H563AII6, STM32H563IGK6, STM32H563IGT6, STM32H563IIK3Q, STM32H563IIK6, STM32H563IIT3Q, STM32H563IIT6, STM32H563MIY3QTR, STM32H563RGT6, STM32H563RGV6, STM32H563RIT6, STM32H563RIV6, STM32H563VGT6, STM32H563VIT3Q, STM32H563VIT6, STM32H563ZGT6, STM32H563ZIT3Q, STM32H563ZIT6, STM32H573AII3Q, STM32H573AII6, STM32H573I-DK, STM32H573IIK3Q, STM32H573IIK6, STM32H573IIT3Q, STM32H573IIT6, STM32H573MIY3QTR, STM32H573RIT6, STM32H573RIV6, STM32H573VIT3Q, STM32H573VIT6, STM32H573ZIT3Q, STM32H573ZIT6, STM32H7R3A8I6, STM32H7R3I8K6, STM32H7R3I8T6, STM32H7R3L8H6, STM32H7R3L8H6H, STM32H7R3R8V6, STM32H7R3V8H6, STM32H7R3V8T6, STM32H7R3V8Y6TR, STM32H7R3Z8J6, STM32H7R3Z8T6, STM32H7R7A8I6, STM32H7R7I8K6, STM32H7R7I8T6, STM32H7R7L8H6, STM32H7R7L8H6H, STM32H7R7Z8J6, STM32H7S3A8I6, STM32H7S3I8K6, STM32H7S3I8T6, STM32H7S3L8H6, STM32H7S3L8H6H, STM32H7S3R8V6, STM32H7S3V8H6, STM32H7S3V8T6, STM32H7S3V8Y6TR, STM32H7S3Z8J6, STM32H7S3Z8T6, STM32H7S78-DK, STM32H7S7A8I6, STM32H7S7I8K6, STM32H7S7I8T6, STM32H7S7L8H6, STM32H7S7L8H6H, STM32H7S7Z8J6, STM32L4R5QGI6STR, STM32MP131AAE3, STM32MP131AAF3, STM32MP131AAG3, STM32MP131CAE3, STM32MP131CAF3, STM32MP131CAG3, STM32MP131DAE7, STM32MP131DAF7, STM32MP131DAG7, STM32MP131FAE7, STM32MP131FAF7, STM32MP131FAG7, STM32MP133AAE3, STM32MP133AAF3, STM32MP133AAG3, STM32MP133CAE3, STM32MP133CAF3, STM32MP133CAG3, STM32MP133DAE7, STM32MP133DAF7, STM32MP133DAG7, STM32MP133FAE7, STM32MP133FAF7, STM32MP133FAG7, STM32MP135AAE3, STM32MP135AAF3, STM32MP135AAG3, STM32MP135CAE3, STM32MP135CAF3, STM32MP135CAG3, STM32MP135DAE7, STM32MP135DAF7, STM32MP135DAG7, STM32MP135F-DK, STM32MP135FAE7, STM32MP135FAF7, STM32MP135FAF7T, STM32MP135FAF7U, STM32MP135FAG7, STM32MP251AAI3, STM32MP251AAK3, STM32MP251AAL3, STM32MP251CAI3, STM32MP251CAK3, STM32MP251CAL3, STM32MP251DAI3, STM32MP251DAK3, STM32MP251DAL3, STM32MP251FAI3, STM32MP251FAK3, STM32MP251FAL3, STM32MP253AAI3, STM32MP253AAK3, STM32MP253AAL3, STM32MP253CAI3, STM32MP253CAK3, STM32MP253CAL3, STM32MP253DAI3, STM32MP253DAK3, STM32MP253DAL3, STM32MP253FAI3, STM32MP253FAK3, STM32MP253FAL3, STM32MP255AAI3, STM32MP255AAK3, STM32MP255AAL3, STM32MP255CAI3, STM32MP255CAK3, STM32MP255CAL3, STM32MP255DAI3, STM32MP255DAK3, STM32MP255DAL3, STM32MP255FAI3, STM32MP255FAK3, STM32MP255FAL3, STM32MP257AAI3, STM32MP257AAK3, STM32MP257AAL3, STM32MP257CAI3, STM32MP257CAK3, STM32MP257CAL3, STM32MP257DAI3, STM32MP257DAK3, STM32MP257DAL3, STM32MP257F-DK, STM32MP257F-EV1, STM32MP257FAI3, STM32MP257FAK3, STM32MP257FAL3, STM32U031C6T6, STM32U031C6U6, STM32U031C8T6, STM32U031C8U6, STM32U031F4P6, STM32U031F6P6, STM32U031F8P6, STM32U031G6Y6TR, STM32U031G8Y6TR, STM32U031K4U6, STM32U031K6U6, STM32U031K8U6, STM32U031R6I6, STM32U031R6T6, STM32U031R8I6, STM32U031R8T6, STM32U073C8T6, STM32U073C8U6, STM32U073CBT6, STM32U073CBU6, STM32U073CCT6, STM32U073CCU6, STM32U073H8Y6TR, STM32U073HBY6TR, STM32U073HCY6TR, STM32U073K8U6, STM32U073KBU6, STM32U073KCU6, STM32U073M8I6, STM32U073M8T6, STM32U073MBI6, STM32U073MBT6, STM32U073MCI6, STM32U073MCT6, STM32U073R8I6, STM32U073R8T6, STM32U073RBI6, STM32U073RBT6, STM32U073RCI6, STM32U073RCT6, STM32U083C-DK, STM32U083CCT6, STM32U083CCU6, STM32U083HCY6TR, STM32U083KCU6, STM32U083MCI6, STM32U083MCT6, STM32U083RCI6, STM32U083RCT6, STM32U535CBT6, STM32U535CBT6Q, STM32U535CBU6, STM32U535CBU6Q, STM32U535CCT6, STM32U535CCT6Q, STM32U535CCU6, STM32U535CCU6Q, STM32U535CET6, STM32U535CET6Q, STM32U535CEU6, STM32U535CEU6Q, STM32U535JEY6QTR, STM32U535NCY6QTR, STM32U535NEY6QTR, STM32U535RBI6, STM32U535RBI6Q, STM32U535RBT6, STM32U535RBT6Q, STM32U535RCI6, STM32U535RCI6Q, STM32U535RCT6, STM32U535RCT6Q, STM32U535REI6, STM32U535REI6Q, STM32U535RET6, STM32U535RET6Q, STM32U535VCI6, STM32U535VCI6Q, STM32U535VCT6, STM32U535VCT6Q, STM32U535VEI6, STM32U535VEI6Q, STM32U535VET6, STM32U535VET6Q, STM32U545CET6, STM32U545CET6Q, STM32U545CEU6, STM32U545CEU6Q, STM32U545JEY6QTR, STM32U545NEY6QTR, STM32U545REI6, STM32U545REI6Q, STM32U545RET6, STM32U545RET6Q, STM32U545VEI6, STM32U545VEI6Q, STM32U545VET6, STM32U545VET6Q, STM32U595AIH6, STM32U595AIH6Q, STM32U595AJH6, STM32U595AJH6Q, STM32U595QII6, STM32U595QII6Q, STM32U595QJI6, STM32U595QJI6Q, STM32U595RIT6, STM32U595RIT6Q, STM32U595RJT6, STM32U595RJT6Q, STM32U595VIT6, STM32U595VIT6Q, STM32U595VJT6, STM32U595VJT6Q, STM32U595ZIT6, STM32U595ZIT6Q, STM32U595ZIY6QTR, STM32U595ZJT6, STM32U595ZJT6Q, STM32U595ZJY6QTR, STM32U599BJY6QTR, STM32U599NIH6Q, STM32U599NJH6Q, STM32U599VIT6Q, STM32U599VJT6, STM32U599VJT6Q, STM32U599ZIT6Q, STM32U599ZIY6QTR, STM32U599ZJT6Q, STM32U599ZJY6QTR, STM32U5A5AJH6, STM32U5A5AJH6Q, STM32U5A5QII3Q , STM32U5A5QJI6, STM32U5A5QJI6Q, STM32U5A5RJT6, STM32U5A5RJT6Q, STM32U5A5VJT6, STM32U5A5VJT6Q, STM32U5A5ZJT6, STM32U5A5ZJT6Q, STM32U5A5ZJY6QTR, STM32U5A9BJY6QTR, STM32U5A9J-DK, STM32U5A9NJH6Q, STM32U5A9VJT6Q, STM32U5A9ZJT6Q, STM32U5A9ZJY6QTR, STM32U5F7VIT6, STM32U5F7VIT6Q, STM32U5F7VJT6, STM32U5F7VJT6Q, STM32U5F9BJY6QTR, STM32U5F9NJH6Q, STM32U5F9VIT6Q, STM32U5F9VJT6Q, STM32U5F9ZIJ6QTR, STM32U5F9ZIT6Q, STM32U5F9ZJJ6QTR, STM32U5F9ZJT6Q, STM32U5G7VJT6, STM32U5G7VJT6Q, STM32U5G9BJY6QTR, STM32U5G9J-DK1, STM32U5G9J-DK2, STM32U5G9NJH6Q, STM32U5G9VJT6Q, STM32U5G9ZJJ6QTR, STM32U5G9ZJT6Q, STM32WB05KZV6TR, STM32WB05KZV7TR, STM32WB05TZF6TR, STM32WB05TZF7TR, STM32WB06CCF6TR, STM32WB06CCF7TR, STM32WB06CCV6TR, STM32WB06CCV7TR, STM32WB06KCV6TR, STM32WB06KCV7TR, STM32WB07CCF6TR, STM32WB07CCF7TR, STM32WB07CCV6TR, STM32WB07CCV7TR, STM32WB07KCV6TR, STM32WB07KCV7TR, STM32WB09KEV6TR, STM32WB09KEV7TR, STM32WB09TEF6TR, STM32WB09TEF7TR, STM32WB1MMCH6, STM32WBA50KGU6, STM32WBA50KGU6TR, STM32WBA52CEU6, STM32WBA52CEU6TR, STM32WBA52CEU7, STM32WBA52CEU7TR, STM32WBA52CGU6, STM32WBA52CGU6TR, STM32WBA52CGU6U, STM32WBA52CGU7, STM32WBA52CGU7TR, STM32WBA52KEU6, STM32WBA52KEU6TR, STM32WBA52KGU6, STM32WBA52KGU6TR, STM32WBA54CEU6, STM32WBA54CEU6TR, STM32WBA54CEU7, STM32WBA54CEU7TR, STM32WBA54CGU6, STM32WBA54CGU6TR, STM32WBA54CGU7, STM32WBA54CGU7TR, STM32WBA54KEU6, STM32WBA54KEU6TR, STM32WBA54KEU7, STM32WBA54KEU7TR, STM32WBA54KGU6, STM32WBA54KGU6TR, STM32WBA54KGU7, STM32WBA54KGU7TR, STM32WBA55CEU6, STM32WBA55CEU6TR, STM32WBA55CEU7, STM32WBA55CEU7TR, STM32WBA55CGU6, STM32WBA55CGU6TR, STM32WBA55CGU6U, STM32WBA55CGU7, STM32WBA55CGU7TR, STM32WBA55G-DK1, STM32WBA55HEF6, STM32WBA55HEF7, STM32WBA55HGF6, STM32WBA55HGF7, STM32WBA55UEI6, STM32WBA55UEI6TR, STM32WBA55UEI7, STM32WBA55UEI7TR, STM32WBA55UGI6, STM32WBA55UGI6TR, STM32WBA55UGI7, STM32WBA55UGI7TR, STM32WL5MOCH6, STM32WL5MOCH6TR]
2025-03-23 17:06:59,542 [INFO] DbMcus:218 - Found 4440 MCUs, 4440 are supported
2025-03-23 17:06:59,549 [INFO] ApiDb:423 - Load user favorites file C:\Users\OS/.stm32cubeide/favorites.mcus.txt: 1 item(s)
2025-03-23 17:06:59,549 [INFO] ApiDb:427 - User favorites MCUs=[STM32F407VGT6]
2025-03-23 17:06:59,549 [INFO] DbMcus:224 - Set 1 / 1 favorites MCUs
2025-03-23 17:07:00,011 [INFO] BoardInfo:889 - No configuration file found for board NUCLEO-N657X0-Q
2025-03-23 17:07:00,011 [INFO] DbBoards:161 - Board is not supported: NUCLEO-N657X0-Q
2025-03-23 17:07:00,031 [INFO] BoardInfo:889 - No configuration file found for board NUCLEO-WL33CC1
2025-03-23 17:07:00,031 [INFO] DbBoards:161 - Board is not supported: NUCLEO-WL33CC1
2025-03-23 17:07:00,033 [INFO] BoardInfo:889 - No configuration file found for board NUCLEO-WL33CC2
2025-03-23 17:07:00,033 [INFO] DbBoards:161 - Board is not supported: NUCLEO-WL33CC2
2025-03-23 17:07:00,040 [INFO] BoardInfo:889 - No configuration file found for board P-NUCLEO-WB55
2025-03-23 17:07:00,041 [INFO] DbBoards:161 - Kit is not supported: P-NUCLEO-WB55
2025-03-23 17:07:00,046 [INFO] BoardInfo:889 - No configuration file found for board STEVAL-BFA001V1B
2025-03-23 17:07:00,046 [INFO] DbBoards:161 - Kit is not supported: STEVAL-BFA001V1B
2025-03-23 17:07:00,047 [INFO] BoardInfo:889 - No configuration file found for board STEVAL-BFA001V2B
2025-03-23 17:07:00,048 [INFO] DbBoards:161 - Kit is not supported: STEVAL-BFA001V2B
2025-03-23 17:07:00,192 [INFO] BoardInfo:889 - No configuration file found for board STM32N6570-DK
2025-03-23 17:07:00,193 [INFO] DbBoards:161 - Board is not supported: STM32N6570-DK
2025-03-23 17:07:00,205 [INFO] DbBoards:168 - Found 205 boards, 198 are supported
2025-03-23 17:07:00,206 [INFO] DbBoards:169 - Found 205 boards, 25 of them is supported for  Bsp
2025-03-23 17:07:00,213 [INFO] ApiDb:423 - Load user favorites file C:\Users\OS/.stm32cubeide/favorites.boards.txt: 1 item(s)
2025-03-23 17:07:00,213 [INFO] ApiDb:427 - User favorites Boards=[STM32F407G-DISC1]
2025-03-23 17:07:00,213 [INFO] DbBoards:198 - Set 1 / 1 favorites Boards
2025-03-23 17:07:00,276 [INFO] UtilMem:75 - End LoadConfig() Used Memory: 274660400 Bytes (382730240)
2025-03-23 17:07:00,441 [WARN] ThirdParty:833 - waiting for thirdparty lock release [change project]
2025-03-23 17:07:00,442 [INFO] ThirdParty:835 - entering critical section [change project]
2025-03-23 17:07:00,442 [INFO] ThirdParty:1030 - CMSIS Pack Vendor :STMicroelectronics USBPD 4.1
2025-03-23 17:07:00,442 [INFO] ThirdParty:1030 - CMSIS Pack Vendor :STMicroelectronics X-CUBE-GNSS1 6.0.0
2025-03-23 17:07:00,442 [INFO] ThirdParty:1030 - CMSIS Pack Vendor :STMicroelectronics USB_HOST 2.0.0
2025-03-23 17:07:00,442 [INFO] ThirdParty:1030 - CMSIS Pack Vendor :STMicroelectronics FP-SNS-MOTENVWB1 1.4.0
2025-03-23 17:07:00,442 [INFO] ThirdParty:1030 - CMSIS Pack Vendor :STMicroelectronics X-CUBE-AZRTOS-F4 1.1.0
2025-03-23 17:07:00,442 [INFO] ThirdParty:1030 - CMSIS Pack Vendor :STMicroelectronics LIBJPEG 8.0.0
2025-03-23 17:07:00,442 [INFO] ThirdParty:1030 - CMSIS Pack Vendor :STMicroelectronics FP-ATR-ASTRA1 2.0.2
2025-03-23 17:07:00,442 [INFO] ThirdParty:1030 - CMSIS Pack Vendor :STMicroelectronics FP-ATR-ASTRA1 2.0.1
2025-03-23 17:07:00,442 [INFO] ThirdParty:1030 - CMSIS Pack Vendor :STMicroelectronics X-CUBE-SMBUS 2.1.0
2025-03-23 17:07:00,442 [INFO] ThirdParty:1030 - CMSIS Pack Vendor :STMicroelectronics X-CUBE-WB05N 1.1.0
2025-03-23 17:07:00,442 [INFO] ThirdParty:1030 - CMSIS Pack Vendor :STMicroelectronics X-CUBE-ISPU 2.1.0
2025-03-23 17:07:00,442 [INFO] ThirdParty:1030 - CMSIS Pack Vendor :STMicroelectronics X-CUBE-FREERTOS 1.2.0
2025-03-23 17:07:00,443 [INFO] ThirdParty:1030 - CMSIS Pack Vendor :wolfSSL I-CUBE-wolfSSL 5.6.6
2025-03-23 17:07:00,443 [INFO] ThirdParty:1030 - CMSIS Pack Vendor :STMicroelectronics X-CUBE-TOUCHGFX 4.23.0
2025-03-23 17:07:00,443 [INFO] ThirdParty:1030 - CMSIS Pack Vendor :STMicroelectronics X-CUBE-TOUCHGFX 4.23.2
2025-03-23 17:07:00,443 [INFO] ThirdParty:1030 - CMSIS Pack Vendor :STMicroelectronics X-CUBE-AZRTOS-F7 1.1.0
2025-03-23 17:07:00,443 [INFO] ThirdParty:1030 - CMSIS Pack Vendor :STMicroelectronics X-CUBE-AZRTOS-L5 2.0.0
2025-03-23 17:07:00,443 [INFO] ThirdParty:1030 - CMSIS Pack Vendor :STMicroelectronics USB_DEVICE 2.0.0
2025-03-23 17:07:00,443 [INFO] ThirdParty:1030 - CMSIS Pack Vendor :STMicroelectronics X-CUBE-NFC6 3.1.0
2025-03-23 17:07:00,443 [INFO] ThirdParty:1030 - CMSIS Pack Vendor :ITTIA_DB I-CUBE-ITTIADB 8.8.0
2025-03-23 17:07:00,443 [INFO] ThirdParty:1030 - CMSIS Pack Vendor :STMicroelectronics FP-SNS-MOTENV1 4.3.2
2025-03-23 17:07:00,443 [INFO] ThirdParty:1030 - CMSIS Pack Vendor :STMicroelectronics X-CUBE-MEMS1 11.0.0
2025-03-23 17:07:00,443 [INFO] ThirdParty:1030 - CMSIS Pack Vendor :STMicroelectronics FreeRTOS 0.0.1
2025-03-23 17:07:00,443 [INFO] ThirdParty:1030 - CMSIS Pack Vendor :STMicroelectronics X-CUBE-DPower 1.2.0
2025-03-23 17:07:00,443 [INFO] ThirdParty:1030 - CMSIS Pack Vendor :STMicroelectronics FP-SNS-FLIGHT1 5.0.2
2025-03-23 17:07:00,443 [INFO] ThirdParty:1030 - CMSIS Pack Vendor :STMicroelectronics X-CUBE-AI 9.0.0
2025-03-23 17:07:00,443 [INFO] ThirdParty:1030 - CMSIS Pack Vendor :STMicroelectronics PDM2PCM 3.3.0
2025-03-23 17:07:00,443 [INFO] ThirdParty:1030 - CMSIS Pack Vendor :STMicroelectronics X-CUBE-DISPLAY 3.0.0
2025-03-23 17:07:00,443 [INFO] ThirdParty:1030 - CMSIS Pack Vendor :STMicroelectronics X-CUBE-BLE1 7.0.0
2025-03-23 17:07:00,443 [INFO] ThirdParty:1030 - CMSIS Pack Vendor :STMicroelectronics X-CUBE-NFC10 1.0.0
2025-03-23 17:07:00,443 [INFO] ThirdParty:1030 - CMSIS Pack Vendor :STMicroelectronics X-CUBE-BLEMGR 4.0.0
2025-03-23 17:07:00,443 [INFO] ThirdParty:1030 - CMSIS Pack Vendor :STMicroelectronics HAL Drivers 0.0.0
2025-03-23 17:07:00,443 [INFO] ThirdParty:1030 - CMSIS Pack Vendor :emotas I-CUBE-CANOPEN 1.3.0
2025-03-23 17:07:00,443 [INFO] ThirdParty:1030 - CMSIS Pack Vendor :STMicroelectronics X-CUBE-FREERTOS 1.3.0
2025-03-23 17:07:00,443 [INFO] ThirdParty:1030 - CMSIS Pack Vendor :STMicroelectronics X-CUBE-NFC7 1.0.1
2025-03-23 17:07:00,443 [INFO] ThirdParty:1030 - CMSIS Pack Vendor :STMicroelectronics MBEDTLS 2.14.1
2025-03-23 17:07:00,443 [INFO] ThirdParty:1030 - CMSIS Pack Vendor :wolfSSL I-CUBE-wolfTPM 3.2.0
2025-03-23 17:07:00,443 [INFO] ThirdParty:1030 - CMSIS Pack Vendor :STMicroelectronics X-CUBE-BLEMGR 3.1.0
2025-03-23 17:07:00,444 [INFO] ThirdParty:1030 - CMSIS Pack Vendor :STMicroelectronics X-CUBE-AI 10.0.0
2025-03-23 17:07:00,444 [INFO] ThirdParty:1030 - CMSIS Pack Vendor :STMicroelectronics FP-SNS-SMARTAG2 1.2.0
2025-03-23 17:07:00,444 [INFO] ThirdParty:1030 - CMSIS Pack Vendor :STMicroelectronics X-CUBE-MEMS1 11.1.0
2025-03-23 17:07:00,444 [INFO] ThirdParty:1030 - CMSIS Pack Vendor :STMicroelectronics X-CUBE-AZRTOS-WL 2.0.0
2025-03-23 17:07:00,444 [INFO] ThirdParty:1030 - CMSIS Pack Vendor :STMicroelectronics FP-SNS-MOTENV1 5.0.0
2025-03-23 17:07:00,444 [INFO] ThirdParty:1030 - CMSIS Pack Vendor :STMicroelectronics USB_DEVICE 1.0.0
2025-03-23 17:07:00,444 [INFO] ThirdParty:1030 - CMSIS Pack Vendor :STMicroelectronics X-CUBE-AI 8.1.0
2025-03-23 17:07:00,444 [INFO] ThirdParty:1030 - CMSIS Pack Vendor :wolfSSL I-CUBE-wolfMQTT 1.19.0
2025-03-23 17:07:00,444 [INFO] ThirdParty:1030 - CMSIS Pack Vendor :STMicroelectronics X-CUBE-AZRTOS-L4 2.0.0
2025-03-23 17:07:00,444 [INFO] ThirdParty:1030 - CMSIS Pack Vendor :STMicroelectronics ThreadX 0.0.2
2025-03-23 17:07:00,444 [INFO] ThirdParty:1030 - CMSIS Pack Vendor :WES I-CUBE-Cesium 1.3.0
2025-03-23 17:07:00,444 [INFO] ThirdParty:1030 - CMSIS Pack Vendor :STMicroelectronics lwIP 2.1.2
2025-03-23 17:07:00,444 [INFO] ThirdParty:1030 - CMSIS Pack Vendor :STMicroelectronics X-CUBE-SFXS2LP1 4.0.0
2025-03-23 17:07:00,444 [INFO] ThirdParty:1030 - CMSIS Pack Vendor :STMicroelectronics X-CUBE-BLE2 3.3.0
2025-03-23 17:07:00,445 [INFO] ThirdParty:1030 - CMSIS Pack Vendor :STMicroelectronics PDM2PCM 3.2.0
2025-03-23 17:07:00,445 [INFO] ThirdParty:1030 - CMSIS Pack Vendor :STMicroelectronics X-CUBE-AZRTOS-H7 3.3.0
2025-03-23 17:07:00,445 [INFO] ThirdParty:1030 - CMSIS Pack Vendor :STMicroelectronics X-CUBE-NFC9 1.0.0
2025-03-23 17:07:00,445 [INFO] ThirdParty:1030 - CMSIS Pack Vendor :STMicroelectronics X-CUBE-BLE1 7.1.0
2025-03-23 17:07:00,445 [INFO] ThirdParty:1030 - CMSIS Pack Vendor :STMicroelectronics USB_DEVICE 3.0.0
2025-03-23 17:07:00,445 [INFO] ThirdParty:1030 - CMSIS Pack Vendor :STMicroelectronics X-CUBE-TCPP 4.1.0
2025-03-23 17:07:00,445 [INFO] ThirdParty:1030 - CMSIS Pack Vendor :STMicroelectronics X-CUBE-IPS 3.0.0
2025-03-23 17:07:00,445 [INFO] ThirdParty:1030 - CMSIS Pack Vendor :STMicroelectronics X-CUBE-AZRTOS-WB 2.0.0
2025-03-23 17:07:00,445 [INFO] ThirdParty:1030 - CMSIS Pack Vendor :STMicroelectronics X-CUBE-GNSS1 7.0.0
2025-03-23 17:07:00,445 [INFO] ThirdParty:1030 - CMSIS Pack Vendor :STMicroelectronics X-CUBE-GNSS1 7.0.1
2025-03-23 17:07:00,445 [INFO] ThirdParty:1030 - CMSIS Pack Vendor :STMicroelectronics X-CUBE-TOUCHGFX 4.25.0
2025-03-23 17:07:00,445 [INFO] ThirdParty:1030 - CMSIS Pack Vendor :STMicroelectronics FP-SNS-STBOX1 2.0.0
2025-03-23 17:07:00,445 [INFO] ThirdParty:1030 - CMSIS Pack Vendor :STMicroelectronics X-CUBE-ALGOBUILD 1.3.0
2025-03-23 17:07:00,445 [INFO] ThirdParty:1030 - CMSIS Pack Vendor :STMicroelectronics X-CUBE-AZRTOS-G0 1.1.0
2025-03-23 17:07:00,445 [INFO] ThirdParty:1030 - CMSIS Pack Vendor :STMicroelectronics X-CUBE-SAFEA1 1.2.2
2025-03-23 17:07:00,445 [INFO] ThirdParty:1030 - CMSIS Pack Vendor :STMicroelectronics X-CUBE-NFC4 3.0.0
2025-03-23 17:07:00,445 [INFO] ThirdParty:1030 - CMSIS Pack Vendor :STMicroelectronics X-CUBE-SUBG2 5.0.0
2025-03-23 17:07:00,445 [INFO] ThirdParty:1030 - CMSIS Pack Vendor :STMicroelectronics X-CUBE-AZRTOS-H7RS 1.1.0
2025-03-23 17:07:00,445 [INFO] ThirdParty:1030 - CMSIS Pack Vendor :STMicroelectronics STM32_WPAN 1.0.0
2025-03-23 17:07:00,445 [INFO] ThirdParty:1030 - CMSIS Pack Vendor :wolfSSL I-CUBE-wolfMQTT 1.18.0
2025-03-23 17:07:00,445 [INFO] ThirdParty:1030 - CMSIS Pack Vendor :EmbeddedOffice I-CUBE-FS-RTOS 1.0.1
2025-03-23 17:07:00,445 [INFO] ThirdParty:1030 - CMSIS Pack Vendor :STMicroelectronics lwIP 2.0.3
2025-03-23 17:07:00,445 [INFO] ThirdParty:1030 - CMSIS Pack Vendor :Cesanta I-CUBE-Mongoose 7.13.0
2025-03-23 17:07:00,445 [INFO] ThirdParty:1030 - CMSIS Pack Vendor :STMicroelectronics USB_HOST 1.0.0
2025-03-23 17:07:00,446 [INFO] ThirdParty:1030 - CMSIS Pack Vendor :STMicroelectronics X-CUBE-AZRTOS-G4 2.0.0
2025-03-23 17:07:00,446 [INFO] ThirdParty:1030 - CMSIS Pack Vendor :STMicroelectronics PDM2PCM 3.1.0
2025-03-23 17:07:00,446 [INFO] ThirdParty:1030 - CMSIS Pack Vendor :Infineon AIROC-Wi-Fi-Bluetooth-STM32 1.5.1
2025-03-23 17:07:00,446 [INFO] ThirdParty:1030 - CMSIS Pack Vendor :RealThread X-CUBE-RT-Thread_Nano 4.1.1
2025-03-23 17:07:00,446 [INFO] ThirdParty:1030 - CMSIS Pack Vendor :STMicroelectronics FP-SNS-MOTENVWB1 1.3.1
2025-03-23 17:07:00,446 [INFO] ThirdParty:1030 - CMSIS Pack Vendor :STMicroelectronics FP-ATR-SIGFOX1 3.2.0
2025-03-23 17:07:00,446 [INFO] ThirdParty:1030 - CMSIS Pack Vendor :quantropi X-CUBE-qispace-sdk-base 1.9.3
2025-03-23 17:07:00,446 [INFO] ThirdParty:1030 - CMSIS Pack Vendor :STMicroelectronics X-CUBE-ISPU 2.0.0
2025-03-23 17:07:00,446 [INFO] ThirdParty:1030 - CMSIS Pack Vendor :STMicroelectronics X-CUBE-EEPRMA1 5.1.0
2025-03-23 17:07:00,446 [INFO] ThirdParty:1030 - CMSIS Pack Vendor :STMicroelectronics MBEDTLS 2.16.2
2025-03-23 17:07:00,446 [INFO] ThirdParty:1030 - CMSIS Pack Vendor :STMicroelectronics X-CUBE-ALS 1.0.2
2025-03-23 17:07:00,446 [INFO] ThirdParty:1030 - CMSIS Pack Vendor :STMicroelectronics X-CUBE-MEMS1 10.0.0
2025-03-23 17:07:00,446 [INFO] ThirdParty:1030 - CMSIS Pack Vendor :STMicroelectronics X-CUBE-FREERTOS 1.1.0
2025-03-23 17:07:00,446 [INFO] ThirdParty:1030 - CMSIS Pack Vendor :STMicroelectronics X-CUBE-TOUCHGFX 4.24.0
2025-03-23 17:07:00,446 [INFO] ThirdParty:1030 - CMSIS Pack Vendor :STMicroelectronics X-CUBE-TOUCHGFX 4.24.2
2025-03-23 17:07:00,446 [INFO] ThirdParty:1030 - CMSIS Pack Vendor :STMicroelectronics X-CUBE-TOUCHGFX 4.24.1
2025-03-23 17:07:00,446 [INFO] ThirdParty:1030 - CMSIS Pack Vendor :portGmbH I-Cube-SoM-uGOAL 1.1.0
2025-03-23 17:07:00,446 [INFO] ThirdParty:1030 - CMSIS Pack Vendor :STMicroelectronics X-CUBE-ALS 1.0.1
2025-03-23 17:07:00,447 [INFO] ThirdParty:1030 - CMSIS Pack Vendor :STMicroelectronics ThreadX 1.0.0
2025-03-23 17:07:00,447 [INFO] ThirdParty:1030 - CMSIS Pack Vendor :SEGGER I-CUBE-embOS 1.3.1
2025-03-23 17:07:00,447 [INFO] ThirdParty:1030 - CMSIS Pack Vendor :STMicroelectronics X-CUBE-ALGOBUILD 1.4.0
2025-03-23 17:07:00,447 [INFO] ThirdParty:1030 - CMSIS Pack Vendor :STMicroelectronics X-CUBE-AZRTOS-H7RS 1.0.0
2025-03-23 17:07:00,447 [INFO] ThirdParty:1030 - CMSIS Pack Vendor :STMicroelectronics FP-ATR-ASTRA1 2.0.0
2025-03-23 17:07:00,447 [INFO] ThirdParty:1030 - CMSIS Pack Vendor :STMicroelectronics X-CUBE-TOF1 3.4.2
2025-03-23 17:07:00,447 [INFO] ThirdParty:1030 - CMSIS Pack Vendor :STMicroelectronics X-CUBE-AI 9.1.0
2025-03-23 17:07:00,447 [INFO] ThirdParty:1030 - CMSIS Pack Vendor :STMicroelectronics X-CUBE-TOF1 3.4.1
2025-03-23 17:07:00,447 [INFO] ThirdParty:1030 - CMSIS Pack Vendor :STMicroelectronics X-CUBE-AZRTOS-H7 3.2.0
2025-03-23 17:07:00,447 [INFO] ThirdParty:1030 - CMSIS Pack Vendor :wolfSSL I-CUBE-wolfSSH 1.4.17
2025-03-23 17:07:00,447 [INFO] ThirdParty:841 - exiting critical section [change project]
2025-03-23 17:07:00,811 [INFO] PinOutPanel:1561 - setPackage(No Configuration,No Configuration)
2025-03-23 17:07:00,812 [INFO] PinOutPanel:1561 - setPackage(STM32F746NGHx,TFBGA216)
2025-03-23 17:07:01,761 [INFO] UtilMem:75 - Before build in PCC Used Memory: 339319432 Bytes (432013312)
2025-03-23 17:07:02,662 [INFO] UtilMem:75 - After build in PCC Used Memory: 269614336 Bytes (432013312)
2025-03-23 17:07:02,663 [INFO] Middleware:617 - instanceName : STMicroelectronics.X-CUBE-AI.10.0.0 bspName : COM Port check condition success for : !SEMDeviceJjApplicationJjApplicationTemplate
2025-03-23 17:07:02,663 [INFO] Middleware:617 - instanceName : STMicroelectronics.X-CUBE-AI.10.0.0 bspName : COM Port check condition success for : !SEMDeviceJjApplicationJjApplicationTemplate
2025-03-23 17:07:02,663 [INFO] Middleware:617 - instanceName : STMicroelectronics.X-CUBE-AI.10.0.0 bspName : COM Port check condition success for : !SEMDeviceJjApplicationJjApplicationTemplate
2025-03-23 17:07:02,702 [INFO] IPUIPlugin:80 - create IPUIPlugin
2025-03-23 17:07:02,702 [INFO] IPUIPlugin:80 - create IPUIPlugin
2025-03-23 17:07:02,703 [INFO] IPUIPlugin:80 - create IPUIPlugin
2025-03-23 17:07:02,703 [INFO] IPUIPlugin:80 - create IPUIPlugin
2025-03-23 17:07:02,703 [INFO] IPUIPlugin:80 - create IPUIPlugin
2025-03-23 17:07:02,703 [INFO] IPUIPlugin:80 - create IPUIPlugin
2025-03-23 17:07:02,704 [INFO] IPUIPlugin:80 - create IPUIPlugin
2025-03-23 17:07:02,704 [INFO] IPUIPlugin:80 - create IPUIPlugin
2025-03-23 17:07:02,704 [INFO] IPUIPlugin:80 - create IPUIPlugin
2025-03-23 17:07:02,704 [INFO] IPUIPlugin:80 - create IPUIPlugin
2025-03-23 17:07:02,705 [INFO] IPUIPlugin:80 - create IPUIPlugin
2025-03-23 17:07:02,705 [INFO] IPUIPlugin:80 - create IPUIPlugin
2025-03-23 17:07:02,705 [INFO] IPUIPlugin:80 - create IPUIPlugin
2025-03-23 17:07:02,705 [INFO] IPUIPlugin:80 - create IPUIPlugin
2025-03-23 17:07:02,705 [INFO] IPUIPlugin:80 - create IPUIPlugin
2025-03-23 17:07:02,705 [INFO] IPUIPlugin:80 - create IPUIPlugin
2025-03-23 17:07:02,705 [INFO] IPUIPlugin:80 - create IPUIPlugin
2025-03-23 17:07:02,706 [INFO] IPUIPlugin:80 - create IPUIPlugin
2025-03-23 17:07:02,706 [INFO] IPUIPlugin:80 - create IPUIPlugin
2025-03-23 17:07:02,706 [INFO] IPUIPlugin:80 - create IPUIPlugin
2025-03-23 17:07:02,706 [INFO] IPUIPlugin:80 - create IPUIPlugin
2025-03-23 17:07:02,706 [INFO] IPUIPlugin:80 - create IPUIPlugin
2025-03-23 17:07:02,706 [INFO] IPUIPlugin:80 - create IPUIPlugin
2025-03-23 17:07:02,707 [INFO] IPUIPlugin:80 - create IPUIPlugin
2025-03-23 17:07:02,707 [INFO] IPUIPlugin:80 - create IPUIPlugin
2025-03-23 17:07:02,707 [INFO] IPUIPlugin:80 - create IPUIPlugin
2025-03-23 17:07:02,707 [INFO] IPUIPlugin:80 - create IPUIPlugin
2025-03-23 17:07:02,708 [INFO] IPUIPlugin:80 - create IPUIPlugin
2025-03-23 17:07:02,708 [INFO] IPUIPlugin:80 - create IPUIPlugin
2025-03-23 17:07:02,708 [INFO] IPUIPlugin:80 - create IPUIPlugin
2025-03-23 17:07:02,709 [INFO] IPUIPlugin:80 - create IPUIPlugin
2025-03-23 17:07:02,709 [INFO] IPUIPlugin:80 - create IPUIPlugin
2025-03-23 17:07:02,709 [INFO] IPUIPlugin:80 - create IPUIPlugin
2025-03-23 17:07:02,709 [INFO] IPUIPlugin:80 - create IPUIPlugin
2025-03-23 17:07:02,710 [INFO] IPUIPlugin:80 - create IPUIPlugin
2025-03-23 17:07:02,711 [INFO] IPUIPlugin:80 - create IPUIPlugin
2025-03-23 17:07:02,711 [INFO] IPUIPlugin:80 - create IPUIPlugin
2025-03-23 17:07:02,712 [INFO] IPUIPlugin:80 - create IPUIPlugin
2025-03-23 17:07:02,712 [INFO] IPUIPlugin:80 - create IPUIPlugin
2025-03-23 17:07:02,712 [INFO] IPUIPlugin:80 - create IPUIPlugin
2025-03-23 17:07:02,712 [INFO] IPUIPlugin:80 - create IPUIPlugin
2025-03-23 17:07:02,713 [INFO] IPUIPlugin:80 - create IPUIPlugin
2025-03-23 17:07:02,713 [INFO] IPUIPlugin:80 - create IPUIPlugin
2025-03-23 17:07:02,713 [INFO] IPUIPlugin:80 - create IPUIPlugin
2025-03-23 17:07:02,714 [INFO] IPUIPlugin:80 - create IPUIPlugin
2025-03-23 17:07:02,714 [INFO] IPUIPlugin:80 - create IPUIPlugin
2025-03-23 17:07:02,715 [INFO] IPUIPlugin:80 - create IPUIPlugin
2025-03-23 17:07:02,716 [INFO] IPUIPlugin:80 - create IPUIPlugin
2025-03-23 17:07:02,716 [INFO] IPUIPlugin:80 - create IPUIPlugin
2025-03-23 17:07:02,716 [INFO] IPUIPlugin:80 - create IPUIPlugin
2025-03-23 17:07:02,716 [INFO] IPUIPlugin:80 - create IPUIPlugin
2025-03-23 17:07:02,717 [INFO] IPUIPlugin:80 - create IPUIPlugin
2025-03-23 17:07:02,717 [INFO] IPUIPlugin:80 - create IPUIPlugin
2025-03-23 17:07:02,717 [INFO] IPUIPlugin:80 - create IPUIPlugin
2025-03-23 17:07:02,717 [INFO] IPUIPlugin:80 - create IPUIPlugin
2025-03-23 17:07:02,718 [INFO] IPUIPlugin:80 - create IPUIPlugin
2025-03-23 17:07:02,718 [INFO] IPUIPlugin:80 - create IPUIPlugin
2025-03-23 17:07:02,718 [INFO] IPUIPlugin:80 - create IPUIPlugin
2025-03-23 17:07:02,719 [INFO] IPUIPlugin:80 - create IPUIPlugin
2025-03-23 17:07:02,719 [INFO] IPUIPlugin:80 - create IPUIPlugin
2025-03-23 17:07:02,720 [INFO] IPUIPlugin:80 - create IPUIPlugin
2025-03-23 17:07:02,721 [INFO] IPUIPlugin:80 - create IPUIPlugin
2025-03-23 17:07:02,721 [INFO] IPUIPlugin:80 - create IPUIPlugin
2025-03-23 17:07:02,721 [INFO] IPUIPlugin:80 - create IPUIPlugin
2025-03-23 17:07:02,722 [INFO] IPUIPlugin:80 - create IPUIPlugin
2025-03-23 17:07:02,722 [INFO] IPUIPlugin:80 - create IPUIPlugin
2025-03-23 17:07:02,722 [INFO] IPUIPlugin:80 - create IPUIPlugin
2025-03-23 17:07:02,723 [INFO] IPUIPlugin:80 - create IPUIPlugin
2025-03-23 17:07:02,723 [INFO] IPUIPlugin:80 - create IPUIPlugin
2025-03-23 17:07:02,724 [INFO] IPUIPlugin:80 - create IPUIPlugin
2025-03-23 17:07:02,724 [INFO] IPUIPlugin:80 - create IPUIPlugin
2025-03-23 17:07:02,725 [INFO] IPUIPlugin:80 - create IPUIPlugin
2025-03-23 17:07:02,726 [INFO] IPUIPlugin:80 - create IPUIPlugin
2025-03-23 17:07:02,726 [INFO] IPUIPlugin:80 - create IPUIPlugin
2025-03-23 17:07:02,727 [INFO] IPUIPlugin:80 - create IPUIPlugin
2025-03-23 17:07:02,732 [INFO] AI:968 - onDisable adding AI com.st.microxplorer.plugins.ip.ai.AI@43806e67 on STMicroelectronics.X-CUBE-AI.10.0.0
2025-03-23 17:07:02,778 [INFO] ApiDbMcu:508 - Load IP Config File for PDM2PCM
2025-03-23 17:07:02,993 [INFO] CADModel:165 - CPN selected for project levelSTM32F746NGH6
2025-03-23 17:07:02,993 [INFO] CADModel:114 - Register for checkConnection events
2025-03-23 17:07:03,048 [INFO] OpenFileManager:363 - Restore cursor
2025-03-23 17:07:03,561 [INFO] AIMainUI:1270 - Restoring parameters from IP...
2025-03-23 17:07:03,561 [INFO] AIMainUI:1393 - No old model detected
2025-03-23 17:07:03,599 [ERROR] N6Profiles:77 - java.io.FileNotFoundException: C:\Users\OS\STM32Cube\Repository\Packs\STMicroelectronics\X-CUBE-AI\10.0.0\scripts\N6_scripts\user_neuralart.json (The system cannot find the path specified)
2025-03-23 17:07:03,621 [INFO] AInterface:114 - AInterface using toolDir: C:/Users/OS/STM32Cube/Repository/Packs/STMicroelectronics/X-CUBE-AI/10.0.0/Utilities/windows
2025-03-23 17:07:03,627 [INFO] AIModelDetailledView:2372 - Analysis status: -
2025-03-23 17:07:03,629 [INFO] AIModelDetailledView:930 - Selected model: Keras
2025-03-23 17:07:03,728 [INFO] AIModelDetailledView:2372 - Analysis status: done
2025-03-23 17:07:09,365 [INFO] AI:951 - getUI adding AI com.st.microxplorer.plugins.ip.ai.AI@43806e67 on STMicroelectronics.X-CUBE-AI.10.0.0
2025-03-23 17:07:09,365 [INFO] Middleware:617 - instanceName : STMicroelectronics.X-CUBE-AI.10.0.0 bspName : COM Port check condition success for : !SEMDeviceJjApplicationJjApplicationTemplate
2025-03-23 17:07:09,365 [INFO] Middleware:617 - instanceName : STMicroelectronics.X-CUBE-AI.10.0.0 bspName : COM Port check condition success for : !SEMDeviceJjApplicationJjApplicationTemplate
2025-03-23 17:07:09,366 [INFO] Middleware:617 - instanceName : STMicroelectronics.X-CUBE-AI.10.0.0 bspName : COM Port check condition success for : !SEMDeviceJjApplicationJjApplicationTemplate
2025-03-23 17:07:22,909 [INFO] Middleware:617 - instanceName : STMicroelectronics.X-CUBE-AI.10.0.0 bspName : COM Port check condition success for : !SEMDeviceJjApplicationJjApplicationTemplate
2025-03-23 17:07:22,909 [INFO] Middleware:617 - instanceName : STMicroelectronics.X-CUBE-AI.10.0.0 bspName : COM Port check condition success for : !SEMDeviceJjApplicationJjApplicationTemplate
2025-03-23 17:07:22,909 [INFO] Middleware:617 - instanceName : STMicroelectronics.X-CUBE-AI.10.0.0 bspName : COM Port check condition success for : !SEMDeviceJjApplicationJjApplicationTemplate
2025-03-23 17:07:22,909 [INFO] Middleware:617 - instanceName : STMicroelectronics.X-CUBE-AI.10.0.0 bspName : COM Port check condition success for : !SEMDeviceJjApplicationJjApplicationTemplate
2025-03-23 17:07:22,909 [INFO] Middleware:617 - instanceName : STMicroelectronics.X-CUBE-AI.10.0.0 bspName : COM Port check condition success for : !SEMDeviceJjApplicationJjApplicationTemplate
2025-03-23 17:07:22,909 [INFO] Middleware:617 - instanceName : STMicroelectronics.X-CUBE-AI.10.0.0 bspName : COM Port check condition success for : !SEMDeviceJjApplicationJjApplicationTemplate
2025-03-23 17:07:32,663 [INFO] AIModelDetailledView:2372 - Analysis status: -
2025-03-23 17:07:33,280 [INFO] AInterface:254 - ModelName:network; files:[C:\Users\OS\Downloads\models-20250323T100616Z-001\models\transfer_learning_ptbdb_freeze.h5]; type:Keras; compression:None
2025-03-23 17:07:33,281 [INFO] AInterface:519 - workspaceTempDir: C:/Users/OS/AppData/Local/Temp/mxAI_workspace147922191421005412705992015191404
2025-03-23 17:07:33,281 [INFO] AInterface:1132 - Setting Env: C:/Users/OS/STM32Cube/Repository/Packs/STMicroelectronics/X-CUBE-AI/10.0.0/Utilities/windows
2025-03-23 17:07:33,376 [INFO] STM32CubeIDEBuilder:265 - Looking for gnu-tools-for-stm32 tools/bin/arm-none-eabi-gcc.exe in C:\ST\STM32CubeIDE_1.16.0\STM32CubeIDE
2025-03-23 17:07:33,381 [INFO] STM32CubeIDEBuilder:294 - checking C:\ST\STM32CubeIDE_1.16.0\STM32CubeIDE\plugins\com.st.stm32cube.ide.mcu.externaltools.gnu-tools-for-stm32.13.3.rel1.win32_1.0.0.202411081344\tools\bin\arm-none-eabi-gcc.exe
2025-03-23 17:07:33,382 [INFO] STM32CubeIDEBuilder:297 - ret=C:\ST\STM32CubeIDE_1.16.0\STM32CubeIDE\plugins\com.st.stm32cube.ide.mcu.externaltools.gnu-tools-for-stm32.13.3.rel1.win32_1.0.0.202411081344\tools\bin\arm-none-eabi-gcc.exe
2025-03-23 17:07:33,382 [INFO] STM32CubeIDEBuilder:311 - returning C:\ST\STM32CubeIDE_1.16.0\STM32CubeIDE\plugins\com.st.stm32cube.ide.mcu.externaltools.gnu-tools-for-stm32.13.3.rel1.win32_1.0.0.202411081344\tools\bin\arm-none-eabi-gcc.exe
2025-03-23 17:07:33,382 [INFO] AInterface:1189 - Custom PATH variable: C:/Users/OS/STM32Cube/Repository/Packs/STMicroelectronics/X-CUBE-AI/10.0.0/Utilities/windows;C:/Users/OS/STM32Cube/Repository/Packs/STMicroelectronics/X-CUBE-AI/10.0.0/Utilities/windows/mingw64/bin;C:/Users/OS/STM32Cube/Repository/Packs/STMicroelectronics/X-CUBE-AI/10.0.0/Utilities/windows/mingw64/libexec/gcc/x86_64-w64-mingw32/7.3.0;;C:\ST\STM32CubeIDE_1.16.0\STM32CubeIDE\plugins\com.st.stm32cube.ide.mcu.externaltools.gnu-tools-for-stm32.13.3.rel1.win32_1.0.0.202411081344\tools\bin
2025-03-23 17:07:33,384 [INFO] CmdLine:109 - Command: C:/Users/OS/STM32Cube/Repository/Packs/STMicroelectronics/X-CUBE-AI/10.0.0/Utilities/windows/stedgeai.exe analyze --target stm32f7 --name network -m C:/Users/OS/Downloads/models-20250323T100616Z-001/models/transfer_learning_ptbdb_freeze.h5 --compression none --verbosity 1 --workspace C:/Users/OS/AppData/Local/Temp/mxAI_workspace147922191421005412705992015191404 --output C:/Users/OS/.stm32cubemx/network_output
2025-03-23 17:07:33,388 [INFO] AIModelDetailledView:2372 - Analysis status: pending
2025-03-23 17:07:39,459 [INFO] CmdLine:74 - ST Edge AI Core v2.0.0-20049
2025-03-23 17:08:27,099 [INFO] CmdLine:74 - E010(InvalidModelError): Couldn't load Keras model C:\Users\OS\Downloads\models-20250323T100616Z-001\models\transfer_learning_ptbdb_freeze.h5,
2025-03-23 17:08:27,101 [INFO] CmdLine:74 - error: Error when deserializing class 'InputLayer' using config={'batch_shape': [None, 187, 1], 'dtype': 'float32', 'sparse': False, 'name': 'input_layer_1'}.
2025-03-23 17:08:27,101 [INFO] CmdLine:74 - Exception encountered: Unrecognized keyword arguments: ['batch_shape']
2025-03-23 17:08:27,557 [INFO] CmdLine:142 - stedgeai exit with status: -1
2025-03-23 17:08:27,557 [ERROR] CmdLine:145 - stedgeai return with an error
2025-03-23 17:08:27,609 [ERROR] AIModelDetailledView:2753 - Analyze fail on the AI model
2025-03-23 17:08:27,611 [INFO] AIModelDetailledView:2372 - Analysis status: error
2025-03-23 17:08:49,514 [INFO] Middleware:617 - instanceName : STMicroelectronics.X-CUBE-AI.10.0.0 bspName : COM Port check condition success for : !SEMDeviceJjApplicationJjApplicationTemplate
2025-03-23 17:08:49,515 [INFO] Middleware:617 - instanceName : STMicroelectronics.X-CUBE-AI.10.0.0 bspName : COM Port check condition success for : !SEMDeviceJjApplicationJjApplicationTemplate
2025-03-23 17:08:49,515 [INFO] Middleware:617 - instanceName : STMicroelectronics.X-CUBE-AI.10.0.0 bspName : COM Port check condition success for : !SEMDeviceJjApplicationJjApplicationTemplate
2025-03-23 17:08:49,515 [INFO] Middleware:617 - instanceName : STMicroelectronics.X-CUBE-AI.10.0.0 bspName : COM Port check condition success for : !SEMDeviceJjApplicationJjApplicationTemplate
2025-03-23 17:08:49,515 [INFO] Middleware:617 - instanceName : STMicroelectronics.X-CUBE-AI.10.0.0 bspName : COM Port check condition success for : !SEMDeviceJjApplicationJjApplicationTemplate
2025-03-23 17:08:49,515 [INFO] Middleware:617 - instanceName : STMicroelectronics.X-CUBE-AI.10.0.0 bspName : COM Port check condition success for : !SEMDeviceJjApplicationJjApplicationTemplate
2025-03-23 17:08:50,613 [INFO] AIModelDetailledView:2372 - Analysis status: -
2025-03-23 17:08:50,679 [INFO] AInterface:254 - ModelName:network; files:[C:\Users\OS\Downloads\models-20250323T100616Z-001\models\train_mitbih_cnn.h5]; type:Keras; compression:None
2025-03-23 17:08:50,682 [INFO] AInterface:519 - workspaceTempDir: C:/Users/OS/AppData/Local/Temp/mxAI_workspace148696192264006139840334657870889
2025-03-23 17:08:50,682 [INFO] AInterface:1132 - Setting Env: C:/Users/OS/STM32Cube/Repository/Packs/STMicroelectronics/X-CUBE-AI/10.0.0/Utilities/windows
2025-03-23 17:08:50,694 [INFO] STM32CubeIDEBuilder:265 - Looking for gnu-tools-for-stm32 tools/bin/arm-none-eabi-gcc.exe in C:\ST\STM32CubeIDE_1.16.0\STM32CubeIDE
2025-03-23 17:08:50,704 [INFO] STM32CubeIDEBuilder:294 - checking C:\ST\STM32CubeIDE_1.16.0\STM32CubeIDE\plugins\com.st.stm32cube.ide.mcu.externaltools.gnu-tools-for-stm32.13.3.rel1.win32_1.0.0.202411081344\tools\bin\arm-none-eabi-gcc.exe
2025-03-23 17:08:50,705 [INFO] STM32CubeIDEBuilder:297 - ret=C:\ST\STM32CubeIDE_1.16.0\STM32CubeIDE\plugins\com.st.stm32cube.ide.mcu.externaltools.gnu-tools-for-stm32.13.3.rel1.win32_1.0.0.202411081344\tools\bin\arm-none-eabi-gcc.exe
2025-03-23 17:08:50,705 [INFO] STM32CubeIDEBuilder:311 - returning C:\ST\STM32CubeIDE_1.16.0\STM32CubeIDE\plugins\com.st.stm32cube.ide.mcu.externaltools.gnu-tools-for-stm32.13.3.rel1.win32_1.0.0.202411081344\tools\bin\arm-none-eabi-gcc.exe
2025-03-23 17:08:50,705 [INFO] AInterface:1189 - Custom PATH variable: C:/Users/OS/STM32Cube/Repository/Packs/STMicroelectronics/X-CUBE-AI/10.0.0/Utilities/windows;C:/Users/OS/STM32Cube/Repository/Packs/STMicroelectronics/X-CUBE-AI/10.0.0/Utilities/windows/mingw64/bin;C:/Users/OS/STM32Cube/Repository/Packs/STMicroelectronics/X-CUBE-AI/10.0.0/Utilities/windows/mingw64/libexec/gcc/x86_64-w64-mingw32/7.3.0;;C:\ST\STM32CubeIDE_1.16.0\STM32CubeIDE\plugins\com.st.stm32cube.ide.mcu.externaltools.gnu-tools-for-stm32.13.3.rel1.win32_1.0.0.202411081344\tools\bin
2025-03-23 17:08:50,706 [INFO] CmdLine:109 - Command: C:/Users/OS/STM32Cube/Repository/Packs/STMicroelectronics/X-CUBE-AI/10.0.0/Utilities/windows/stedgeai.exe analyze --target stm32f7 --name network -m C:/Users/OS/Downloads/models-20250323T100616Z-001/models/train_mitbih_cnn.h5 --compression none --verbosity 1 --workspace C:/Users/OS/AppData/Local/Temp/mxAI_workspace148696192264006139840334657870889 --output C:/Users/OS/.stm32cubemx/network_output
2025-03-23 17:08:50,710 [INFO] AIModelDetailledView:2372 - Analysis status: pending
2025-03-23 17:08:51,466 [INFO] CmdLine:74 - ST Edge AI Core v2.0.0-20049
2025-03-23 17:09:08,428 [INFO] CmdLine:74 - Creating c (debug) info json file C:\Users\OS\AppData\Local\Temp\mxAI_workspace148696192264006139840334657870889\network_c_info.json
2025-03-23 17:09:08,493 [INFO] CmdLine:74 -  
2025-03-23 17:09:08,493 [INFO] CmdLine:74 -  Exec/report summary (analyze)
2025-03-23 17:09:08,493 [INFO] CmdLine:74 -  --------------------------------------------------------------------------------------------------------
2025-03-23 17:09:08,494 [INFO] CmdLine:74 -  model file         :   C:\Users\OS\Downloads\models-20250323T100616Z-001\models\train_mitbih_cnn.h5     
2025-03-23 17:09:08,494 [INFO] CmdLine:74 -  type               :   keras                                                                            
2025-03-23 17:09:08,494 [INFO] CmdLine:74 -  c_name             :   network                                                                          
2025-03-23 17:09:08,495 [INFO] CmdLine:74 -  compression        :   none                                                                             
2025-03-23 17:09:08,496 [INFO] CmdLine:74 -  options            :   allocate-inputs, allocate-outputs                                                
2025-03-23 17:09:08,497 [INFO] CmdLine:74 -  optimization       :   balanced                                                                         
2025-03-23 17:09:08,498 [INFO] CmdLine:74 -  target/series      :   stm32f7                                                                          
2025-03-23 17:09:08,499 [INFO] CmdLine:74 -  workspace dir      :   C:\Users\OS\AppData\Local\Temp\mxAI_workspace148696192264006139840334657870889   
2025-03-23 17:09:08,499 [INFO] CmdLine:74 -  output dir         :   C:\Users\OS\.stm32cubemx\network_output                                          
2025-03-23 17:09:08,499 [INFO] CmdLine:74 -  model_fmt          :   float                                                                            
2025-03-23 17:09:08,500 [INFO] CmdLine:74 -  model_name         :   train_mitbih_cnn                                                                 
2025-03-23 17:09:08,500 [INFO] CmdLine:74 -  model_hash         :   0x2f6e1e87fdbc99642dc936091ba822cd                                               
2025-03-23 17:09:08,501 [INFO] CmdLine:74 -  params #           :   254,901 items (995.71 KiB)                                                       
2025-03-23 17:09:08,501 [INFO] CmdLine:74 -  --------------------------------------------------------------------------------------------------------
2025-03-23 17:09:08,504 [INFO] CmdLine:74 -  input 1/1          :   'input_1', f32(1x187x1), 748 Bytes, activations                                  
2025-03-23 17:09:08,505 [INFO] CmdLine:74 -  output 1/1         :   'dense_3_mitbih', f32(1x5), 20 Bytes, activations                                
2025-03-23 17:09:08,505 [INFO] CmdLine:74 -  macc               :   4,299,424                                                                        
2025-03-23 17:09:08,506 [INFO] CmdLine:74 -  weights (ro)       :   1,019,604 B (995.71 KiB) (1 segment)                                             
2025-03-23 17:09:08,507 [INFO] CmdLine:74 -  activations (rw)   :   21,504 B (21.00 KiB) (1 segment) *                                               
2025-03-23 17:09:08,507 [INFO] CmdLine:74 -  ram (total)        :   21,504 B (21.00 KiB) = 21,504 + 0 + 0                                            
2025-03-23 17:09:08,508 [INFO] CmdLine:74 -  --------------------------------------------------------------------------------------------------------
2025-03-23 17:09:08,508 [INFO] CmdLine:74 -  (*) 'input'/'output' buffers can be used from the activations buffer
2025-03-23 17:09:08,524 [INFO] CmdLine:74 - Computing AI RT data/code size (target=stm32f7)..
2025-03-23 17:09:12,554 [INFO] CmdLine:74 -  Model name - train_mitbih_cnn
2025-03-23 17:09:12,556 [INFO] CmdLine:74 -  ------ ------------------------------------------------ ------------------ ----------------- ----------- ---------------------------
2025-03-23 17:09:12,556 [INFO] CmdLine:74 -  m_id   layer (original)                                 oshape             param/size               macc                connected to
2025-03-23 17:09:12,560 [INFO] CmdLine:74 -  ------ ------------------------------------------------ ------------------ ----------------- ----------- ---------------------------
2025-03-23 17:09:12,561 [INFO] CmdLine:74 -  0      input_1 (InputLayer)                             [b:1,h:187,c:1]
2025-03-23 17:09:12,561 [INFO] CmdLine:74 -  ------ ------------------------------------------------ ------------------ ----------------- ----------- ---------------------------
2025-03-23 17:09:12,564 [INFO] CmdLine:74 -  1      conv1d_conv2d (Conv1D)                           [b:1,h:183,c:16]   96/384                 14,656                     input_1
2025-03-23 17:09:12,565 [INFO] CmdLine:74 -         conv1d (Conv1D)                                  [b:1,h:183,c:16]                           2,928               conv1d_conv2d
2025-03-23 17:09:12,565 [INFO] CmdLine:74 -  ------ ------------------------------------------------ ------------------ ----------------- ----------- ---------------------------
2025-03-23 17:09:12,566 [INFO] CmdLine:74 -  2      conv1d_1_conv2d (Conv1D)                         [b:1,h:179,c:16]   1,296/5,184           229,136                      conv1d
2025-03-23 17:09:12,567 [INFO] CmdLine:74 -         conv1d_1 (Conv1D)                                [b:1,h:179,c:16]                           2,864             conv1d_1_conv2d
2025-03-23 17:09:12,567 [INFO] CmdLine:74 -  ------ ------------------------------------------------ ------------------ ----------------- ----------- ---------------------------
2025-03-23 17:09:12,568 [INFO] CmdLine:74 -  3      max_pooling1d (MaxPooling1D)                     [b:1,h:89,c:16]                            2,848                    conv1d_1
2025-03-23 17:09:12,569 [INFO] CmdLine:74 -  ------ ------------------------------------------------ ------------------ ----------------- ----------- ---------------------------
2025-03-23 17:09:12,570 [INFO] CmdLine:74 -  5      conv1d_2_conv2d (Conv1D)                         [b:1,h:87,c:32]    1,568/6,272           133,664               max_pooling1d
2025-03-23 17:09:12,570 [INFO] CmdLine:74 -         conv1d_2 (Conv1D)                                [b:1,h:87,c:32]                            2,784             conv1d_2_conv2d
2025-03-23 17:09:12,571 [INFO] CmdLine:74 -  ------ ------------------------------------------------ ------------------ ----------------- ----------- ---------------------------
2025-03-23 17:09:12,573 [INFO] CmdLine:74 -  6      conv1d_3_conv2d (Conv1D)                         [b:1,h:85,c:32]    3,104/12,416          261,152                    conv1d_2
2025-03-23 17:09:12,574 [INFO] CmdLine:74 -         conv1d_3 (Conv1D)                                [b:1,h:85,c:32]                            2,720             conv1d_3_conv2d
2025-03-23 17:09:12,574 [INFO] CmdLine:74 -  ------ ------------------------------------------------ ------------------ ----------------- ----------- ---------------------------
2025-03-23 17:09:12,575 [INFO] CmdLine:74 -  7      max_pooling1d_1 (MaxPooling1D)                   [b:1,h:42,c:32]                            2,688                    conv1d_3
2025-03-23 17:09:12,576 [INFO] CmdLine:74 -  ------ ------------------------------------------------ ------------------ ----------------- ----------- ---------------------------
2025-03-23 17:09:12,577 [INFO] CmdLine:74 -  9      conv1d_4_conv2d (Conv1D)                         [b:1,h:40,c:32]    3,104/12,416          122,912             max_pooling1d_1
2025-03-23 17:09:12,578 [INFO] CmdLine:74 -         conv1d_4 (Conv1D)                                [b:1,h:40,c:32]                            1,280             conv1d_4_conv2d
2025-03-23 17:09:12,579 [INFO] CmdLine:74 -  ------ ------------------------------------------------ ------------------ ----------------- ----------- ---------------------------
2025-03-23 17:09:12,579 [INFO] CmdLine:74 -  10     conv1d_5_conv2d (Conv1D)                         [b:1,h:38,c:32]    3,104/12,416          116,768                    conv1d_4
2025-03-23 17:09:12,581 [INFO] CmdLine:74 -         conv1d_5 (Conv1D)                                [b:1,h:38,c:32]                            1,216             conv1d_5_conv2d
2025-03-23 17:09:12,581 [INFO] CmdLine:74 -  ------ ------------------------------------------------ ------------------ ----------------- ----------- ---------------------------
2025-03-23 17:09:12,582 [INFO] CmdLine:74 -  11     max_pooling1d_2 (MaxPooling1D)                   [b:1,h:19,c:32]                            1,216                    conv1d_5
2025-03-23 17:09:12,583 [INFO] CmdLine:74 -  ------ ------------------------------------------------ ------------------ ----------------- ----------- ---------------------------
2025-03-23 17:09:12,583 [INFO] CmdLine:74 -  13     conv1d_6_conv2d (Conv1D)                         [b:1,h:17,c:256]   24,832/99,328         418,048             max_pooling1d_2
2025-03-23 17:09:12,587 [INFO] CmdLine:74 -         conv1d_6 (Conv1D)                                [b:1,h:17,c:256]                           4,352             conv1d_6_conv2d
2025-03-23 17:09:12,587 [INFO] CmdLine:74 -  ------ ------------------------------------------------ ------------------ ----------------- ----------- ---------------------------
2025-03-23 17:09:12,588 [INFO] CmdLine:74 -  14     conv1d_7_conv2d (Conv1D)                         [b:1,h:15,c:256]   196,864/787,456     2,949,376                    conv1d_6
2025-03-23 17:09:12,589 [INFO] CmdLine:74 -         conv1d_7 (Conv1D)                                [b:1,h:15,c:256]                           3,840             conv1d_7_conv2d
2025-03-23 17:09:12,598 [INFO] CmdLine:74 -  ------ ------------------------------------------------ ------------------ ----------------- ----------- ---------------------------
2025-03-23 17:09:12,599 [INFO] CmdLine:74 -  15     global_max_pooling1d_pool (GlobalMaxPooling1D)   [b:1,h:1,c:256]                            3,840                    conv1d_7
2025-03-23 17:09:12,601 [INFO] CmdLine:74 -         global_max_pooling1d (GlobalMaxPooling1D)        [b:1,c:256]                                        global_max_pooling1d_pool
2025-03-23 17:09:12,602 [INFO] CmdLine:74 -  ------ ------------------------------------------------ ------------------ ----------------- ----------- ---------------------------
2025-03-23 17:09:12,602 [INFO] CmdLine:74 -  17     dense_1_dense (Dense)                            [b:1,c:64]         16,448/65,792          16,448        global_max_pooling1d
2025-03-23 17:09:12,603 [INFO] CmdLine:74 -         dense_1 (Dense)                                  [b:1,c:64]                                    64               dense_1_dense
2025-03-23 17:09:12,603 [INFO] CmdLine:74 -  ------ ------------------------------------------------ ------------------ ----------------- ----------- ---------------------------
2025-03-23 17:09:12,604 [INFO] CmdLine:74 -  18     dense_2_dense (Dense)                            [b:1,c:64]         4,160/16,640            4,160                     dense_1
2025-03-23 17:09:12,604 [INFO] CmdLine:74 -         dense_2 (Dense)                                  [b:1,c:64]                                    64               dense_2_dense
2025-03-23 17:09:12,605 [INFO] CmdLine:74 -  ------ ------------------------------------------------ ------------------ ----------------- ----------- ---------------------------
2025-03-23 17:09:12,605 [INFO] CmdLine:74 -  19     dense_3_mitbih_dense (Dense)                     [b:1,c:5]          325/1,300                 325                     dense_2
2025-03-23 17:09:12,606 [INFO] CmdLine:74 -         dense_3_mitbih (Dense)                           [b:1,c:5]                                     75        dense_3_mitbih_dense
2025-03-23 17:09:12,606 [INFO] CmdLine:74 -  ------ ------------------------------------------------ ------------------ ----------------- ----------- ---------------------------
2025-03-23 17:09:12,607 [INFO] CmdLine:74 -  model: macc=4,299,424 weights=1,019,604 activations=-- io=--
2025-03-23 17:09:12,607 [INFO] CmdLine:74 -  Number of operations per c-layer
2025-03-23 17:09:12,608 [INFO] CmdLine:74 -  ------- ------ ---------------------------------- ----------- --------------
2025-03-23 17:09:12,609 [INFO] CmdLine:74 -  c_id    m_id   name (type)                                #op           type
2025-03-23 17:09:12,610 [INFO] CmdLine:74 -  ------- ------ ---------------------------------- ----------- --------------
2025-03-23 17:09:12,610 [INFO] CmdLine:74 -  0       1      conv1d_conv2d (Conv2D)                  14,656   smul_f32_f32
2025-03-23 17:09:12,611 [INFO] CmdLine:74 -  1       1      conv1d (Nonlinearity)                    2,928     op_f32_f32
2025-03-23 17:09:12,617 [INFO] CmdLine:74 -  2       3      conv1d_1_conv2d (Conv2D)               234,848   smul_f32_f32
2025-03-23 17:09:12,618 [INFO] CmdLine:74 -  3       5      conv1d_2_conv2d (Conv2D)               133,664   smul_f32_f32
2025-03-23 17:09:12,618 [INFO] CmdLine:74 -  4       5      conv1d_2 (Nonlinearity)                  2,784     op_f32_f32
2025-03-23 17:09:12,619 [INFO] CmdLine:74 -  5       7      conv1d_3_conv2d (Conv2D)               266,560   smul_f32_f32
2025-03-23 17:09:12,620 [INFO] CmdLine:74 -  6       9      conv1d_4_conv2d (Conv2D)               122,912   smul_f32_f32
2025-03-23 17:09:12,621 [INFO] CmdLine:74 -  7       9      conv1d_4 (Nonlinearity)                  1,280     op_f32_f32
2025-03-23 17:09:12,623 [INFO] CmdLine:74 -  8       11     conv1d_5_conv2d (Conv2D)               119,200   smul_f32_f32
2025-03-23 17:09:12,624 [INFO] CmdLine:74 -  9       13     conv1d_6_conv2d (Conv2D)               418,048   smul_f32_f32
2025-03-23 17:09:12,630 [INFO] CmdLine:74 -  10      13     conv1d_6 (Nonlinearity)                  4,352     op_f32_f32
2025-03-23 17:09:12,631 [INFO] CmdLine:74 -  11      14     conv1d_7_conv2d (Conv2D)             2,949,376   smul_f32_f32
2025-03-23 17:09:12,632 [INFO] CmdLine:74 -  12      14     conv1d_7 (Nonlinearity)                  3,840     op_f32_f32
2025-03-23 17:09:12,633 [INFO] CmdLine:74 -  13      15     global_max_pooling1d_pool (Pool)         3,840   smul_f32_f32
2025-03-23 17:09:12,639 [INFO] CmdLine:74 -  14      17     dense_1_dense (Dense)                   16,448   smul_f32_f32
2025-03-23 17:09:12,640 [INFO] CmdLine:74 -  15      17     dense_1 (Nonlinearity)                      64     op_f32_f32
2025-03-23 17:09:12,642 [INFO] CmdLine:74 -  16      18     dense_2_dense (Dense)                    4,160   smul_f32_f32
2025-03-23 17:09:12,642 [INFO] CmdLine:74 -  17      18     dense_2 (Nonlinearity)                      64     op_f32_f32
2025-03-23 17:09:12,643 [INFO] CmdLine:74 -  18      19     dense_3_mitbih_dense (Dense)               325   smul_f32_f32
2025-03-23 17:09:12,643 [INFO] CmdLine:74 -  19      19     dense_3_mitbih (Nonlinearity)               75     op_f32_f32
2025-03-23 17:09:12,644 [INFO] CmdLine:74 -  ------- ------ ---------------------------------- ----------- --------------
2025-03-23 17:09:12,644 [INFO] CmdLine:74 -  total                                               4,299,424
2025-03-23 17:09:12,645 [INFO] CmdLine:74 -  Number of operation types
2025-03-23 17:09:12,646 [INFO] CmdLine:74 -  ---------------- ----------- -----------
2025-03-23 17:09:12,647 [INFO] CmdLine:74 -  operation type             #           %
2025-03-23 17:09:12,648 [INFO] CmdLine:74 -  ---------------- ----------- -----------
2025-03-23 17:09:12,648 [INFO] CmdLine:74 -  smul_f32_f32       4,284,037       99.6%
2025-03-23 17:09:12,649 [INFO] CmdLine:74 -  op_f32_f32            15,387        0.4%
2025-03-23 17:09:12,649 [INFO] CmdLine:74 -  Complexity report (model)
2025-03-23 17:09:12,649 [INFO] CmdLine:74 -  ------ --------------------------- ------------------------- ------------------------- ----------
2025-03-23 17:09:12,650 [INFO] CmdLine:74 -  m_id   name                        c_macc                    c_rom                     c_id
2025-03-23 17:09:12,650 [INFO] CmdLine:74 -  ------ --------------------------- ------------------------- ------------------------- ----------
2025-03-23 17:09:12,651 [INFO] CmdLine:74 -  1      conv1d_conv2d               |                  0.4%   |                  0.0%   [0, 1]
2025-03-23 17:09:12,651 [INFO] CmdLine:74 -  3      max_pooling1d               ||                 5.5%   |                  0.5%   [2]
2025-03-23 17:09:12,652 [INFO] CmdLine:74 -  5      conv1d_2_conv2d             |                  3.2%   |                  0.6%   [3, 4]
2025-03-23 17:09:12,653 [INFO] CmdLine:74 -  7      max_pooling1d_1             ||                 6.2%   |                  1.2%   [5]
2025-03-23 17:09:12,654 [INFO] CmdLine:74 -  9      conv1d_4_conv2d             |                  2.9%   |                  1.2%   [6, 7]
2025-03-23 17:09:12,654 [INFO] CmdLine:74 -  11     max_pooling1d_2             |                  2.8%   |                  1.2%   [8]
2025-03-23 17:09:12,655 [INFO] CmdLine:74 -  13     conv1d_6_conv2d             |||                9.8%   ||                 9.7%   [9, 10]
2025-03-23 17:09:12,655 [INFO] CmdLine:74 -  14     conv1d_7_conv2d             ||||||||||||||||  68.7%   ||||||||||||||||  77.2%   [11, 12]
2025-03-23 17:09:12,656 [INFO] CmdLine:74 -  15     global_max_pooling1d_pool   |                  0.1%   |                  0.0%   [13]
2025-03-23 17:09:12,656 [INFO] CmdLine:74 -  17     dense_1_dense               |                  0.4%   ||                 6.5%   [14, 15]
2025-03-23 17:09:12,657 [INFO] CmdLine:74 -  18     dense_2_dense               |                  0.1%   |                  1.6%   [16, 17]
2025-03-23 17:09:12,657 [INFO] CmdLine:74 -  19     dense_3_mitbih_dense        |                  0.0%   |                  0.1%   [18, 19]
2025-03-23 17:09:12,658 [INFO] CmdLine:74 -  ------ --------------------------- ------------------------- ------------------------- ----------
2025-03-23 17:09:12,658 [INFO] CmdLine:74 -  macc=4,299,424 weights=1,019,604 act=21,504 ram_io=0
2025-03-23 17:09:12,658 [INFO] CmdLine:74 -  Requested memory size by section - "stm32f7" target
2025-03-23 17:09:12,659 [INFO] CmdLine:74 -  ------------------------------ -------- ----------- ------- --------
2025-03-23 17:09:12,659 [INFO] CmdLine:74 -  module                             text      rodata    data      bss
2025-03-23 17:09:12,659 [INFO] CmdLine:74 -  ------------------------------ -------- ----------- ------- --------
2025-03-23 17:09:12,660 [INFO] CmdLine:74 -  NetworkRuntime1000_CM7_GCC.a     14,184           0       0        0
2025-03-23 17:09:12,660 [INFO] CmdLine:74 -  network.o                         1,256         160   6,656      388
2025-03-23 17:09:12,661 [INFO] CmdLine:74 -  network_data.o                       48          16      88        0
2025-03-23 17:09:12,661 [INFO] CmdLine:74 -  lib (toolchain)*                    614          24       0        0
2025-03-23 17:09:12,661 [INFO] CmdLine:74 -  ------------------------------ -------- ----------- ------- --------
2025-03-23 17:09:12,662 [INFO] CmdLine:74 -  RT total**                       16,102         200   6,744      388
2025-03-23 17:09:12,662 [INFO] CmdLine:74 -  ------------------------------ -------- ----------- ------- --------
2025-03-23 17:09:12,662 [INFO] CmdLine:74 -  weights                               0   1,019,608       0        0
2025-03-23 17:09:12,663 [INFO] CmdLine:74 -  activations                           0           0       0   21,504
2025-03-23 17:09:12,663 [INFO] CmdLine:74 -  io                                    0           0       0        0
2025-03-23 17:09:12,664 [INFO] CmdLine:74 -  ------------------------------ -------- ----------- ------- --------
2025-03-23 17:09:12,665 [INFO] CmdLine:74 -  TOTAL                            16,102   1,019,808   6,744   21,892
2025-03-23 17:09:12,667 [INFO] CmdLine:74 -  ------------------------------ -------- ----------- ------- --------
2025-03-23 17:09:12,667 [INFO] CmdLine:74 -  *  toolchain objects (libm/libgcc*)
2025-03-23 17:09:12,668 [INFO] CmdLine:74 -  ** RT AI runtime objects (kernels+infrastructure)
2025-03-23 17:09:12,668 [INFO] CmdLine:74 -   Summary - "stm32f7" target
2025-03-23 17:09:12,669 [INFO] CmdLine:74 -   --------------------------------------------------
2025-03-23 17:09:12,669 [INFO] CmdLine:74 -                FLASH (ro)     %*   RAM (rw)       %
2025-03-23 17:09:12,669 [INFO] CmdLine:74 -   --------------------------------------------------
2025-03-23 17:09:12,670 [INFO] CmdLine:74 -   RT total         23,046   2.2%      7,132   24.9%
2025-03-23 17:09:12,670 [INFO] CmdLine:74 -   --------------------------------------------------
2025-03-23 17:09:12,671 [INFO] CmdLine:74 -   TOTAL         1,042,654            28,636
2025-03-23 17:09:12,672 [INFO] CmdLine:74 -   --------------------------------------------------
2025-03-23 17:09:12,673 [INFO] CmdLine:74 -   *  rt/total
2025-03-23 17:09:12,673 [INFO] CmdLine:74 - Creating txt report file C:\Users\OS\.stm32cubemx\network_output\network_analyze_report.txt
2025-03-23 17:09:20,247 [INFO] CmdLine:74 - elapsed time (analyze): 28.779s
2025-03-23 17:09:20,989 [INFO] CmdLine:142 - stedgeai exit with status: 0
2025-03-23 17:09:21,015 [INFO] AIModelDetailledView:1176 - Model file:      train_mitbih_cnn.h5
2025-03-23 17:09:21,017 [INFO] AIModelDetailledView:1176 - Total Flash:     1042650 B (1018.21 KiB)
2025-03-23 17:09:21,017 [INFO] AIModelDetailledView:1176 -     Weights:     1019604 B (995.71 KiB)
2025-03-23 17:09:21,018 [INFO] AIModelDetailledView:1176 -     Library:     23046 B (22.51 KiB)
2025-03-23 17:09:21,019 [INFO] AIModelDetailledView:1176 - Total Ram:       28636 B (27.96 KiB)
2025-03-23 17:09:21,020 [INFO] AIModelDetailledView:1176 -     Activations: 21504 B (21.00 KiB)
2025-03-23 17:09:21,020 [INFO] AIModelDetailledView:1176 -     Library:     7132 B (6.96 KiB)
2025-03-23 17:09:21,021 [INFO] AIModelDetailledView:1176 -     Input:       748 B (included in Activations)
2025-03-23 17:09:21,021 [INFO] AIModelDetailledView:1176 -     Output:      20 B (included in Activations)
2025-03-23 17:09:21,021 [INFO] AIModelDetailledView:1176 - Done
2025-03-23 17:09:21,022 [INFO] AIModelDetailledView:2707 - Analyze complete on AI model
2025-03-23 17:09:21,065 [INFO] Middleware:617 - instanceName : STMicroelectronics.X-CUBE-AI.10.0.0 bspName : COM Port check condition success for : !SEMDeviceJjApplicationJjApplicationTemplate
2025-03-23 17:09:21,065 [INFO] Middleware:617 - instanceName : STMicroelectronics.X-CUBE-AI.10.0.0 bspName : COM Port check condition success for : !SEMDeviceJjApplicationJjApplicationTemplate
2025-03-23 17:09:21,066 [INFO] Middleware:617 - instanceName : STMicroelectronics.X-CUBE-AI.10.0.0 bspName : COM Port check condition success for : !SEMDeviceJjApplicationJjApplicationTemplate
2025-03-23 17:09:21,066 [INFO] Middleware:617 - instanceName : STMicroelectronics.X-CUBE-AI.10.0.0 bspName : COM Port check condition success for : !SEMDeviceJjApplicationJjApplicationTemplate
2025-03-23 17:09:21,066 [INFO] Middleware:617 - instanceName : STMicroelectronics.X-CUBE-AI.10.0.0 bspName : COM Port check condition success for : !SEMDeviceJjApplicationJjApplicationTemplate
2025-03-23 17:09:21,066 [INFO] Middleware:617 - instanceName : STMicroelectronics.X-CUBE-AI.10.0.0 bspName : COM Port check condition success for : !SEMDeviceJjApplicationJjApplicationTemplate
2025-03-23 17:09:21,107 [INFO] Middleware:617 - instanceName : STMicroelectronics.X-CUBE-AI.10.0.0 bspName : COM Port check condition success for : !SEMDeviceJjApplicationJjApplicationTemplate
2025-03-23 17:09:21,108 [INFO] Middleware:617 - instanceName : STMicroelectronics.X-CUBE-AI.10.0.0 bspName : COM Port check condition success for : !SEMDeviceJjApplicationJjApplicationTemplate
2025-03-23 17:09:21,108 [INFO] Middleware:617 - instanceName : STMicroelectronics.X-CUBE-AI.10.0.0 bspName : COM Port check condition success for : !SEMDeviceJjApplicationJjApplicationTemplate
2025-03-23 17:09:21,108 [INFO] Middleware:617 - instanceName : STMicroelectronics.X-CUBE-AI.10.0.0 bspName : COM Port check condition success for : !SEMDeviceJjApplicationJjApplicationTemplate
2025-03-23 17:09:21,108 [INFO] Middleware:617 - instanceName : STMicroelectronics.X-CUBE-AI.10.0.0 bspName : COM Port check condition success for : !SEMDeviceJjApplicationJjApplicationTemplate
2025-03-23 17:09:21,108 [INFO] Middleware:617 - instanceName : STMicroelectronics.X-CUBE-AI.10.0.0 bspName : COM Port check condition success for : !SEMDeviceJjApplicationJjApplicationTemplate
2025-03-23 17:09:21,143 [INFO] Middleware:617 - instanceName : STMicroelectronics.X-CUBE-AI.10.0.0 bspName : COM Port check condition success for : !SEMDeviceJjApplicationJjApplicationTemplate
2025-03-23 17:09:21,143 [INFO] Middleware:617 - instanceName : STMicroelectronics.X-CUBE-AI.10.0.0 bspName : COM Port check condition success for : !SEMDeviceJjApplicationJjApplicationTemplate
2025-03-23 17:09:21,143 [INFO] Middleware:617 - instanceName : STMicroelectronics.X-CUBE-AI.10.0.0 bspName : COM Port check condition success for : !SEMDeviceJjApplicationJjApplicationTemplate
2025-03-23 17:09:21,143 [INFO] Middleware:617 - instanceName : STMicroelectronics.X-CUBE-AI.10.0.0 bspName : COM Port check condition success for : !SEMDeviceJjApplicationJjApplicationTemplate
2025-03-23 17:09:21,144 [INFO] Middleware:617 - instanceName : STMicroelectronics.X-CUBE-AI.10.0.0 bspName : COM Port check condition success for : !SEMDeviceJjApplicationJjApplicationTemplate
2025-03-23 17:09:21,144 [INFO] Middleware:617 - instanceName : STMicroelectronics.X-CUBE-AI.10.0.0 bspName : COM Port check condition success for : !SEMDeviceJjApplicationJjApplicationTemplate
2025-03-23 17:09:21,206 [INFO] AIModelDetailledView:2372 - Analysis status: done
2025-03-23 17:09:25,917 [INFO] Middleware:617 - instanceName : STMicroelectronics.X-CUBE-AI.10.0.0 bspName : COM Port check condition success for : !SEMDeviceJjApplicationJjApplicationTemplate
2025-03-23 17:09:25,917 [INFO] Middleware:617 - instanceName : STMicroelectronics.X-CUBE-AI.10.0.0 bspName : COM Port check condition success for : !SEMDeviceJjApplicationJjApplicationTemplate
2025-03-23 17:09:25,917 [INFO] Middleware:617 - instanceName : STMicroelectronics.X-CUBE-AI.10.0.0 bspName : COM Port check condition success for : !SEMDeviceJjApplicationJjApplicationTemplate
2025-03-23 17:09:25,917 [INFO] Middleware:617 - instanceName : STMicroelectronics.X-CUBE-AI.10.0.0 bspName : COM Port check condition success for : !SEMDeviceJjApplicationJjApplicationTemplate
2025-03-23 17:09:25,917 [INFO] Middleware:617 - instanceName : STMicroelectronics.X-CUBE-AI.10.0.0 bspName : COM Port check condition success for : !SEMDeviceJjApplicationJjApplicationTemplate
2025-03-23 17:09:25,917 [INFO] Middleware:617 - instanceName : STMicroelectronics.X-CUBE-AI.10.0.0 bspName : COM Port check condition success for : !SEMDeviceJjApplicationJjApplicationTemplate
2025-03-23 17:09:27,013 [INFO] AIModelDetailledView:2372 - Analysis status: -
2025-03-23 17:09:27,105 [INFO] AInterface:254 - ModelName:network; files:[C:\Users\OS\Downloads\models-20250323T100616Z-001\models\train_ptbdb_cnn.h5]; type:Keras; compression:None
2025-03-23 17:09:27,106 [INFO] AInterface:519 - workspaceTempDir: C:/Users/OS/AppData/Local/Temp/mxAI_workspace1490604475120010009838903079313771
2025-03-23 17:09:27,106 [INFO] AInterface:1132 - Setting Env: C:/Users/OS/STM32Cube/Repository/Packs/STMicroelectronics/X-CUBE-AI/10.0.0/Utilities/windows
2025-03-23 17:09:27,118 [INFO] STM32CubeIDEBuilder:265 - Looking for gnu-tools-for-stm32 tools/bin/arm-none-eabi-gcc.exe in C:\ST\STM32CubeIDE_1.16.0\STM32CubeIDE
2025-03-23 17:09:27,121 [INFO] STM32CubeIDEBuilder:294 - checking C:\ST\STM32CubeIDE_1.16.0\STM32CubeIDE\plugins\com.st.stm32cube.ide.mcu.externaltools.gnu-tools-for-stm32.13.3.rel1.win32_1.0.0.202411081344\tools\bin\arm-none-eabi-gcc.exe
2025-03-23 17:09:27,122 [INFO] STM32CubeIDEBuilder:297 - ret=C:\ST\STM32CubeIDE_1.16.0\STM32CubeIDE\plugins\com.st.stm32cube.ide.mcu.externaltools.gnu-tools-for-stm32.13.3.rel1.win32_1.0.0.202411081344\tools\bin\arm-none-eabi-gcc.exe
2025-03-23 17:09:27,122 [INFO] STM32CubeIDEBuilder:311 - returning C:\ST\STM32CubeIDE_1.16.0\STM32CubeIDE\plugins\com.st.stm32cube.ide.mcu.externaltools.gnu-tools-for-stm32.13.3.rel1.win32_1.0.0.202411081344\tools\bin\arm-none-eabi-gcc.exe
2025-03-23 17:09:27,122 [INFO] AInterface:1189 - Custom PATH variable: C:/Users/OS/STM32Cube/Repository/Packs/STMicroelectronics/X-CUBE-AI/10.0.0/Utilities/windows;C:/Users/OS/STM32Cube/Repository/Packs/STMicroelectronics/X-CUBE-AI/10.0.0/Utilities/windows/mingw64/bin;C:/Users/OS/STM32Cube/Repository/Packs/STMicroelectronics/X-CUBE-AI/10.0.0/Utilities/windows/mingw64/libexec/gcc/x86_64-w64-mingw32/7.3.0;;C:\ST\STM32CubeIDE_1.16.0\STM32CubeIDE\plugins\com.st.stm32cube.ide.mcu.externaltools.gnu-tools-for-stm32.13.3.rel1.win32_1.0.0.202411081344\tools\bin
2025-03-23 17:09:27,123 [INFO] CmdLine:109 - Command: C:/Users/OS/STM32Cube/Repository/Packs/STMicroelectronics/X-CUBE-AI/10.0.0/Utilities/windows/stedgeai.exe analyze --target stm32f7 --name network -m C:/Users/OS/Downloads/models-20250323T100616Z-001/models/train_ptbdb_cnn.h5 --compression none --verbosity 1 --workspace C:/Users/OS/AppData/Local/Temp/mxAI_workspace1490604475120010009838903079313771 --output C:/Users/OS/.stm32cubemx/network_output
2025-03-23 17:09:27,127 [INFO] AIModelDetailledView:2372 - Analysis status: pending
2025-03-23 17:09:27,881 [INFO] CmdLine:74 - ST Edge AI Core v2.0.0-20049
2025-03-23 17:09:47,094 [INFO] CmdLine:74 - Creating c (debug) info json file C:\Users\OS\AppData\Local\Temp\mxAI_workspace1490604475120010009838903079313771\network_c_info.json
2025-03-23 17:09:47,151 [INFO] CmdLine:74 -  
2025-03-23 17:09:47,152 [INFO] CmdLine:74 -  Exec/report summary (analyze)
2025-03-23 17:09:47,152 [INFO] CmdLine:74 -  ---------------------------------------------------------------------------------------------------------
2025-03-23 17:09:47,152 [INFO] CmdLine:74 -  model file         :   C:\Users\OS\Downloads\models-20250323T100616Z-001\models\train_ptbdb_cnn.h5       
2025-03-23 17:09:47,152 [INFO] CmdLine:74 -  type               :   keras                                                                             
2025-03-23 17:09:47,152 [INFO] CmdLine:74 -  c_name             :   network                                                                           
2025-03-23 17:09:47,152 [INFO] CmdLine:74 -  compression        :   none                                                                              
2025-03-23 17:09:47,153 [INFO] CmdLine:74 -  options            :   allocate-inputs, allocate-outputs                                                 
2025-03-23 17:09:47,153 [INFO] CmdLine:74 -  optimization       :   balanced                                                                          
2025-03-23 17:09:47,154 [INFO] CmdLine:74 -  target/series      :   stm32f7                                                                           
2025-03-23 17:09:47,154 [INFO] CmdLine:74 -  workspace dir      :   C:\Users\OS\AppData\Local\Temp\mxAI_workspace1490604475120010009838903079313771   
2025-03-23 17:09:47,155 [INFO] CmdLine:74 -  output dir         :   C:\Users\OS\.stm32cubemx\network_output                                           
2025-03-23 17:09:47,155 [INFO] CmdLine:74 -  model_fmt          :   float                                                                             
2025-03-23 17:09:47,155 [INFO] CmdLine:74 -  model_name         :   train_ptbdb_cnn                                                                   
2025-03-23 17:09:47,155 [INFO] CmdLine:74 -  model_hash         :   0xc15ffbeb7244f93eec365ff9171573b1                                                
2025-03-23 17:09:47,156 [INFO] CmdLine:74 -  params #           :   254,641 items (994.69 KiB)                                                        
2025-03-23 17:09:47,156 [INFO] CmdLine:74 -  ---------------------------------------------------------------------------------------------------------
2025-03-23 17:09:47,156 [INFO] CmdLine:74 -  input 1/1          :   'input_2', f32(1x187x1), 748 Bytes, activations                                   
2025-03-23 17:09:47,156 [INFO] CmdLine:74 -  output 1/1         :   'dense_3_ptbdb', f32(1x1), 4 Bytes, activations                                   
2025-03-23 17:09:47,156 [INFO] CmdLine:74 -  macc               :   4,299,099                                                                         
2025-03-23 17:09:47,157 [INFO] CmdLine:74 -  weights (ro)       :   1,018,564 B (994.69 KiB) (1 segment)                                              
2025-03-23 17:09:47,157 [INFO] CmdLine:74 -  activations (rw)   :   21,504 B (21.00 KiB) (1 segment) *                                                
2025-03-23 17:09:47,159 [INFO] CmdLine:74 -  ram (total)        :   21,504 B (21.00 KiB) = 21,504 + 0 + 0                                             
2025-03-23 17:09:47,159 [INFO] CmdLine:74 -  ---------------------------------------------------------------------------------------------------------
2025-03-23 17:09:47,160 [INFO] CmdLine:74 -  (*) 'input'/'output' buffers can be used from the activations buffer
2025-03-23 17:09:47,172 [INFO] CmdLine:74 - Computing AI RT data/code size (target=stm32f7)..
2025-03-23 17:09:49,107 [INFO] CmdLine:74 -  Model name - train_ptbdb_cnn
2025-03-23 17:09:49,108 [INFO] CmdLine:74 -  ------ -------------------------------------------------- ------------------ ----------------- ----------- -----------------------------
2025-03-23 17:09:49,108 [INFO] CmdLine:74 -  m_id   layer (original)                                   oshape             param/size               macc                  connected to
2025-03-23 17:09:49,108 [INFO] CmdLine:74 -  ------ -------------------------------------------------- ------------------ ----------------- ----------- -----------------------------
2025-03-23 17:09:49,108 [INFO] CmdLine:74 -  0      input_2 (InputLayer)                               [b:1,h:187,c:1]
2025-03-23 17:09:49,109 [INFO] CmdLine:74 -  ------ -------------------------------------------------- ------------------ ----------------- ----------- -----------------------------
2025-03-23 17:09:49,110 [INFO] CmdLine:74 -  1      conv1d_8_conv2d (Conv1D)                           [b:1,h:183,c:16]   96/384                 14,656                       input_2
2025-03-23 17:09:49,110 [INFO] CmdLine:74 -         conv1d_8 (Conv1D)                                  [b:1,h:183,c:16]                           2,928               conv1d_8_conv2d
2025-03-23 17:09:49,111 [INFO] CmdLine:74 -  ------ -------------------------------------------------- ------------------ ----------------- ----------- -----------------------------
2025-03-23 17:09:49,111 [INFO] CmdLine:74 -  2      conv1d_9_conv2d (Conv1D)                           [b:1,h:179,c:16]   1,296/5,184           229,136                      conv1d_8
2025-03-23 17:09:49,112 [INFO] CmdLine:74 -         conv1d_9 (Conv1D)                                  [b:1,h:179,c:16]                           2,864               conv1d_9_conv2d
2025-03-23 17:09:49,113 [INFO] CmdLine:74 -  ------ -------------------------------------------------- ------------------ ----------------- ----------- -----------------------------
2025-03-23 17:09:49,113 [INFO] CmdLine:74 -  3      max_pooling1d_3 (MaxPooling1D)                     [b:1,h:89,c:16]                            2,848                      conv1d_9
2025-03-23 17:09:49,115 [INFO] CmdLine:74 -  ------ -------------------------------------------------- ------------------ ----------------- ----------- -----------------------------
2025-03-23 17:09:49,116 [INFO] CmdLine:74 -  5      conv1d_10_conv2d (Conv1D)                          [b:1,h:87,c:32]    1,568/6,272           133,664               max_pooling1d_3
2025-03-23 17:09:49,116 [INFO] CmdLine:74 -         conv1d_10 (Conv1D)                                 [b:1,h:87,c:32]                            2,784              conv1d_10_conv2d
2025-03-23 17:09:49,117 [INFO] CmdLine:74 -  ------ -------------------------------------------------- ------------------ ----------------- ----------- -----------------------------
2025-03-23 17:09:49,117 [INFO] CmdLine:74 -  6      conv1d_11_conv2d (Conv1D)                          [b:1,h:85,c:32]    3,104/12,416          261,152                     conv1d_10
2025-03-23 17:09:49,118 [INFO] CmdLine:74 -         conv1d_11 (Conv1D)                                 [b:1,h:85,c:32]                            2,720              conv1d_11_conv2d
2025-03-23 17:09:49,118 [INFO] CmdLine:74 -  ------ -------------------------------------------------- ------------------ ----------------- ----------- -----------------------------
2025-03-23 17:09:49,118 [INFO] CmdLine:74 -  7      max_pooling1d_4 (MaxPooling1D)                     [b:1,h:42,c:32]                            2,688                     conv1d_11
2025-03-23 17:09:49,119 [INFO] CmdLine:74 -  ------ -------------------------------------------------- ------------------ ----------------- ----------- -----------------------------
2025-03-23 17:09:49,119 [INFO] CmdLine:74 -  9      conv1d_12_conv2d (Conv1D)                          [b:1,h:40,c:32]    3,104/12,416          122,912               max_pooling1d_4
2025-03-23 17:09:49,119 [INFO] CmdLine:74 -         conv1d_12 (Conv1D)                                 [b:1,h:40,c:32]                            1,280              conv1d_12_conv2d
2025-03-23 17:09:49,120 [INFO] CmdLine:74 -  ------ -------------------------------------------------- ------------------ ----------------- ----------- -----------------------------
2025-03-23 17:09:49,120 [INFO] CmdLine:74 -  10     conv1d_13_conv2d (Conv1D)                          [b:1,h:38,c:32]    3,104/12,416          116,768                     conv1d_12
2025-03-23 17:09:49,121 [INFO] CmdLine:74 -         conv1d_13 (Conv1D)                                 [b:1,h:38,c:32]                            1,216              conv1d_13_conv2d
2025-03-23 17:09:49,121 [INFO] CmdLine:74 -  ------ -------------------------------------------------- ------------------ ----------------- ----------- -----------------------------
2025-03-23 17:09:49,123 [INFO] CmdLine:74 -  11     max_pooling1d_5 (MaxPooling1D)                     [b:1,h:19,c:32]                            1,216                     conv1d_13
2025-03-23 17:09:49,123 [INFO] CmdLine:74 -  ------ -------------------------------------------------- ------------------ ----------------- ----------- -----------------------------
2025-03-23 17:09:49,124 [INFO] CmdLine:74 -  13     conv1d_14_conv2d (Conv1D)                          [b:1,h:17,c:256]   24,832/99,328         418,048               max_pooling1d_5
2025-03-23 17:09:49,124 [INFO] CmdLine:74 -         conv1d_14 (Conv1D)                                 [b:1,h:17,c:256]                           4,352              conv1d_14_conv2d
2025-03-23 17:09:49,124 [INFO] CmdLine:74 -  ------ -------------------------------------------------- ------------------ ----------------- ----------- -----------------------------
2025-03-23 17:09:49,140 [INFO] CmdLine:74 -  14     conv1d_15_conv2d (Conv1D)                          [b:1,h:15,c:256]   196,864/787,456     2,949,376                     conv1d_14
2025-03-23 17:09:49,141 [INFO] CmdLine:74 -         conv1d_15 (Conv1D)                                 [b:1,h:15,c:256]                           3,840              conv1d_15_conv2d
2025-03-23 17:09:49,141 [INFO] CmdLine:74 -  ------ -------------------------------------------------- ------------------ ----------------- ----------- -----------------------------
2025-03-23 17:09:49,141 [INFO] CmdLine:74 -  15     global_max_pooling1d_1_pool (GlobalMaxPooling1D)   [b:1,h:1,c:256]                            3,840                     conv1d_15
2025-03-23 17:09:49,142 [INFO] CmdLine:74 -         global_max_pooling1d_1 (GlobalMaxPooling1D)        [b:1,c:256]                                        global_max_pooling1d_1_pool
2025-03-23 17:09:49,142 [INFO] CmdLine:74 -  ------ -------------------------------------------------- ------------------ ----------------- ----------- -----------------------------
2025-03-23 17:09:49,142 [INFO] CmdLine:74 -  17     dense_1_dense (Dense)                              [b:1,c:64]         16,448/65,792          16,448        global_max_pooling1d_1
2025-03-23 17:09:49,143 [INFO] CmdLine:74 -         dense_1 (Dense)                                    [b:1,c:64]                                    64                 dense_1_dense
2025-03-23 17:09:49,144 [INFO] CmdLine:74 -  ------ -------------------------------------------------- ------------------ ----------------- ----------- -----------------------------
2025-03-23 17:09:49,144 [INFO] CmdLine:74 -  18     dense_2_dense (Dense)                              [b:1,c:64]         4,160/16,640            4,160                       dense_1
2025-03-23 17:09:49,144 [INFO] CmdLine:74 -         dense_2 (Dense)                                    [b:1,c:64]                                    64                 dense_2_dense
2025-03-23 17:09:49,148 [INFO] CmdLine:74 -  ------ -------------------------------------------------- ------------------ ----------------- ----------- -----------------------------
2025-03-23 17:09:49,149 [INFO] CmdLine:74 -  19     dense_3_ptbdb_dense (Dense)                        [b:1,c:1]          65/260                     65                       dense_2
2025-03-23 17:09:49,150 [INFO] CmdLine:74 -         dense_3_ptbdb (Dense)                              [b:1,c:1]                                     10           dense_3_ptbdb_dense
2025-03-23 17:09:49,150 [INFO] CmdLine:74 -  ------ -------------------------------------------------- ------------------ ----------------- ----------- -----------------------------
2025-03-23 17:09:49,151 [INFO] CmdLine:74 -  model: macc=4,299,099 weights=1,018,564 activations=-- io=--
2025-03-23 17:09:49,151 [INFO] CmdLine:74 -  Number of operations per c-layer
2025-03-23 17:09:49,151 [INFO] CmdLine:74 -  ------- ------ ------------------------------------ ----------- --------------
2025-03-23 17:09:49,152 [INFO] CmdLine:74 -  c_id    m_id   name (type)                                  #op           type
2025-03-23 17:09:49,152 [INFO] CmdLine:74 -  ------- ------ ------------------------------------ ----------- --------------
2025-03-23 17:09:49,152 [INFO] CmdLine:74 -  0       1      conv1d_8_conv2d (Conv2D)                  14,656   smul_f32_f32
2025-03-23 17:09:49,152 [INFO] CmdLine:74 -  1       1      conv1d_8 (Nonlinearity)                    2,928     op_f32_f32
2025-03-23 17:09:49,153 [INFO] CmdLine:74 -  2       3      conv1d_9_conv2d (Conv2D)                 234,848   smul_f32_f32
2025-03-23 17:09:49,153 [INFO] CmdLine:74 -  3       5      conv1d_10_conv2d (Conv2D)                133,664   smul_f32_f32
2025-03-23 17:09:49,153 [INFO] CmdLine:74 -  4       5      conv1d_10 (Nonlinearity)                   2,784     op_f32_f32
2025-03-23 17:09:49,154 [INFO] CmdLine:74 -  5       7      conv1d_11_conv2d (Conv2D)                266,560   smul_f32_f32
2025-03-23 17:09:49,154 [INFO] CmdLine:74 -  6       9      conv1d_12_conv2d (Conv2D)                122,912   smul_f32_f32
2025-03-23 17:09:49,154 [INFO] CmdLine:74 -  7       9      conv1d_12 (Nonlinearity)                   1,280     op_f32_f32
2025-03-23 17:09:49,154 [INFO] CmdLine:74 -  8       11     conv1d_13_conv2d (Conv2D)                119,200   smul_f32_f32
2025-03-23 17:09:49,155 [INFO] CmdLine:74 -  9       13     conv1d_14_conv2d (Conv2D)                418,048   smul_f32_f32
2025-03-23 17:09:49,155 [INFO] CmdLine:74 -  10      13     conv1d_14 (Nonlinearity)                   4,352     op_f32_f32
2025-03-23 17:09:49,155 [INFO] CmdLine:74 -  11      14     conv1d_15_conv2d (Conv2D)              2,949,376   smul_f32_f32
2025-03-23 17:09:49,155 [INFO] CmdLine:74 -  12      14     conv1d_15 (Nonlinearity)                   3,840     op_f32_f32
2025-03-23 17:09:49,156 [INFO] CmdLine:74 -  13      15     global_max_pooling1d_1_pool (Pool)         3,840   smul_f32_f32
2025-03-23 17:09:49,156 [INFO] CmdLine:74 -  14      17     dense_1_dense (Dense)                     16,448   smul_f32_f32
2025-03-23 17:09:49,156 [INFO] CmdLine:74 -  15      17     dense_1 (Nonlinearity)                        64     op_f32_f32
2025-03-23 17:09:49,157 [INFO] CmdLine:74 -  16      18     dense_2_dense (Dense)                      4,160   smul_f32_f32
2025-03-23 17:09:49,157 [INFO] CmdLine:74 -  17      18     dense_2 (Nonlinearity)                        64     op_f32_f32
2025-03-23 17:09:49,157 [INFO] CmdLine:74 -  18      19     dense_3_ptbdb_dense (Dense)                   65   smul_f32_f32
2025-03-23 17:09:49,158 [INFO] CmdLine:74 -  19      19     dense_3_ptbdb (Nonlinearity)                  10     op_f32_f32
2025-03-23 17:09:49,158 [INFO] CmdLine:74 -  ------- ------ ------------------------------------ ----------- --------------
2025-03-23 17:09:49,158 [INFO] CmdLine:74 -  total                                                 4,299,099
2025-03-23 17:09:49,158 [INFO] CmdLine:74 -  Number of operation types
2025-03-23 17:09:49,159 [INFO] CmdLine:74 -  ---------------- ----------- -----------
2025-03-23 17:09:49,159 [INFO] CmdLine:74 -  operation type             #           %
2025-03-23 17:09:49,160 [INFO] CmdLine:74 -  ---------------- ----------- -----------
2025-03-23 17:09:49,160 [INFO] CmdLine:74 -  smul_f32_f32       4,283,777       99.6%
2025-03-23 17:09:49,160 [INFO] CmdLine:74 -  op_f32_f32            15,322        0.4%
2025-03-23 17:09:49,160 [INFO] CmdLine:74 -  Complexity report (model)
2025-03-23 17:09:49,161 [INFO] CmdLine:74 -  ------ ----------------------------- ------------------------- ------------------------- ----------
2025-03-23 17:09:49,161 [INFO] CmdLine:74 -  m_id   name                          c_macc                    c_rom                     c_id
2025-03-23 17:09:49,161 [INFO] CmdLine:74 -  ------ ----------------------------- ------------------------- ------------------------- ----------
2025-03-23 17:09:49,162 [INFO] CmdLine:74 -  1      conv1d_8_conv2d               |                  0.4%   |                  0.0%   [0, 1]
2025-03-23 17:09:49,162 [INFO] CmdLine:74 -  3      max_pooling1d_3               ||                 5.5%   |                  0.5%   [2]
2025-03-23 17:09:49,163 [INFO] CmdLine:74 -  5      conv1d_10_conv2d              |                  3.2%   |                  0.6%   [3, 4]
2025-03-23 17:09:49,163 [INFO] CmdLine:74 -  7      max_pooling1d_4               ||                 6.2%   |                  1.2%   [5]
2025-03-23 17:09:49,164 [INFO] CmdLine:74 -  9      conv1d_12_conv2d              |                  2.9%   |                  1.2%   [6, 7]
2025-03-23 17:09:49,164 [INFO] CmdLine:74 -  11     max_pooling1d_5               |                  2.8%   |                  1.2%   [8]
2025-03-23 17:09:49,164 [INFO] CmdLine:74 -  13     conv1d_14_conv2d              |||                9.8%   ||                 9.8%   [9, 10]
2025-03-23 17:09:49,164 [INFO] CmdLine:74 -  14     conv1d_15_conv2d              ||||||||||||||||  68.7%   ||||||||||||||||  77.3%   [11, 12]
2025-03-23 17:09:49,165 [INFO] CmdLine:74 -  15     global_max_pooling1d_1_pool   |                  0.1%   |                  0.0%   [13]
…
2025-03-23 18:47:56,588 [INFO] CmdLine:74 -  7      max_pooling1d_13 (MaxPooling1D)                    [b:1,h:42,c:32]                            2,688                     conv1d_35
2025-03-23 18:47:56,588 [INFO] CmdLine:74 -  ------ -------------------------------------------------- ------------------ ----------------- ----------- -----------------------------
2025-03-23 18:47:56,589 [INFO] CmdLine:74 -  9      conv1d_36_conv2d (Conv1D)                          [b:1,h:40,c:32]    3,104/12,416          122,912              max_pooling1d_13
2025-03-23 18:47:56,589 [INFO] CmdLine:74 -         conv1d_36 (Conv1D)                                 [b:1,h:40,c:32]                            1,280              conv1d_36_conv2d
2025-03-23 18:47:56,589 [INFO] CmdLine:74 -  ------ -------------------------------------------------- ------------------ ----------------- ----------- -----------------------------
2025-03-23 18:47:56,589 [INFO] CmdLine:74 -  10     conv1d_37_conv2d (Conv1D)                          [b:1,h:38,c:32]    3,104/12,416          116,768                     conv1d_36
2025-03-23 18:47:56,590 [INFO] CmdLine:74 -         conv1d_37 (Conv1D)                                 [b:1,h:38,c:32]                            1,216              conv1d_37_conv2d
2025-03-23 18:47:56,590 [INFO] CmdLine:74 -  ------ -------------------------------------------------- ------------------ ----------------- ----------- -----------------------------
2025-03-23 18:47:56,590 [INFO] CmdLine:74 -  11     max_pooling1d_14 (MaxPooling1D)                    [b:1,h:19,c:32]                            1,216                     conv1d_37
2025-03-23 18:47:56,593 [INFO] CmdLine:74 -  ------ -------------------------------------------------- ------------------ ----------------- ----------- -----------------------------
2025-03-23 18:47:56,594 [INFO] CmdLine:74 -  13     conv1d_38_conv2d (Conv1D)                          [b:1,h:17,c:256]   24,832/99,328         418,048              max_pooling1d_14
2025-03-23 18:47:56,595 [INFO] CmdLine:74 -         conv1d_38 (Conv1D)                                 [b:1,h:17,c:256]                           4,352              conv1d_38_conv2d
2025-03-23 18:47:56,596 [INFO] CmdLine:74 -  ------ -------------------------------------------------- ------------------ ----------------- ----------- -----------------------------
2025-03-23 18:47:56,596 [INFO] CmdLine:74 -  14     conv1d_39_conv2d (Conv1D)                          [b:1,h:15,c:256]   196,864/787,456     2,949,376                     conv1d_38
2025-03-23 18:47:56,596 [INFO] CmdLine:74 -         conv1d_39 (Conv1D)                                 [b:1,h:15,c:256]                           3,840              conv1d_39_conv2d
2025-03-23 18:47:56,596 [INFO] CmdLine:74 -  ------ -------------------------------------------------- ------------------ ----------------- ----------- -----------------------------
2025-03-23 18:47:56,597 [INFO] CmdLine:74 -  15     global_max_pooling1d_4_pool (GlobalMaxPooling1D)   [b:1,h:1,c:256]                            3,840                     conv1d_39
2025-03-23 18:47:56,597 [INFO] CmdLine:74 -         global_max_pooling1d_4 (GlobalMaxPooling1D)        [b:1,c:256]                                        global_max_pooling1d_4_pool
2025-03-23 18:47:56,598 [INFO] CmdLine:74 -  ------ -------------------------------------------------- ------------------ ----------------- ----------- -----------------------------
2025-03-23 18:47:56,598 [INFO] CmdLine:74 -  17     dense_1_dense (Dense)                              [b:1,c:64]         16,448/65,792          16,448        global_max_pooling1d_4
2025-03-23 18:47:56,599 [INFO] CmdLine:74 -         dense_1 (Dense)                                    [b:1,c:64]                                    64                 dense_1_dense
2025-03-23 18:47:56,599 [INFO] CmdLine:74 -  ------ -------------------------------------------------- ------------------ ----------------- ----------- -----------------------------
2025-03-23 18:47:56,600 [INFO] CmdLine:74 -  18     dense_2_dense (Dense)                              [b:1,c:64]         4,160/16,640            4,160                       dense_1
2025-03-23 18:47:56,600 [INFO] CmdLine:74 -         dense_2 (Dense)                                    [b:1,c:64]                                    64                 dense_2_dense
2025-03-23 18:47:56,600 [INFO] CmdLine:74 -  ------ -------------------------------------------------- ------------------ ----------------- ----------- -----------------------------
2025-03-23 18:47:56,601 [INFO] CmdLine:74 -  19     dense_3_ptbdb_dense (Dense)                        [b:1,c:1]          65/260                     65                       dense_2
2025-03-23 18:47:56,601 [INFO] CmdLine:74 -         dense_3_ptbdb (Dense)                              [b:1,c:1]                                     10           dense_3_ptbdb_dense
2025-03-23 18:47:56,601 [INFO] CmdLine:74 -  ------ -------------------------------------------------- ------------------ ----------------- ----------- -----------------------------
2025-03-23 18:47:56,602 [INFO] CmdLine:74 -  model: macc=4,299,099 weights=1,018,564 activations=-- io=--
2025-03-23 18:47:56,602 [INFO] CmdLine:74 -  Number of operations per c-layer
2025-03-23 18:47:56,602 [INFO] CmdLine:74 -  ------- ------ ------------------------------------ ----------- --------------
2025-03-23 18:47:56,602 [INFO] CmdLine:74 -  c_id    m_id   name (type)                                  #op           type
2025-03-23 18:47:56,602 [INFO] CmdLine:74 -  ------- ------ ------------------------------------ ----------- --------------
2025-03-23 18:47:56,602 [INFO] CmdLine:74 -  0       1      conv1d_32_conv2d (Conv2D)                 14,656   smul_f32_f32
2025-03-23 18:47:56,603 [INFO] CmdLine:74 -  1       1      conv1d_32 (Nonlinearity)                   2,928     op_f32_f32
2025-03-23 18:47:56,603 [INFO] CmdLine:74 -  2       3      conv1d_33_conv2d (Conv2D)                234,848   smul_f32_f32
2025-03-23 18:47:56,603 [INFO] CmdLine:74 -  3       5      conv1d_34_conv2d (Conv2D)                133,664   smul_f32_f32
2025-03-23 18:47:56,603 [INFO] CmdLine:74 -  4       5      conv1d_34 (Nonlinearity)                   2,784     op_f32_f32
2025-03-23 18:47:56,604 [INFO] CmdLine:74 -  5       7      conv1d_35_conv2d (Conv2D)                266,560   smul_f32_f32
2025-03-23 18:47:56,604 [INFO] CmdLine:74 -  6       9      conv1d_36_conv2d (Conv2D)                122,912   smul_f32_f32
2025-03-23 18:47:56,604 [INFO] CmdLine:74 -  7       9      conv1d_36 (Nonlinearity)                   1,280     op_f32_f32
2025-03-23 18:47:56,604 [INFO] CmdLine:74 -  8       11     conv1d_37_conv2d (Conv2D)                119,200   smul_f32_f32
2025-03-23 18:47:56,604 [INFO] CmdLine:74 -  9       13     conv1d_38_conv2d (Conv2D)                418,048   smul_f32_f32
2025-03-23 18:47:56,605 [INFO] CmdLine:74 -  10      13     conv1d_38 (Nonlinearity)                   4,352     op_f32_f32
2025-03-23 18:47:56,605 [INFO] CmdLine:74 -  11      14     conv1d_39_conv2d (Conv2D)              2,949,376   smul_f32_f32
2025-03-23 18:47:56,605 [INFO] CmdLine:74 -  12      14     conv1d_39 (Nonlinearity)                   3,840     op_f32_f32
2025-03-23 18:47:56,605 [INFO] CmdLine:74 -  13      15     global_max_pooling1d_4_pool (Pool)         3,840   smul_f32_f32
2025-03-23 18:47:56,605 [INFO] CmdLine:74 -  14      17     dense_1_dense (Dense)                     16,448   smul_f32_f32
2025-03-23 18:47:56,605 [INFO] CmdLine:74 -  15      17     dense_1 (Nonlinearity)                        64     op_f32_f32
2025-03-23 18:47:56,606 [INFO] CmdLine:74 -  16      18     dense_2_dense (Dense)                      4,160   smul_f32_f32
2025-03-23 18:47:56,606 [INFO] CmdLine:74 -  17      18     dense_2 (Nonlinearity)                        64     op_f32_f32
2025-03-23 18:47:56,606 [INFO] CmdLine:74 -  18      19     dense_3_ptbdb_dense (Dense)                   65   smul_f32_f32
2025-03-23 18:47:56,606 [INFO] CmdLine:74 -  19      19     dense_3_ptbdb (Nonlinearity)                  10     op_f32_f32
2025-03-23 18:47:56,607 [INFO] CmdLine:74 -  ------- ------ ------------------------------------ ----------- --------------
2025-03-23 18:47:56,607 [INFO] CmdLine:74 -  total                                                 4,299,099
2025-03-23 18:47:56,607 [INFO] CmdLine:74 -  Number of operation types
2025-03-23 18:47:56,607 [INFO] CmdLine:74 -  ---------------- ----------- -----------
2025-03-23 18:47:56,608 [INFO] CmdLine:74 -  operation type             #           %
2025-03-23 18:47:56,608 [INFO] CmdLine:74 -  ---------------- ----------- -----------
2025-03-23 18:47:56,608 [INFO] CmdLine:74 -  smul_f32_f32       4,283,777       99.6%
2025-03-23 18:47:56,608 [INFO] CmdLine:74 -  op_f32_f32            15,322        0.4%
2025-03-23 18:47:56,608 [INFO] CmdLine:74 -  Complexity report (model)
2025-03-23 18:47:56,609 [INFO] CmdLine:74 -  ------ ----------------------------- ------------------------- ------------------------- ----------
2025-03-23 18:47:56,609 [INFO] CmdLine:74 -  m_id   name                          c_macc                    c_rom                     c_id
2025-03-23 18:47:56,610 [INFO] CmdLine:74 -  ------ ----------------------------- ------------------------- ------------------------- ----------
2025-03-23 18:47:56,612 [INFO] CmdLine:74 -  1      conv1d_32_conv2d              |                  0.4%   |                  0.0%   [0, 1]
2025-03-23 18:47:56,613 [INFO] CmdLine:74 -  3      max_pooling1d_12              ||                 5.5%   |                  0.5%   [2]
2025-03-23 18:47:56,613 [INFO] CmdLine:74 -  5      conv1d_34_conv2d              |                  3.2%   |                  0.6%   [3, 4]
2025-03-23 18:47:56,613 [INFO] CmdLine:74 -  7      max_pooling1d_13              ||                 6.2%   |                  1.2%   [5]
2025-03-23 18:47:56,614 [INFO] CmdLine:74 -  9      conv1d_36_conv2d              |                  2.9%   |                  1.2%   [6, 7]
2025-03-23 18:47:56,614 [INFO] CmdLine:74 -  11     max_pooling1d_14              |                  2.8%   |                  1.2%   [8]
2025-03-23 18:47:56,614 [INFO] CmdLine:74 -  13     conv1d_38_conv2d              |||                9.8%   ||                 9.8%   [9, 10]
2025-03-23 18:47:56,624 [INFO] CmdLine:74 -  14     conv1d_39_conv2d              ||||||||||||||||  68.7%   ||||||||||||||||  77.4%   [11, 12]
2025-03-23 18:47:56,624 [INFO] CmdLine:74 -  15     global_max_pooling1d_4_pool   |                  0.1%   |                  0.0%   [13]
2025-03-23 18:47:56,625 [INFO] CmdLine:74 -  17     dense_1_dense                 |                  0.4%   ||                 6.5%   [14, 15]
2025-03-23 18:47:56,626 [INFO] CmdLine:74 -  18     dense_2_dense                 |                  0.1%   |                  1.6%   [16, 17]
2025-03-23 18:47:56,626 [INFO] CmdLine:74 -  19     dense_3_ptbdb_dense           |                  0.0%   |                  0.0%   [18, 19]
2025-03-23 18:47:56,627 [INFO] CmdLine:74 -  ------ ----------------------------- ------------------------- ------------------------- ----------
2025-03-23 18:47:56,627 [INFO] CmdLine:74 -  macc=4,299,099 weights=1,017,092 act=21,504 ram_io=0
2025-03-23 18:47:56,628 [INFO] CmdLine:74 -  Requested memory size by section - "stm32f7" target
2025-03-23 18:47:56,629 [INFO] CmdLine:74 -  ------------------------------ -------- ----------- ------- --------
2025-03-23 18:47:56,629 [INFO] CmdLine:74 -  module                             text      rodata    data      bss
2025-03-23 18:47:56,630 [INFO] CmdLine:74 -  ------------------------------ -------- ----------- ------- --------
2025-03-23 18:47:56,630 [INFO] CmdLine:74 -  NetworkRuntime1000_CM7_GCC.a     13,884           0       0        0
2025-03-23 18:47:56,630 [INFO] CmdLine:74 -  network.o                         1,132         160   6,272      388
2025-03-23 18:47:56,631 [INFO] CmdLine:74 -  network_data.o                       48          16      88        0
2025-03-23 18:47:56,631 [INFO] CmdLine:74 -  lib (toolchain)*                    614          24       0        0
2025-03-23 18:47:56,631 [INFO] CmdLine:74 -  ------------------------------ -------- ----------- ------- --------
2025-03-23 18:47:56,632 [INFO] CmdLine:74 -  RT total**                       15,678         200   6,360      388
2025-03-23 18:47:56,633 [INFO] CmdLine:74 -  ------------------------------ -------- ----------- ------- --------
2025-03-23 18:47:56,633 [INFO] CmdLine:74 -  weights                               0   1,017,096       0        0
2025-03-23 18:47:56,634 [INFO] CmdLine:74 -  activations                           0           0       0   21,504
2025-03-23 18:47:56,640 [INFO] CmdLine:74 -  io                                    0           0       0        0
2025-03-23 18:47:56,640 [INFO] CmdLine:74 -  ------------------------------ -------- ----------- ------- --------
2025-03-23 18:47:56,641 [INFO] CmdLine:74 -  TOTAL                            15,678   1,017,296   6,360   21,892
2025-03-23 18:47:56,641 [INFO] CmdLine:74 -  ------------------------------ -------- ----------- ------- --------
2025-03-23 18:47:56,642 [INFO] CmdLine:74 -  *  toolchain objects (libm/libgcc*)
2025-03-23 18:47:56,642 [INFO] CmdLine:74 -  ** RT AI runtime objects (kernels+infrastructure)
2025-03-23 18:47:56,642 [INFO] CmdLine:74 -   Summary - "stm32f7" target
2025-03-23 18:47:56,643 [INFO] CmdLine:74 -   --------------------------------------------------
2025-03-23 18:47:56,643 [INFO] CmdLine:74 -                FLASH (ro)     %*   RAM (rw)       %
2025-03-23 18:47:56,643 [INFO] CmdLine:74 -   --------------------------------------------------
2025-03-23 18:47:56,644 [INFO] CmdLine:74 -   RT total         22,238   2.1%      6,748   23.9%
2025-03-23 18:47:56,644 [INFO] CmdLine:74 -   --------------------------------------------------
2025-03-23 18:47:56,645 [INFO] CmdLine:74 -   TOTAL         1,039,334            28,252
2025-03-23 18:47:56,646 [INFO] CmdLine:74 -   --------------------------------------------------
2025-03-23 18:47:56,646 [INFO] CmdLine:74 -   *  rt/total
2025-03-23 18:47:56,648 [INFO] CmdLine:74 - Creating txt report file C:\Users\OS\.stm32cubemx\network_output\network_analyze_report.txt
2025-03-23 18:48:09,881 [INFO] CmdLine:74 - elapsed time (analyze): 30.634s
2025-03-23 18:48:10,406 [INFO] CmdLine:142 - stedgeai exit with status: 0
2025-03-23 18:48:10,425 [INFO] AIModelDetailledView:1176 - Model file:      transfer_learning_ptbdb_freeze.h5
2025-03-23 18:48:10,426 [INFO] AIModelDetailledView:1176 - Total Flash:     1039330 B (1014.97 KiB)
2025-03-23 18:48:10,427 [INFO] AIModelDetailledView:1176 -     Weights:     1017092 B (993.25 KiB)
2025-03-23 18:48:10,428 [INFO] AIModelDetailledView:1176 -     Library:     22238 B (21.72 KiB)
2025-03-23 18:48:10,429 [INFO] AIModelDetailledView:1176 - Total Ram:       28252 B (27.59 KiB)
2025-03-23 18:48:10,430 [INFO] AIModelDetailledView:1176 -     Activations: 21504 B (21.00 KiB)
2025-03-23 18:48:10,431 [INFO] AIModelDetailledView:1176 -     Library:     6748 B (6.59 KiB)
2025-03-23 18:48:10,431 [INFO] AIModelDetailledView:1176 -     Input:       748 B (included in Activations)
2025-03-23 18:48:10,432 [INFO] AIModelDetailledView:1176 -     Output:      4 B (included in Activations)
2025-03-23 18:48:10,432 [INFO] AIModelDetailledView:1176 - Done
2025-03-23 18:48:10,433 [INFO] AIModelDetailledView:2707 - Analyze complete on AI model
2025-03-23 18:48:10,437 [INFO] AIModelDetailledView:2372 - Analysis status: done
2025-03-23 18:51:11,505 [INFO] UtilMem:75 - End SaveConfig() Used Memory: 918113512 Bytes (1073741824)
2025-03-23 18:51:11,806 [INFO] Middleware:617 - instanceName : STMicroelectronics.X-CUBE-AI.10.0.0 bspName : COM Port check condition success for : !SEMDeviceJjApplicationJjApplicationTemplate
2025-03-23 18:51:11,806 [INFO] Middleware:617 - instanceName : STMicroelectronics.X-CUBE-AI.10.0.0 bspName : COM Port check condition success for : !SEMDeviceJjApplicationJjApplicationTemplate
2025-03-23 18:51:11,806 [INFO] Middleware:617 - instanceName : STMicroelectronics.X-CUBE-AI.10.0.0 bspName : COM Port check condition success for : !SEMDeviceJjApplicationJjApplicationTemplate
2025-03-23 18:51:11,806 [INFO] Middleware:617 - instanceName : STMicroelectronics.X-CUBE-AI.10.0.0 bspName : COM Port check condition success for : !SEMDeviceJjApplicationJjApplicationTemplate
2025-03-23 18:51:11,806 [INFO] Middleware:617 - instanceName : STMicroelectronics.X-CUBE-AI.10.0.0 bspName : COM Port check condition success for : !SEMDeviceJjApplicationJjApplicationTemplate
2025-03-23 18:51:11,806 [INFO] Middleware:617 - instanceName : STMicroelectronics.X-CUBE-AI.10.0.0 bspName : COM Port check condition success for : !SEMDeviceJjApplicationJjApplicationTemplate
2025-03-23 18:51:11,848 [INFO] Middleware:617 - instanceName : STMicroelectronics.X-CUBE-AI.10.0.0 bspName : COM Port check condition success for : !SEMDeviceJjApplicationJjApplicationTemplate
2025-03-23 18:51:11,848 [INFO] Middleware:617 - instanceName : STMicroelectronics.X-CUBE-AI.10.0.0 bspName : COM Port check condition success for : !SEMDeviceJjApplicationJjApplicationTemplate
2025-03-23 18:51:11,848 [INFO] Middleware:617 - instanceName : STMicroelectronics.X-CUBE-AI.10.0.0 bspName : COM Port check condition success for : !SEMDeviceJjApplicationJjApplicationTemplate
2025-03-23 18:51:11,848 [INFO] Middleware:617 - instanceName : STMicroelectronics.X-CUBE-AI.10.0.0 bspName : COM Port check condition success for : !SEMDeviceJjApplicationJjApplicationTemplate
2025-03-23 18:51:11,848 [INFO] Middleware:617 - instanceName : STMicroelectronics.X-CUBE-AI.10.0.0 bspName : COM Port check condition success for : !SEMDeviceJjApplicationJjApplicationTemplate
2025-03-23 18:51:11,848 [INFO] Middleware:617 - instanceName : STMicroelectronics.X-CUBE-AI.10.0.0 bspName : COM Port check condition success for : !SEMDeviceJjApplicationJjApplicationTemplate
2025-03-23 18:51:11,878 [INFO] Middleware:617 - instanceName : STMicroelectronics.X-CUBE-AI.10.0.0 bspName : COM Port check condition success for : !SEMDeviceJjApplicationJjApplicationTemplate
2025-03-23 18:51:11,878 [INFO] Middleware:617 - instanceName : STMicroelectronics.X-CUBE-AI.10.0.0 bspName : COM Port check condition success for : !SEMDeviceJjApplicationJjApplicationTemplate
2025-03-23 18:51:11,878 [INFO] Middleware:617 - instanceName : STMicroelectronics.X-CUBE-AI.10.0.0 bspName : COM Port check condition success for : !SEMDeviceJjApplicationJjApplicationTemplate
2025-03-23 18:51:11,878 [INFO] Middleware:617 - instanceName : STMicroelectronics.X-CUBE-AI.10.0.0 bspName : COM Port check condition success for : !SEMDeviceJjApplicationJjApplicationTemplate
2025-03-23 18:51:11,878 [INFO] Middleware:617 - instanceName : STMicroelectronics.X-CUBE-AI.10.0.0 bspName : COM Port check condition success for : !SEMDeviceJjApplicationJjApplicationTemplate
2025-03-23 18:51:11,878 [INFO] Middleware:617 - instanceName : STMicroelectronics.X-CUBE-AI.10.0.0 bspName : COM Port check condition success for : !SEMDeviceJjApplicationJjApplicationTemplate
2025-03-23 18:51:11,903 [INFO] Middleware:617 - instanceName : STMicroelectronics.X-CUBE-AI.10.0.0 bspName : COM Port check condition success for : !SEMDeviceJjApplicationJjApplicationTemplate
2025-03-23 18:51:11,903 [INFO] Middleware:617 - instanceName : STMicroelectronics.X-CUBE-AI.10.0.0 bspName : COM Port check condition success for : !SEMDeviceJjApplicationJjApplicationTemplate
2025-03-23 18:51:11,903 [INFO] Middleware:617 - instanceName : STMicroelectronics.X-CUBE-AI.10.0.0 bspName : COM Port check condition success for : !SEMDeviceJjApplicationJjApplicationTemplate
2025-03-23 18:51:11,903 [INFO] Middleware:617 - instanceName : STMicroelectronics.X-CUBE-AI.10.0.0 bspName : COM Port check condition success for : !SEMDeviceJjApplicationJjApplicationTemplate
2025-03-23 18:51:11,903 [INFO] Middleware:617 - instanceName : STMicroelectronics.X-CUBE-AI.10.0.0 bspName : COM Port check condition success for : !SEMDeviceJjApplicationJjApplicationTemplate
2025-03-23 18:51:11,903 [INFO] Middleware:617 - instanceName : STMicroelectronics.X-CUBE-AI.10.0.0 bspName : COM Port check condition success for : !SEMDeviceJjApplicationJjApplicationTemplate
2025-03-23 18:51:11,908 [INFO] AIModelDetailledView:2372 - Analysis status: -
2025-03-23 18:51:11,934 [INFO] AInterface:254 - ModelName:network; files:[D:\transfer_learning_ptbdb_freeze.h5]; type:Keras; compression:None
2025-03-23 18:51:11,936 [INFO] AInterface:519 - workspaceTempDir: C:/Users/OS/AppData/Local/Temp/mxAI_workspace2101087334080012279769663076953141
2025-03-23 18:51:11,936 [INFO] AInterface:1132 - Setting Env: C:/Users/OS/STM32Cube/Repository/Packs/STMicroelectronics/X-CUBE-AI/10.0.0/Utilities/windows
2025-03-23 18:51:11,948 [INFO] STM32CubeIDEBuilder:265 - Looking for gnu-tools-for-stm32 tools/bin/arm-none-eabi-gcc.exe in C:\ST\STM32CubeIDE_1.16.0\STM32CubeIDE
2025-03-23 18:51:11,957 [INFO] STM32CubeIDEBuilder:294 - checking C:\ST\STM32CubeIDE_1.16.0\STM32CubeIDE\plugins\com.st.stm32cube.ide.mcu.externaltools.gnu-tools-for-stm32.13.3.rel1.win32_1.0.0.202411081344\tools\bin\arm-none-eabi-gcc.exe
2025-03-23 18:51:11,958 [INFO] STM32CubeIDEBuilder:297 - ret=C:\ST\STM32CubeIDE_1.16.0\STM32CubeIDE\plugins\com.st.stm32cube.ide.mcu.externaltools.gnu-tools-for-stm32.13.3.rel1.win32_1.0.0.202411081344\tools\bin\arm-none-eabi-gcc.exe
2025-03-23 18:51:11,958 [INFO] STM32CubeIDEBuilder:311 - returning C:\ST\STM32CubeIDE_1.16.0\STM32CubeIDE\plugins\com.st.stm32cube.ide.mcu.externaltools.gnu-tools-for-stm32.13.3.rel1.win32_1.0.0.202411081344\tools\bin\arm-none-eabi-gcc.exe
2025-03-23 18:51:11,958 [INFO] AInterface:1189 - Custom PATH variable: C:/Users/OS/STM32Cube/Repository/Packs/STMicroelectronics/X-CUBE-AI/10.0.0/Utilities/windows;C:/Users/OS/STM32Cube/Repository/Packs/STMicroelectronics/X-CUBE-AI/10.0.0/Utilities/windows/mingw64/bin;C:/Users/OS/STM32Cube/Repository/Packs/STMicroelectronics/X-CUBE-AI/10.0.0/Utilities/windows/mingw64/libexec/gcc/x86_64-w64-mingw32/7.3.0;;C:\ST\STM32CubeIDE_1.16.0\STM32CubeIDE\plugins\com.st.stm32cube.ide.mcu.externaltools.gnu-tools-for-stm32.13.3.rel1.win32_1.0.0.202411081344\tools\bin
2025-03-23 18:51:11,958 [INFO] CmdLine:109 - Command: C:/Users/OS/STM32Cube/Repository/Packs/STMicroelectronics/X-CUBE-AI/10.0.0/Utilities/windows/stedgeai.exe analyze --target stm32f7 --name network -m D:/transfer_learning_ptbdb_freeze.h5 --compression none --verbosity 1 --workspace C:/Users/OS/AppData/Local/Temp/mxAI_workspace2101087334080012279769663076953141 --output C:/Users/OS/.stm32cubemx/network_output
2025-03-23 18:51:11,960 [INFO] AIModelDetailledView:2372 - Analysis status: pending
2025-03-23 18:51:13,183 [INFO] CmdLine:74 - ST Edge AI Core v2.0.0-20049
2025-03-23 18:51:33,714 [INFO] CmdLine:74 - Creating c (debug) info json file C:\Users\OS\AppData\Local\Temp\mxAI_workspace2101087334080012279769663076953141\network_c_info.json
2025-03-23 18:51:33,769 [INFO] CmdLine:74 -  
2025-03-23 18:51:33,769 [INFO] CmdLine:74 -  Exec/report summary (analyze)
2025-03-23 18:51:33,769 [INFO] CmdLine:74 -  ---------------------------------------------------------------------------------------------------------
2025-03-23 18:51:33,769 [INFO] CmdLine:74 -  model file         :   D:\transfer_learning_ptbdb_freeze.h5                                              
2025-03-23 18:51:33,769 [INFO] CmdLine:74 -  type               :   keras                                                                             
2025-03-23 18:51:33,770 [INFO] CmdLine:74 -  c_name             :   network                                                                           
2025-03-23 18:51:33,770 [INFO] CmdLine:74 -  compression        :   none                                                                              
2025-03-23 18:51:33,770 [INFO] CmdLine:74 -  options            :   allocate-inputs, allocate-outputs                                                 
2025-03-23 18:51:33,770 [INFO] CmdLine:74 -  optimization       :   balanced                                                                          
2025-03-23 18:51:33,770 [INFO] CmdLine:74 -  target/series      :   stm32f7                                                                           
2025-03-23 18:51:33,771 [INFO] CmdLine:74 -  workspace dir      :   C:\Users\OS\AppData\Local\Temp\mxAI_workspace2101087334080012279769663076953141   
2025-03-23 18:51:33,771 [INFO] CmdLine:74 -  output dir         :   C:\Users\OS\.stm32cubemx\network_output                                           
2025-03-23 18:51:33,771 [INFO] CmdLine:74 -  model_fmt          :   float                                                                             
2025-03-23 18:51:33,771 [INFO] CmdLine:74 -  model_name         :   transfer_learning_ptbdb_freeze                                                    
2025-03-23 18:51:33,771 [INFO] CmdLine:74 -  model_hash         :   0x112ced8fb0ee74a75e97ba8ca400f4f5                                                
2025-03-23 18:51:33,771 [INFO] CmdLine:74 -  params #           :   254,641 items (994.69 KiB)                                                        
2025-03-23 18:51:33,771 [INFO] CmdLine:74 -  ---------------------------------------------------------------------------------------------------------
2025-03-23 18:51:33,772 [INFO] CmdLine:74 -  input 1/1          :   'input_5', f32(1x187x1), 748 Bytes, activations                                   
2025-03-23 18:51:33,772 [INFO] CmdLine:74 -  output 1/1         :   'dense_3_ptbdb', f32(1x1), 4 Bytes, activations                                   
2025-03-23 18:51:33,772 [INFO] CmdLine:74 -  macc               :   4,299,099                                                                         
2025-03-23 18:51:33,772 [INFO] CmdLine:74 -  weights (ro)       :   1,017,092 B (993.25 KiB) (1 segment) / -1,472(-0.1%) vs float model               
2025-03-23 18:51:33,772 [INFO] CmdLine:74 -  activations (rw)   :   21,504 B (21.00 KiB) (1 segment) *                                                
2025-03-23 18:51:33,772 [INFO] CmdLine:74 -  ram (total)        :   21,504 B (21.00 KiB) = 21,504 + 0 + 0                                             
2025-03-23 18:51:33,772 [INFO] CmdLine:74 -  ---------------------------------------------------------------------------------------------------------
2025-03-23 18:51:33,772 [INFO] CmdLine:74 -  (*) 'input'/'output' buffers can be used from the activations buffer
2025-03-23 18:51:33,787 [INFO] CmdLine:74 - Computing AI RT data/code size (target=stm32f7)..
2025-03-23 18:51:36,199 [INFO] CmdLine:74 -  Model name - transfer_learning_ptbdb_freeze
2025-03-23 18:51:36,200 [INFO] CmdLine:74 -  ------ -------------------------------------------------- ------------------ ----------------- ----------- -----------------------------
2025-03-23 18:51:36,200 [INFO] CmdLine:74 -  m_id   layer (original)                                   oshape             param/size               macc                  connected to
2025-03-23 18:51:36,200 [INFO] CmdLine:74 -  ------ -------------------------------------------------- ------------------ ----------------- ----------- -----------------------------
2025-03-23 18:51:36,200 [INFO] CmdLine:74 -  0      input_5 (InputLayer)                               [b:1,h:187,c:1]
2025-03-23 18:51:36,201 [INFO] CmdLine:74 -  ------ -------------------------------------------------- ------------------ ----------------- ----------- -----------------------------
2025-03-23 18:51:36,201 [INFO] CmdLine:74 -  1      conv1d_32_conv2d (Conv1D)                          [b:1,h:183,c:16]   96/384                 14,656                       input_5
2025-03-23 18:51:36,202 [INFO] CmdLine:74 -         conv1d_32 (Conv1D)                                 [b:1,h:183,c:16]                           2,928              conv1d_32_conv2d
2025-03-23 18:51:36,202 [INFO] CmdLine:74 -  ------ -------------------------------------------------- ------------------ ----------------- ----------- -----------------------------
2025-03-23 18:51:36,202 [INFO] CmdLine:74 -  2      conv1d_33_conv2d (Conv1D)                          [b:1,h:179,c:16]   1,296/5,184           229,136                     conv1d_32
2025-03-23 18:51:36,203 [INFO] CmdLine:74 -         conv1d_33 (Conv1D)                                 [b:1,h:179,c:16]                           2,864              conv1d_33_conv2d
2025-03-23 18:51:36,203 [INFO] CmdLine:74 -  ------ -------------------------------------------------- ------------------ ----------------- ----------- -----------------------------
2025-03-23 18:51:36,205 [INFO] CmdLine:74 -  3      max_pooling1d_12 (MaxPooling1D)                    [b:1,h:89,c:16]                            2,848                     conv1d_33
2025-03-23 18:51:36,206 [INFO] CmdLine:74 -  ------ -------------------------------------------------- ------------------ ----------------- ----------- -----------------------------
2025-03-23 18:51:36,206 [INFO] CmdLine:74 -  5      conv1d_34_conv2d (Conv1D)                          [b:1,h:87,c:32]    1,568/6,272           133,664              max_pooling1d_12
2025-03-23 18:51:36,207 [INFO] CmdLine:74 -         conv1d_34 (Conv1D)                                 [b:1,h:87,c:32]                            2,784              conv1d_34_conv2d
2025-03-23 18:51:36,207 [INFO] CmdLine:74 -  ------ -------------------------------------------------- ------------------ ----------------- ----------- -----------------------------
2025-03-23 18:51:36,207 [INFO] CmdLine:74 -  6      conv1d_35_conv2d (Conv1D)                          [b:1,h:85,c:32]    3,104/12,416          261,152                     conv1d_34
2025-03-23 18:51:36,207 [INFO] CmdLine:74 -         conv1d_35 (Conv1D)                                 [b:1,h:85,c:32]                            2,720              conv1d_35_conv2d
2025-03-23 18:51:36,208 [INFO] CmdLine:74 -  ------ -------------------------------------------------- ------------------ ----------------- ----------- -----------------------------
2025-03-23 18:51:36,208 [INFO] CmdLine:74 -  7      max_pooling1d_13 (MaxPooling1D)                    [b:1,h:42,c:32]                            2,688                     conv1d_35
2025-03-23 18:51:36,209 [INFO] CmdLine:74 -  ------ -------------------------------------------------- ------------------ ----------------- ----------- -----------------------------
2025-03-23 18:51:36,209 [INFO] CmdLine:74 -  9      conv1d_36_conv2d (Conv1D)                          [b:1,h:40,c:32]    3,104/12,416          122,912              max_pooling1d_13
2025-03-23 18:51:36,209 [INFO] CmdLine:74 -         conv1d_36 (Conv1D)                                 [b:1,h:40,c:32]                            1,280              conv1d_36_conv2d
2025-03-23 18:51:36,209 [INFO] CmdLine:74 -  ------ -------------------------------------------------- ------------------ ----------------- ----------- -----------------------------
2025-03-23 18:51:36,210 [INFO] CmdLine:74 -  10     conv1d_37_conv2d (Conv1D)                          [b:1,h:38,c:32]    3,104/12,416          116,768                     conv1d_36
2025-03-23 18:51:36,210 [INFO] CmdLine:74 -         conv1d_37 (Conv1D)                                 [b:1,h:38,c:32]                            1,216              conv1d_37_conv2d
2025-03-23 18:51:36,210 [INFO] CmdLine:74 -  ------ -------------------------------------------------- ------------------ ----------------- ----------- -----------------------------
2025-03-23 18:51:36,210 [INFO] CmdLine:74 -  11     max_pooling1d_14 (MaxPooling1D)                    [b:1,h:19,c:32]                            1,216                     conv1d_37
2025-03-23 18:51:36,210 [INFO] CmdLine:74 -  ------ -------------------------------------------------- ------------------ ----------------- ----------- -----------------------------
2025-03-23 18:51:36,211 [INFO] CmdLine:74 -  13     conv1d_38_conv2d (Conv1D)                          [b:1,h:17,c:256]   24,832/99,328         418,048              max_pooling1d_14
2025-03-23 18:51:36,211 [INFO] CmdLine:74 -         conv1d_38 (Conv1D)                                 [b:1,h:17,c:256]                           4,352              conv1d_38_conv2d
2025-03-23 18:51:36,211 [INFO] CmdLine:74 -  ------ -------------------------------------------------- ------------------ ----------------- ----------- -----------------------------
2025-03-23 18:51:36,211 [INFO] CmdLine:74 -  14     conv1d_39_conv2d (Conv1D)                          [b:1,h:15,c:256]   196,864/787,456     2,949,376                     conv1d_38
2025-03-23 18:51:36,212 [INFO] CmdLine:74 -         conv1d_39 (Conv1D)                                 [b:1,h:15,c:256]                           3,840              conv1d_39_conv2d
2025-03-23 18:51:36,212 [INFO] CmdLine:74 -  ------ -------------------------------------------------- ------------------ ----------------- ----------- -----------------------------
2025-03-23 18:51:36,212 [INFO] CmdLine:74 -  15     global_max_pooling1d_4_pool (GlobalMaxPooling1D)   [b:1,h:1,c:256]                            3,840                     conv1d_39
2025-03-23 18:51:36,212 [INFO] CmdLine:74 -         global_max_pooling1d_4 (GlobalMaxPooling1D)        [b:1,c:256]                                        global_max_pooling1d_4_pool
2025-03-23 18:51:36,212 [INFO] CmdLine:74 -  ------ -------------------------------------------------- ------------------ ----------------- ----------- -----------------------------
2025-03-23 18:51:36,213 [INFO] CmdLine:74 -  17     dense_1_dense (Dense)                              [b:1,c:64]         16,448/65,792          16,448        global_max_pooling1d_4
2025-03-23 18:51:36,213 [INFO] CmdLine:74 -         dense_1 (Dense)                                    [b:1,c:64]                                    64                 dense_1_dense
2025-03-23 18:51:36,213 [INFO] CmdLine:74 -  ------ -------------------------------------------------- ------------------ ----------------- ----------- -----------------------------
2025-03-23 18:51:36,213 [INFO] CmdLine:74 -  18     dense_2_dense (Dense)                              [b:1,c:64]         4,160/16,640            4,160                       dense_1
2025-03-23 18:51:36,214 [INFO] CmdLine:74 -         dense_2 (Dense)                                    [b:1,c:64]                                    64                 dense_2_dense
2025-03-23 18:51:36,214 [INFO] CmdLine:74 -  ------ -------------------------------------------------- ------------------ ----------------- ----------- -----------------------------
2025-03-23 18:51:36,214 [INFO] CmdLine:74 -  19     dense_3_ptbdb_dense (Dense)                        [b:1,c:1]          65/260                     65                       dense_2
2025-03-23 18:51:36,214 [INFO] CmdLine:74 -         dense_3_ptbdb (Dense)                              [b:1,c:1]                                     10           dense_3_ptbdb_dense
2025-03-23 18:51:36,215 [INFO] CmdLine:74 -  ------ -------------------------------------------------- ------------------ ----------------- ----------- -----------------------------
2025-03-23 18:51:36,215 [INFO] CmdLine:74 -  model: macc=4,299,099 weights=1,018,564 activations=-- io=--
2025-03-23 18:51:36,215 [INFO] CmdLine:74 -  Number of operations per c-layer
2025-03-23 18:51:36,215 [INFO] CmdLine:74 -  ------- ------ ------------------------------------ ----------- --------------
2025-03-23 18:51:36,215 [INFO] CmdLine:74 -  c_id    m_id   name (type)                                  #op           type
2025-03-23 18:51:36,215 [INFO] CmdLine:74 -  ------- ------ ------------------------------------ ----------- --------------
2025-03-23 18:51:36,215 [INFO] CmdLine:74 -  0       1      conv1d_32_conv2d (Conv2D)                 14,656   smul_f32_f32
2025-03-23 18:51:36,216 [INFO] CmdLine:74 -  1       1      conv1d_32 (Nonlinearity)                   2,928     op_f32_f32
2025-03-23 18:51:36,216 [INFO] CmdLine:74 -  2       3      conv1d_33_conv2d (Conv2D)                234,848   smul_f32_f32
2025-03-23 18:51:36,217 [INFO] CmdLine:74 -  3       5      conv1d_34_conv2d (Conv2D)                133,664   smul_f32_f32
2025-03-23 18:51:36,217 [INFO] CmdLine:74 -  4       5      conv1d_34 (Nonlinearity)                   2,784     op_f32_f32
2025-03-23 18:51:36,217 [INFO] CmdLine:74 -  5       7      conv1d_35_conv2d (Conv2D)                266,560   smul_f32_f32
2025-03-23 18:51:36,218 [INFO] CmdLine:74 -  6       9      conv1d_36_conv2d (Conv2D)                122,912   smul_f32_f32
2025-03-23 18:51:36,218 [INFO] CmdLine:74 -  7       9      conv1d_36 (Nonlinearity)                   1,280     op_f32_f32
2025-03-23 18:51:36,218 [INFO] CmdLine:74 -  8       11     conv1d_37_conv2d (Conv2D)                119,200   smul_f32_f32
2025-03-23 18:51:36,218 [INFO] CmdLine:74 -  9       13     conv1d_38_conv2d (Conv2D)                418,048   smul_f32_f32
2025-03-23 18:51:36,218 [INFO] CmdLine:74 -  10      13     conv1d_38 (Nonlinearity)                   4,352     op_f32_f32
2025-03-23 18:51:36,218 [INFO] CmdLine:74 -  11      14     conv1d_39_conv2d (Conv2D)              2,949,376   smul_f32_f32
2025-03-23 18:51:36,219 [INFO] CmdLine:74 -  12      14     conv1d_39 (Nonlinearity)                   3,840     op_f32_f32
2025-03-23 18:51:36,219 [INFO] CmdLine:74 -  13      15     global_max_pooling1d_4_pool (Pool)         3,840   smul_f32_f32
2025-03-23 18:51:36,220 [INFO] CmdLine:74 -  14      17     dense_1_dense (Dense)                     16,448   smul_f32_f32
2025-03-23 18:51:36,220 [INFO] CmdLine:74 -  15      17     dense_1 (Nonlinearity)                        64     op_f32_f32
2025-03-23 18:51:36,220 [INFO] CmdLine:74 -  16      18     dense_2_dense (Dense)                      4,160   smul_f32_f32
2025-03-23 18:51:36,221 [INFO] CmdLine:74 -  17      18     dense_2 (Nonlinearity)                        64     op_f32_f32
2025-03-23 18:51:36,221 [INFO] CmdLine:74 -  18      19     dense_3_ptbdb_dense (Dense)                   65   smul_f32_f32
2025-03-23 18:51:36,221 [INFO] CmdLine:74 -  19      19     dense_3_ptbdb (Nonlinearity)                  10     op_f32_f32
2025-03-23 18:51:36,221 [INFO] CmdLine:74 -  ------- ------ ------------------------------------ ----------- --------------
2025-03-23 18:51:36,221 [INFO] CmdLine:74 -  total                                                 4,299,099
2025-03-23 18:51:36,221 [INFO] CmdLine:74 -  Number of operation types
2025-03-23 18:51:36,221 [INFO] CmdLine:74 -  ---------------- ----------- -----------
2025-03-23 18:51:36,222 [INFO] CmdLine:74 -  operation type             #           %
2025-03-23 18:51:36,222 [INFO] CmdLine:74 -  ---------------- ----------- -----------
2025-03-23 18:51:36,222 [INFO] CmdLine:74 -  smul_f32_f32       4,283,777       99.6%
2025-03-23 18:51:36,222 [INFO] CmdLine:74 -  op_f32_f32            15,322        0.4%
2025-03-23 18:51:36,222 [INFO] CmdLine:74 -  Complexity report (model)
2025-03-23 18:51:36,222 [INFO] CmdLine:74 -  ------ ----------------------------- ------------------------- ------------------------- ----------
2025-03-23 18:51:36,222 [INFO] CmdLine:74 -  m_id   name                          c_macc                    c_rom                     c_id
2025-03-23 18:51:36,223 [INFO] CmdLine:74 -  ------ ----------------------------- ------------------------- ------------------------- ----------
2025-03-23 18:51:36,223 [INFO] CmdLine:74 -  1      conv1d_32_conv2d              |                  0.4%   |                  0.0%   [0, 1]
2025-03-23 18:51:36,223 [INFO] CmdLine:74 -  3      max_pooling1d_12              ||                 5.5%   |                  0.5%   [2]
2025-03-23 18:51:36,223 [INFO] CmdLine:74 -  5      conv1d_34_conv2d              |                  3.2%   |                  0.6%   [3, 4]
2025-03-23 18:51:36,223 [INFO] CmdLine:74 -  7      max_pooling1d_13              ||                 6.2%   |                  1.2%   [5]
2025-03-23 18:51:36,223 [INFO] CmdLine:74 -  9      conv1d_36_conv2d              |                  2.9%   |                  1.2%   [6, 7]
2025-03-23 18:51:36,224 [INFO] CmdLine:74 -  11     max_pooling1d_14              |                  2.8%   |                  1.2%   [8]
2025-03-23 18:51:36,224 [INFO] CmdLine:74 -  13     conv1d_38_conv2d              |||                9.8%   ||                 9.8%   [9, 10]
2025-03-23 18:51:36,225 [INFO] CmdLine:74 -  14     conv1d_39_conv2d              ||||||||||||||||  68.7%   ||||||||||||||||  77.4%   [11, 12]
2025-03-23 18:51:36,225 [INFO] CmdLine:74 -  15     global_max_pooling1d_4_pool   |                  0.1%   |                  0.0%   [13]
2025-03-23 18:51:36,225 [INFO] CmdLine:74 -  17     dense_1_dense                 |                  0.4%   ||                 6.5%   [14, 15]
2025-03-23 18:51:36,225 [INFO] CmdLine:74 -  18     dense_2_dense                 |                  0.1%   |                  1.6%   [16, 17]
2025-03-23 18:51:36,226 [INFO] CmdLine:74 -  19     dense_3_ptbdb_dense           |                  0.0%   |                  0.0%   [18, 19]
2025-03-23 18:51:36,226 [INFO] CmdLine:74 -  ------ ----------------------------- ------------------------- ------------------------- ----------
2025-03-23 18:51:36,226 [INFO] CmdLine:74 -  macc=4,299,099 weights=1,017,092 act=21,504 ram_io=0
2025-03-23 18:51:36,228 [INFO] CmdLine:74 -  Requested memory size by section - "stm32f7" target
2025-03-23 18:51:36,228 [INFO] CmdLine:74 -  ------------------------------ -------- ----------- ------- --------
2025-03-23 18:51:36,228 [INFO] CmdLine:74 -  module                             text      rodata    data      bss
2025-03-23 18:51:36,228 [INFO] CmdLine:74 -  ------------------------------ -------- ----------- ------- --------
2025-03-23 18:51:36,228 [INFO] CmdLine:74 -  NetworkRuntime1000_CM7_GCC.a     13,884           0       0        0
2025-03-23 18:51:36,228 [INFO] CmdLine:74 -  network.o                         1,132         160   6,272      388
2025-03-23 18:51:36,228 [INFO] CmdLine:74 -  network_data.o                       48          16      88        0
2025-03-23 18:51:36,228 [INFO] CmdLine:74 -  lib (toolchain)*                    614          24       0        0
2025-03-23 18:51:36,230 [INFO] CmdLine:74 -  ------------------------------ -------- ----------- ------- --------
2025-03-23 18:51:36,230 [INFO] CmdLine:74 -  RT total**                       15,678         200   6,360      388
2025-03-23 18:51:36,230 [INFO] CmdLine:74 -  ------------------------------ -------- ----------- ------- --------
2025-03-23 18:51:36,230 [INFO] CmdLine:74 -  weights                               0   1,017,096       0        0
2025-03-23 18:51:36,230 [INFO] CmdLine:74 -  activations                           0           0       0   21,504
2025-03-23 18:51:36,230 [INFO] CmdLine:74 -  io                                    0           0       0        0
2025-03-23 18:51:36,230 [INFO] CmdLine:74 -  ------------------------------ -------- ----------- ------- --------
2025-03-23 18:51:36,230 [INFO] CmdLine:74 -  TOTAL                            15,678   1,017,296   6,360   21,892
2025-03-23 18:51:36,232 [INFO] CmdLine:74 -  ------------------------------ -------- ----------- ------- --------
2025-03-23 18:51:36,232 [INFO] CmdLine:74 -  *  toolchain objects (libm/libgcc*)
2025-03-23 18:51:36,232 [INFO] CmdLine:74 -  ** RT AI runtime objects (kernels+infrastructure)
2025-03-23 18:51:36,232 [INFO] CmdLine:74 -   Summary - "stm32f7" target
2025-03-23 18:51:36,232 [INFO] CmdLine:74 -   --------------------------------------------------
2025-03-23 18:51:36,232 [INFO] CmdLine:74 -                FLASH (ro)     %*   RAM (rw)       %
2025-03-23 18:51:36,232 [INFO] CmdLine:74 -   --------------------------------------------------
2025-03-23 18:51:36,232 [INFO] CmdLine:74 -   RT total         22,238   2.1%      6,748   23.9%
2025-03-23 18:51:36,232 [INFO] CmdLine:74 -   --------------------------------------------------
2025-03-23 18:51:36,234 [INFO] CmdLine:74 -   TOTAL         1,039,334            28,252
2025-03-23 18:51:36,234 [INFO] CmdLine:74 -   --------------------------------------------------
2025-03-23 18:51:36,234 [INFO] CmdLine:74 -   *  rt/total
2025-03-23 18:51:36,234 [INFO] CmdLine:74 - Creating txt report file C:\Users\OS\.stm32cubemx\network_output\network_analyze_report.txt
2025-03-23 18:51:38,016 [INFO] CmdLine:74 - elapsed time (analyze): 24.833s
2025-03-23 18:51:38,492 [INFO] CmdLine:142 - stedgeai exit with status: 0
2025-03-23 18:51:38,525 [INFO] AIModelDetailledView:2707 - Analyze complete on AI model
2025-03-23 18:51:38,528 [INFO] AIModelDetailledView:2372 - Analysis status: done
2025-03-23 18:51:38,559 [ERROR] LogOutputStream:75 - [STDERR_REDIRECT] Exception in thread "AWT-EventQueue-0" java.lang.ClassCastException: class javax.swing.SwingUtilities$SharedOwnerFrame cannot be cast to class com.st.microxplorer.maingui.MainFrame (javax.swing.SwingUtilities$SharedOwnerFrame is in module java.desktop of loader 'bootstrap'; com.st.microxplorer.maingui.MainFrame is in unnamed module of loader org.eclipse.osgi.internal.loader.EquinoxClassLoader @2c678c7b)
2025-03-23 18:51:38,573 [ERROR] LogOutputStream:75 - [STDERR_REDIRECT] 	at com.st.microxplorer.plugins.ip.ai.model.AIAdvancedSettingsData.saveSettings(AIAdvancedSettingsData.java:655)
2025-03-23 18:51:38,575 [ERROR] LogOutputStream:75 - [STDERR_REDIRECT] 	at com.st.microxplorer.plugins.ip.ai.model.AIAdvancedSettingsData.cmdSaveSettings(AIAdvancedSettingsData.java:527)
2025-03-23 18:51:38,576 [ERROR] LogOutputStream:75 - [STDERR_REDIRECT] 	at com.st.microxplorer.plugins.ip.ai.gui.AIModelDetailledView.saveData(AIModelDetailledView.java:501)
2025-03-23 18:51:38,577 [ERROR] LogOutputStream:75 - [STDERR_REDIRECT] 	at com.st.microxplorer.plugins.ip.ai.gui.AIMainUI.saveModelDataNeededForGeneration(AIMainUI.java:912)
2025-03-23 18:51:38,578 [ERROR] LogOutputStream:75 - [STDERR_REDIRECT] 	at com.st.microxplorer.plugins.ip.ai.gui.AITopWindow.saveModelsData(AITopWindow.java:239)
2025-03-23 18:51:38,579 [ERROR] LogOutputStream:75 - [STDERR_REDIRECT] 	at com.st.microxplorer.plugins.ip.ai.AI.propertyChange(AI.java:1618)
2025-03-23 18:51:38,580 [ERROR] LogOutputStream:75 - [STDERR_REDIRECT] 	at java.desktop/java.beans.PropertyChangeSupport.fire(PropertyChangeSupport.java:343)
2025-03-23 18:51:38,581 [ERROR] LogOutputStream:75 - [STDERR_REDIRECT] 	at java.desktop/java.beans.PropertyChangeSupport.firePropertyChange(PropertyChangeSupport.java:335)
2025-03-23 18:51:38,582 [ERROR] LogOutputStream:75 - [STDERR_REDIRECT] 	at java.desktop/java.beans.PropertyChangeSupport.firePropertyChange(PropertyChangeSupport.java:268)
2025-03-23 18:51:38,584 [ERROR] LogOutputStream:75 - [STDERR_REDIRECT] 	at com.st.microxplorer.util.MXPropertyChangeSupport.firePropertyChange(MXPropertyChangeSupport.java:54)
2025-03-23 18:51:38,585 [ERROR] LogOutputStream:75 - [STDERR_REDIRECT] 	at com.st.microxplorer.mxsystem.MxSystem.completeSaveConfig(MxSystem.java:844)
2025-03-23 18:51:38,587 [ERROR] LogOutputStream:75 - [STDERR_REDIRECT] 	at com.st.microxplorer.plugins.filemanager.engine.SaveFileManager.saveConfiguration(SaveFileManager.java:125)
2025-03-23 18:51:38,590 [ERROR] LogOutputStream:75 - [STDERR_REDIRECT] 	at com.st.microxplorer.plugins.filemanager.engine.MainFileManager.userSaveConfig(MainFileManager.java:470)
2025-03-23 18:51:38,592 [ERROR] LogOutputStream:75 - [STDERR_REDIRECT] 	at com.st.microxplorer.plugins.filemanager.FileManagerView.getSpecificTask(FileManagerView.java:262)
2025-03-23 18:51:38,593 [ERROR] LogOutputStream:75 - [STDERR_REDIRECT] 	at com.st.stm32cube.common.mx.editor.CubeMxEditor$9.run(CubeMxEditor.java:690)
2025-03-23 18:51:38,594 [ERROR] LogOutputStream:75 - [STDERR_REDIRECT] 	at com.st.stm32cube.common.mx.oss.core.awtswtbridge.AwtEnvironment$2.run(AwtEnvironment.java:166)
2025-03-23 18:51:38,595 [ERROR] LogOutputStream:75 - [STDERR_REDIRECT] 	at java.desktop/java.awt.event.InvocationEvent.dispatch(InvocationEvent.java:318)
2025-03-23 18:51:38,596 [ERROR] LogOutputStream:75 - [STDERR_REDIRECT] 	at java.desktop/java.awt.EventQueue.dispatchEventImpl(EventQueue.java:773)
2025-03-23 18:51:38,597 [ERROR] LogOutputStream:75 - [STDERR_REDIRECT] 	at java.desktop/java.awt.EventQueue$4.run(EventQueue.java:720)
2025-03-23 18:51:38,597 [ERROR] LogOutputStream:75 - [STDERR_REDIRECT] 	at java.desktop/java.awt.EventQueue$4.run(EventQueue.java:714)
2025-03-23 18:51:38,599 [ERROR] LogOutputStream:75 - [STDERR_REDIRECT] 	at java.base/java.security.AccessController.doPrivileged(AccessController.java:399)
2025-03-23 18:51:38,600 [ERROR] LogOutputStream:75 - [STDERR_REDIRECT] 	at java.base/java.security.ProtectionDomain$JavaSecurityAccessImpl.doIntersectionPrivilege(ProtectionDomain.java:86)
2025-03-23 18:51:38,601 [ERROR] LogOutputStream:75 - [STDERR_REDIRECT] 	at java.desktop/java.awt.EventQueue.dispatchEvent(EventQueue.java:742)
2025-03-23 18:51:38,603 [ERROR] LogOutputStream:75 - [STDERR_REDIRECT] 	at java.desktop/java.awt.EventDispatchThread.pumpOneEventForFilters(EventDispatchThread.java:203)
2025-03-23 18:51:38,604 [ERROR] LogOutputStream:75 - [STDERR_REDIRECT] 	at java.desktop/java.awt.EventDispatchThread.pumpEventsForFilter(EventDispatchThread.java:124)
2025-03-23 18:51:38,605 [ERROR] LogOutputStream:75 - [STDERR_REDIRECT] 	at java.desktop/java.awt.EventDispatchThread.pumpEventsForHierarchy(EventDispatchThread.java:113)
2025-03-23 18:51:38,606 [ERROR] LogOutputStream:75 - [STDERR_REDIRECT] 	at java.desktop/java.awt.EventDispatchThread.pumpEvents(EventDispatchThread.java:109)
2025-03-23 18:51:38,607 [ERROR] LogOutputStream:75 - [STDERR_REDIRECT] 	at java.desktop/java.awt.EventDispatchThread.pumpEvents(EventDispatchThread.java:101)
2025-03-23 18:51:38,608 [ERROR] LogOutputStream:75 - [STDERR_REDIRECT] 	at java.desktop/java.awt.EventDispatchThread.run(EventDispatchThread.java:90)
2025-03-23 18:51:41,773 [ERROR] LogOutputStream:75 - [STDERR_REDIRECT] 
