2025-03-22 09:14:13,143 [INFO] Activator:176 - 


2025-03-22 09:14:13,150 [INFO] Activator:177 - !SESSION log4j initialized
2025-03-22 09:14:23,499 [INFO] LogOutputStream:77 - [STDOUT_REDIRECT] 
2025-03-22 09:14:25,937 [INFO] ApplicationProperties:184 - Using Application install path: C:\ST\STM32CubeIDE_1.16.0\STM32CubeIDE\plugins\com.st.stm32cube.common.mx_6.12.0.202406281431
2025-03-22 09:14:25,960 [INFO] DbMcusXml:78 - Set database path to: C:\ST\STM32CubeIDE_1.16.0\STM32CubeIDE\plugins\com.st.stm32cube.common.mx_6.12.0.202406281431\\db\/mcu/
2025-03-22 09:14:25,961 [INFO] ApiDb:274 - Set plugin database path to: C:\ST\STM32CubeIDE_1.16.0\STM32CubeIDE\plugins\com.st.stm32cube.common.mx_6.12.0.202406281431\\db\/plugins/boardmanager/
2025-03-22 09:14:25,961 [WARN] ApiDb:259 - Overriding images path with different value:  => C:\ST\STM32CubeIDE_1.16.0\STM32CubeIDE\plugins\com.st.stm32cube.common.mx_6.12.0.202406281431\\db\/plugins/mcufinder/images/
2025-03-22 09:14:25,982 [INFO] ApiDb:250 - Set database path to: C:\Users\OS\.stmcufinder\plugins\mcufinder//mcu/
2025-03-22 09:14:25,985 [INFO] DbMcusAds:125 - Set database path to: C:\Users\OS\.stmcufinder\plugins\mcufinder//mcu/
2025-03-22 09:14:26,583 [INFO] CrossReferenceDbSqlite:203 - Set database path to: C:\Users\OS\.stmcufinder\plugins\mcufinder//mcu/cs/
2025-03-22 09:14:26,774 [INFO] RulesReader:64 - Compatibility file has been processed (297 Rules)
2025-03-22 09:14:26,872 [INFO] DbMcusXml:78 - Set database path to: C:\ST\STM32CubeIDE_1.16.0\STM32CubeIDE\plugins\com.st.stm32cube.common.mx_6.12.0.202406281431\\db\/mcu/
2025-03-22 09:14:26,873 [INFO] ApiDb:274 - Set plugin database path to: C:\ST\STM32CubeIDE_1.16.0\STM32CubeIDE\plugins\com.st.stm32cube.common.mx_6.12.0.202406281431\\db\/plugins/boardmanager/
2025-03-22 09:14:26,873 [INFO] ApiDb:261 - Set plugin images path to: C:\ST\STM32CubeIDE_1.16.0\STM32CubeIDE\plugins\com.st.stm32cube.common.mx_6.12.0.202406281431\\db\/plugins/mcufinder/images/
2025-03-22 09:14:26,873 [WARN] DbFile:41 - Overriding database path with different value: C:\Users\OS\.stmcufinder\plugins\mcufinder/ => C:\Users\OS\.stmcufinder\plugins\mcufinder
2025-03-22 09:14:26,873 [INFO] ApiDb:250 - Set database path to: C:\Users\OS\.stmcufinder\plugins\mcufinder//mcu/
2025-03-22 09:14:26,875 [WARN] DbFile:41 - Overriding database path with different value: C:\Users\OS\.stmcufinder\plugins\mcufinder/ => C:\Users\OS\.stmcufinder\plugins\mcufinder
2025-03-22 09:14:26,875 [INFO] DbMcusAds:125 - Set database path to: C:\Users\OS\.stmcufinder\plugins\mcufinder//mcu/
2025-03-22 09:14:26,875 [WARN] DbFile:41 - Overriding database path with different value: C:\Users\OS\.stmcufinder\plugins\mcufinder/ => C:\Users\OS\.stmcufinder\plugins\mcufinder
2025-03-22 09:14:26,875 [WARN] DbFile:41 - Overriding database path with different value: C:\Users\OS\.stmcufinder\plugins\mcufinder/ => C:\Users\OS\.stmcufinder\plugins\mcufinder
2025-03-22 09:14:27,591 [INFO] CrossReferenceDbSqlite:203 - Set database path to: C:\Users\OS\.stmcufinder\plugins\mcufinder//mcu/cs/
2025-03-22 09:14:27,685 [INFO] MainPanel:268 - HeapMemory: 268435456
2025-03-22 09:14:27,800 [INFO] DbMcusXml:78 - Set database path to: C:\ST\STM32CubeIDE_1.16.0\STM32CubeIDE\plugins\com.st.stm32cube.common.mx_6.12.0.202406281431\\db\/mcu/
2025-03-22 09:14:27,800 [INFO] ApiDb:274 - Set plugin database path to: C:\ST\STM32CubeIDE_1.16.0\STM32CubeIDE\plugins\com.st.stm32cube.common.mx_6.12.0.202406281431\\db\/plugins/boardmanager/
2025-03-22 09:14:27,801 [INFO] ApiDb:261 - Set plugin images path to: C:\ST\STM32CubeIDE_1.16.0\STM32CubeIDE\plugins\com.st.stm32cube.common.mx_6.12.0.202406281431\\db\/plugins/mcufinder/images/
2025-03-22 09:14:27,801 [WARN] DbFile:41 - Overriding database path with different value: C:\Users\OS\.stmcufinder\plugins\mcufinder/ => C:\Users\OS\.stmcufinder\plugins\mcufinder
2025-03-22 09:14:27,801 [INFO] ApiDb:250 - Set database path to: C:\Users\OS\.stmcufinder\plugins\mcufinder//mcu/
2025-03-22 09:14:27,801 [WARN] DbFile:41 - Overriding database path with different value: C:\Users\OS\.stmcufinder\plugins\mcufinder/ => C:\Users\OS\.stmcufinder\plugins\mcufinder
2025-03-22 09:14:27,801 [INFO] DbMcusAds:125 - Set database path to: C:\Users\OS\.stmcufinder\plugins\mcufinder//mcu/
2025-03-22 09:14:27,801 [WARN] DbFile:41 - Overriding database path with different value: C:\Users\OS\.stmcufinder\plugins\mcufinder/ => C:\Users\OS\.stmcufinder\plugins\mcufinder
2025-03-22 09:14:27,801 [WARN] DbFile:41 - Overriding database path with different value: C:\Users\OS\.stmcufinder\plugins\mcufinder/ => C:\Users\OS\.stmcufinder\plugins\mcufinder
2025-03-22 09:14:28,589 [INFO] CrossReferenceDbSqlite:203 - Set database path to: C:\Users\OS\.stmcufinder\plugins\mcufinder//mcu/cs/
2025-03-22 09:14:28,611 [INFO] ApplicationProperties:184 - Using Application install path: C:\ST\STM32CubeIDE_1.16.0\STM32CubeIDE\plugins\com.st.stm32cube.common.mx_6.12.0.202406281431
2025-03-22 09:14:28,614 [INFO] PluginManage:196 - Search for loadable plugins [exclusion list=, ]
2025-03-22 09:14:28,617 [INFO] PluginManage:310 - Check plugin analytics
2025-03-22 09:14:29,670 [INFO] AnalyticsPlugin:253 - Accepted Software Licenses: STM32CubeMX.6.10.0
2025-03-22 09:14:29,671 [INFO] AnalyticsPlugin:255 - Accepted CMSIS Pack Licenses: STMicroelectronics.X-CUBE-AI.10.0.0
2025-03-22 09:14:29,671 [INFO] AnalyticsPlugin:257 - Accepted Firmware Licenses: FW.F4.1.28.0,FW.F7.1.17.0
2025-03-22 09:14:29,674 [INFO] PluginManage:359 - Loaded plugin analytics (category:tool,tabindex:-1)
2025-03-22 09:14:29,674 [INFO] PluginManage:310 - Check plugin cadmodel
2025-03-22 09:14:29,697 [INFO] CADModel:105 - Init CAD model plugin
2025-03-22 09:14:29,697 [INFO] PluginManage:359 - Loaded plugin cadmodel (category:power,tabindex:5)
2025-03-22 09:14:29,697 [INFO] PluginManage:310 - Check plugin clock
2025-03-22 09:14:29,719 [INFO] PluginManage:359 - Loaded plugin clock (category:base,tabindex:2)
2025-03-22 09:14:29,719 [INFO] PluginManage:310 - Check plugin ddr
2025-03-22 09:14:29,722 [INFO] PluginManage:359 - Loaded plugin ddr (category:tool,tabindex:6)
2025-03-22 09:14:29,722 [INFO] PluginManage:310 - Check plugin filemanager
2025-03-22 09:14:29,870 [INFO] PluginManage:359 - Loaded plugin filemanager (category:base,tabindex:10)
2025-03-22 09:14:29,870 [INFO] PluginManage:310 - Check plugin ipmanager
2025-03-22 09:14:29,877 [INFO] PluginManage:359 - Loaded plugin ipmanager (category:base,tabindex:5)
2025-03-22 09:14:29,877 [INFO] PluginManage:310 - Check plugin lpbam
2025-03-22 09:14:29,897 [INFO] PluginManage:359 - Loaded plugin lpbam (category:base,tabindex:0)
2025-03-22 09:14:29,897 [INFO] PluginManage:310 - Check plugin memorymap
2025-03-22 09:14:29,922 [INFO] PluginManage:359 - Loaded plugin memorymap (category:base,tabindex:4)
2025-03-22 09:14:29,922 [INFO] PluginManage:310 - Check plugin pinoutandconfiguration
2025-03-22 09:14:29,941 [INFO] PluginManage:359 - Loaded plugin pinoutandconfiguration (category:base,tabindex:1)
2025-03-22 09:14:29,941 [INFO] PluginManage:310 - Check plugin pinoutconfig
2025-03-22 09:14:30,044 [WARN] SupportedApi:132 - Cannot load RTOS API schema: s4s-elt-must-match.1: The content of 'definitions' must match (annotation?, (simpleType | complexType)?, (unique | key | keyref)*)). A problem was found starting at: attribute.
2025-03-22 09:14:30,190 [INFO] PluginManage:359 - Loaded plugin pinoutconfig (category:base,tabindex:0)
2025-03-22 09:14:30,190 [INFO] PluginManage:310 - Check plugin power
2025-03-22 09:14:30,221 [INFO] PluginManage:359 - Loaded plugin power (category:power,tabindex:4)
2025-03-22 09:14:30,221 [INFO] PluginManage:310 - Check plugin projectmanager
2025-03-22 09:14:30,241 [INFO] PluginManage:359 - Loaded plugin projectmanager (category:projectmanager,tabindex:4)
2025-03-22 09:14:30,242 [INFO] PluginManage:310 - Check plugin rif
2025-03-22 09:14:30,259 [INFO] PluginManage:359 - Loaded plugin rif (category:base,tabindex:3)
2025-03-22 09:14:30,259 [INFO] PluginManage:310 - Check plugin thirdparty
2025-03-22 09:14:30,628 [INFO] PluginManage:359 - Loaded plugin thirdparty (category:base,tabindex:-1)
2025-03-22 09:14:30,628 [WARN] IntegrityCheckThread:84 - waiting for thirdparty lock release [integrity check]
2025-03-22 09:14:30,629 [INFO] IntegrityCheckThread:86 - entering critical section [integrity check]
2025-03-22 09:14:30,629 [INFO] PluginManage:310 - Check plugin tools
2025-03-22 09:14:30,629 [INFO] ThirdPartyUpdaterWithRetryManager:70 - Updater plugin not ready yet. [1/15]
2025-03-22 09:14:30,675 [INFO] PluginManage:359 - Loaded plugin tools (category:base,tabindex:7)
2025-03-22 09:14:30,675 [INFO] PluginManage:310 - Check plugin tutovideos
2025-03-22 09:14:30,886 [INFO] PluginManage:359 - Loaded plugin tutovideos (category:base,tabindex:-1)
2025-03-22 09:14:30,886 [INFO] PluginManage:310 - Check plugin updater
2025-03-22 09:14:30,905 [INFO] PluginManage:359 - Loaded plugin updater (category:base,tabindex:12)
2025-03-22 09:14:30,905 [INFO] PluginManage:310 - Check plugin userauth
2025-03-22 09:14:30,912 [INFO] UserAuth:113 - Init User Auth plugin
2025-03-22 09:14:30,912 [INFO] PluginManage:359 - Loaded plugin userauth (category:base,tabindex:14)
2025-03-22 09:14:30,913 [INFO] PluginManage:283 - PluginManage : Loaded plugins [18]
2025-03-22 09:14:31,128 [INFO] PinOutPanel:1561 - setPackage(No Configuration,No Configuration)
2025-03-22 09:14:31,262 [INFO] CADModel:165 - CPN selected for project level
2025-03-22 09:14:31,262 [INFO] CADModel:114 - Register for checkConnection events
2025-03-22 09:14:31,295 [INFO] IPUIPlugin:80 - create IPUIPlugin
2025-03-22 09:14:31,295 [INFO] PluginManager:220 - loadIPPluginJar : add adc
2025-03-22 09:14:31,340 [INFO] IPUIPlugin:80 - create IPUIPlugin
2025-03-22 09:14:31,340 [INFO] PluginManager:220 - loadIPPluginJar : add aes
2025-03-22 09:14:31,392 [INFO] IPUIPlugin:80 - create IPUIPlugin
2025-03-22 09:14:31,392 [INFO] PluginManager:220 - loadIPPluginJar : add can
2025-03-22 09:14:31,423 [INFO] IPUIPlugin:80 - create IPUIPlugin
2025-03-22 09:14:31,423 [INFO] PluginManager:220 - loadIPPluginJar : add comp
2025-03-22 09:14:31,469 [INFO] IPUIPlugin:80 - create IPUIPlugin
2025-03-22 09:14:31,470 [INFO] PluginManager:220 - loadIPPluginJar : add cryp
2025-03-22 09:14:31,484 [INFO] IPUIPlugin:80 - create IPUIPlugin
2025-03-22 09:14:31,485 [INFO] PluginManager:220 - loadIPPluginJar : add ddr_ctrl_phy
2025-03-22 09:14:31,521 [INFO] IPUIPlugin:80 - create IPUIPlugin
2025-03-22 09:14:31,523 [INFO] PluginManager:220 - loadIPPluginJar : add dfsdm
2025-03-22 09:14:31,537 [INFO] IPUIPlugin:80 - create IPUIPlugin
2025-03-22 09:14:31,538 [INFO] PluginManager:220 - loadIPPluginJar : add dma
2025-03-22 09:14:31,594 [INFO] IPUIPlugin:80 - create IPUIPlugin
2025-03-22 09:14:31,595 [INFO] PluginManager:220 - loadIPPluginJar : add dma3
2025-03-22 09:14:31,647 [INFO] IPUIPlugin:80 - create IPUIPlugin
2025-03-22 09:14:31,647 [INFO] PluginManager:220 - loadIPPluginJar : add extmemmanager
2025-03-22 09:14:31,671 [INFO] IPUIPlugin:80 - create IPUIPlugin
2025-03-22 09:14:31,671 [INFO] PluginManager:220 - loadIPPluginJar : add fatfs
2025-03-22 09:14:31,730 [INFO] IPUIPlugin:80 - create IPUIPlugin
2025-03-22 09:14:31,730 [INFO] PluginManager:220 - loadIPPluginJar : add fmc
2025-03-22 09:14:31,745 [INFO] IPUIPlugin:80 - create IPUIPlugin
2025-03-22 09:14:31,745 [INFO] PluginManager:220 - loadIPPluginJar : add freertos
2025-03-22 09:14:31,775 [INFO] IPUIPlugin:80 - create IPUIPlugin
2025-03-22 09:14:31,775 [INFO] PluginManager:220 - loadIPPluginJar : add genericplugin
2025-03-22 09:14:31,890 [INFO] IPUIPlugin:80 - create IPUIPlugin
2025-03-22 09:14:31,890 [INFO] PluginManager:220 - loadIPPluginJar : add gfxmmu
2025-03-22 09:14:32,050 [INFO] IPUIPlugin:80 - create IPUIPlugin
2025-03-22 09:14:32,050 [INFO] PluginManager:220 - loadIPPluginJar : add gic
2025-03-22 09:14:32,064 [INFO] IPUIPlugin:80 - create IPUIPlugin
2025-03-22 09:14:32,064 [INFO] PluginManager:220 - loadIPPluginJar : add gpio
2025-03-22 09:14:32,171 [INFO] IPUIPlugin:80 - create IPUIPlugin
2025-03-22 09:14:32,184 [INFO] PluginManager:220 - loadIPPluginJar : add gtzc
2025-03-22 09:14:32,231 [INFO] IPUIPlugin:80 - create IPUIPlugin
2025-03-22 09:14:32,231 [INFO] PluginManager:220 - loadIPPluginJar : add hash
2025-03-22 09:14:32,296 [INFO] IPUIPlugin:80 - create IPUIPlugin
2025-03-22 09:14:32,296 [INFO] PluginManager:220 - loadIPPluginJar : add i2c
2025-03-22 09:14:32,343 [INFO] IPUIPlugin:80 - create IPUIPlugin
2025-03-22 09:14:32,343 [INFO] PluginManager:220 - loadIPPluginJar : add i2s
2025-03-22 09:14:32,393 [INFO] IPUIPlugin:80 - create IPUIPlugin
2025-03-22 09:14:32,394 [INFO] PluginManager:220 - loadIPPluginJar : add i3c
2025-03-22 09:14:32,518 [INFO] IPUIPlugin:80 - create IPUIPlugin
2025-03-22 09:14:32,518 [INFO] PluginManager:220 - loadIPPluginJar : add ipddr
2025-03-22 09:14:32,635 [INFO] IPUIPlugin:80 - create IPUIPlugin
2025-03-22 09:14:32,636 [INFO] PluginManager:220 - loadIPPluginJar : add linkedlist
2025-03-22 09:14:32,686 [INFO] IPUIPlugin:80 - create IPUIPlugin
2025-03-22 09:14:32,686 [INFO] PluginManager:220 - loadIPPluginJar : add lorawan
2025-03-22 09:14:32,736 [INFO] IPUIPlugin:80 - create IPUIPlugin
2025-03-22 09:14:32,736 [INFO] PluginManager:220 - loadIPPluginJar : add ltdc
2025-03-22 09:14:32,753 [INFO] IPUIPlugin:80 - create IPUIPlugin
2025-03-22 09:14:32,753 [INFO] PluginManager:220 - loadIPPluginJar : add mdma
2025-03-22 09:14:32,768 [INFO] IPUIPlugin:80 - create IPUIPlugin
2025-03-22 09:14:32,768 [INFO] PluginManager:220 - loadIPPluginJar : add nvic
2025-03-22 09:14:32,818 [INFO] IPUIPlugin:80 - create IPUIPlugin
2025-03-22 09:14:32,818 [INFO] PluginManager:220 - loadIPPluginJar : add opamp
2025-03-22 09:14:32,891 [INFO] IPUIPlugin:80 - create IPUIPlugin
2025-03-22 09:14:32,891 [INFO] PluginManager:220 - loadIPPluginJar : add openamp
2025-03-22 09:14:32,945 [INFO] IPUIPlugin:80 - create IPUIPlugin
2025-03-22 09:14:32,945 [INFO] PluginManager:220 - loadIPPluginJar : add pdm2pcm
2025-03-22 09:14:32,960 [INFO] IPUIPlugin:80 - create IPUIPlugin
2025-03-22 09:14:32,963 [INFO] PluginManager:220 - loadIPPluginJar : add plateformsettings
2025-03-22 09:14:32,992 [INFO] IPUIPlugin:80 - create IPUIPlugin
2025-03-22 09:14:32,992 [INFO] PluginManager:220 - loadIPPluginJar : add quadspi
2025-03-22 09:14:33,025 [INFO] IPUIPlugin:80 - create IPUIPlugin
2025-03-22 09:14:33,025 [INFO] PluginManager:220 - loadIPPluginJar : add radio
2025-03-22 09:14:33,042 [INFO] IPUIPlugin:80 - create IPUIPlugin
2025-03-22 09:14:33,043 [INFO] PluginManager:220 - loadIPPluginJar : add resmgrutility
2025-03-22 09:14:33,097 [INFO] IPUIPlugin:80 - create IPUIPlugin
2025-03-22 09:14:33,097 [INFO] PluginManager:220 - loadIPPluginJar : add sai
2025-03-22 09:14:33,143 [INFO] IPUIPlugin:80 - create IPUIPlugin
2025-03-22 09:14:33,143 [INFO] PluginManager:220 - loadIPPluginJar : add spi
2025-03-22 09:14:33,225 [INFO] IPUIPlugin:80 - create IPUIPlugin
2025-03-22 09:14:33,225 [INFO] PluginManager:220 - loadIPPluginJar : add stm32_wpan
2025-03-22 09:14:33,257 [INFO] IPUIPlugin:80 - create IPUIPlugin
2025-03-22 09:14:33,257 [INFO] PluginManager:220 - loadIPPluginJar : add tim
2025-03-22 09:14:33,331 [INFO] IPUIPlugin:80 - create IPUIPlugin
2025-03-22 09:14:33,332 [INFO] PluginManager:220 - loadIPPluginJar : add touchsensing
2025-03-22 09:14:33,360 [INFO] IPUIPlugin:80 - create IPUIPlugin
2025-03-22 09:14:33,360 [INFO] PluginManager:220 - loadIPPluginJar : add tracer_emb
2025-03-22 09:14:33,389 [INFO] IPUIPlugin:80 - create IPUIPlugin
2025-03-22 09:14:33,389 [INFO] PluginManager:220 - loadIPPluginJar : add ts
2025-03-22 09:14:33,417 [INFO] IPUIPlugin:80 - create IPUIPlugin
2025-03-22 09:14:33,418 [INFO] PluginManager:220 - loadIPPluginJar : add tsc
2025-03-22 09:14:33,445 [INFO] IPUIPlugin:80 - create IPUIPlugin
2025-03-22 09:14:33,445 [INFO] PluginManager:220 - loadIPPluginJar : add ucpd
2025-03-22 09:14:33,502 [INFO] IPUIPlugin:80 - create IPUIPlugin
2025-03-22 09:14:33,503 [INFO] PluginManager:220 - loadIPPluginJar : add usart
2025-03-22 09:14:33,555 [INFO] IPUIPlugin:80 - create IPUIPlugin
2025-03-22 09:14:33,555 [INFO] PluginManager:220 - loadIPPluginJar : add usbx
2025-03-22 09:14:33,632 [INFO] ThirdPartyUpdaterWithRetryManager:70 - Updater plugin not ready yet. [2/15]
2025-03-22 09:14:33,678 [INFO] CADModel:165 - CPN selected for project level
2025-03-22 09:14:33,678 [INFO] CADModel:114 - Register for checkConnection events
2025-03-22 09:14:33,678 [FATAL] Updater:334 - Updater called before beeing initialized
2025-03-22 09:14:33,678 [ERROR] CADModel:125 - Updater not yet initialized, retry later 
2025-03-22 09:14:33,845 [INFO] CADModel:165 - CPN selected for project level
2025-03-22 09:14:33,845 [INFO] CADModel:114 - Register for checkConnection events
2025-03-22 09:14:33,845 [FATAL] Updater:334 - Updater called before beeing initialized
2025-03-22 09:14:33,846 [ERROR] CADModel:125 - Updater not yet initialized, retry later 
2025-03-22 09:14:33,849 [FATAL] Updater:334 - Updater called before beeing initialized
2025-03-22 09:14:33,979 [FATAL] Updater:334 - Updater called before beeing initialized
2025-03-22 09:14:33,992 [INFO] DbMcusAds:53 - JSON generation date=Tue Dec 17 23:01:15 ICT 2024 (1734451275189)
2025-03-22 09:14:33,992 [FATAL] Updater:334 - Updater called before beeing initialized
2025-03-22 09:14:34,029 [WARN] DetailPanel:346 - Failed to get advertising image, set to default
2025-03-22 09:14:34,124 [FATAL] Updater:334 - Updater called before beeing initialized
2025-03-22 09:14:34,126 [FATAL] Updater:334 - Updater called before beeing initialized
2025-03-22 09:14:34,126 [FATAL] Updater:334 - Updater called before beeing initialized
2025-03-22 09:14:34,126 [WARN] DetailPanel:346 - Failed to get advertising image, set to default
2025-03-22 09:14:34,127 [FATAL] Updater:334 - Updater called before beeing initialized
2025-03-22 09:14:34,221 [ERROR] Updater:1164 - MainUpdater not yet initialized. External WinMGr cannot be set.
2025-03-22 09:14:34,245 [INFO] Updater:1100 - Updater Version found : 6.12.0
2025-03-22 09:14:34,264 [INFO] ApplicationProperties:184 - Using Application install path: C:\ST\STM32CubeIDE_1.16.0\STM32CubeIDE\plugins\com.st.stm32cube.common.mx_6.12.0.202406281431
2025-03-22 09:14:34,947 [INFO] MainUpdater:2873 - connection check result : 10
2025-03-22 09:14:34,949 [INFO] MainUpdater:290 - Updater Check For Update Now.
2025-03-22 09:14:34,950 [INFO] MicroXplorer:498 - Change Database Version : DB.6.0.120
2025-03-22 09:14:34,993 [INFO] McuFinderGlobals:63 - Set McuFinder mode to 2 (CubeIDE integrated)
2025-03-22 09:14:35,021 [INFO] UserAuth:417 - Internet connection configuration mode: 1
2025-03-22 09:14:35,130 [INFO] JxBrowserEngine:152 - Initiate JxBrowser Engine with user profile folder
2025-03-22 09:14:35,337 [INFO] CheckServerUpdateThread:120 - End of CheckServer Thread
2025-03-22 09:14:37,133 [WARN] PackLoader:240 - Cannot read IP mode file for STMicroelectronics.FP-SNS-MOTENVWB1.1.4.0
2025-03-22 09:14:37,163 [WARN] PackLoader:240 - Cannot read IP mode file for STMicroelectronics.FP-ATR-ASTRA1.2.0.2
2025-03-22 09:14:37,182 [WARN] PackLoader:240 - Cannot read IP mode file for STMicroelectronics.FP-ATR-ASTRA1.2.0.1
2025-03-22 09:14:37,221 [WARN] PackLoader:240 - Cannot read IP mode file for STMicroelectronics.X-CUBE-SMBUS.2.1.0
2025-03-22 09:14:37,249 [WARN] PackLoader:240 - Cannot read IP mode file for STMicroelectronics.X-CUBE-WB05N.1.1.0
2025-03-22 09:14:37,275 [WARN] PackLoader:240 - Cannot read IP mode file for STMicroelectronics.X-CUBE-TOUCHGFX.4.23.0
2025-03-22 09:14:37,302 [WARN] PackLoader:240 - Cannot read IP mode file for STMicroelectronics.X-CUBE-TOUCHGFX.4.23.2
2025-03-22 09:14:37,363 [WARN] PackLoader:240 - Cannot read IP mode file for STMicroelectronics.X-CUBE-AZRTOS-F7.1.1.0
2025-03-22 09:14:37,400 [WARN] PackLoader:240 - Cannot read IP mode file for STMicroelectronics.FP-SNS-MOTENV1.4.3.2
2025-03-22 09:14:37,530 [WARN] PackLoader:240 - Cannot read IP mode file for STMicroelectronics.X-CUBE-MEMS1.11.0.0
2025-03-22 09:14:37,879 [WARN] PackLoader:240 - Cannot read IP mode file for STMicroelectronics.FP-SNS-FLIGHT1.5.0.2
2025-03-22 09:14:37,908 [WARN] PackLoader:240 - Cannot read IP mode file for STMicroelectronics.X-CUBE-DISPLAY.3.0.0
2025-03-22 09:14:37,936 [WARN] PackLoader:240 - Cannot read IP mode file for STMicroelectronics.X-CUBE-BLE1.7.0.0
2025-03-22 09:14:37,961 [WARN] PackLoader:240 - Cannot read IP mode file for STMicroelectronics.X-CUBE-NFC10.1.0.0
2025-03-22 09:14:37,988 [WARN] PackLoader:240 - Cannot read IP mode file for STMicroelectronics.X-CUBE-BLEMGR.4.0.0
2025-03-22 09:14:38,027 [WARN] PackLoader:240 - Cannot read IP mode file for emotas.I-CUBE-CANOPEN.1.3.0
2025-03-22 09:14:38,067 [WARN] PackLoader:240 - Cannot read IP mode file for STMicroelectronics.X-CUBE-BLEMGR.3.1.0
2025-03-22 09:14:38,107 [WARN] PackLoader:240 - Cannot read IP mode file for STMicroelectronics.X-CUBE-AI.10.0.0
2025-03-22 09:14:38,241 [WARN] PackLoader:240 - Cannot read IP mode file for STMicroelectronics.FP-SNS-SMARTAG2.1.2.0
2025-03-22 09:14:38,263 [ERROR] Engine:466 - C:\Users\OS\.stm32cubemx\thirdparties\pdsc\STMicroelectronics.FP-SNS-FLIGHT1.5.1.0.pdsc: PDSC version is not supported
2025-03-22 09:14:38,423 [WARN] PackLoader:240 - Cannot read IP mode file for STMicroelectronics.X-CUBE-MEMS1.11.1.0
2025-03-22 09:14:38,866 [INFO] LogOutputStream:77 - [STDOUT_REDIRECT] 1 : Invalid condition id : UX_CORESTACK_Condition cause : null
2025-03-22 09:14:38,867 [INFO] LogOutputStream:77 - [STDOUT_REDIRECT] 1 : Invalid condition id : UX_CORESTACK_Condition cause : null
2025-03-22 09:14:38,871 [INFO] LogOutputStream:77 - [STDOUT_REDIRECT] 1 : Invalid condition id : UX_CORESTACK_Condition cause : null
2025-03-22 09:14:38,877 [INFO] LogOutputStream:77 - [STDOUT_REDIRECT] 1 : Invalid condition id : UX_CORESTACK_Condition cause : null
2025-03-22 09:14:38,879 [INFO] LogOutputStream:77 - [STDOUT_REDIRECT] 1 : Invalid condition id : UX_CORESTACK_Condition cause : null
2025-03-22 09:14:38,885 [WARN] PackLoader:240 - Cannot read IP mode file for STMicroelectronics.X-CUBE-AZRTOS-WL.2.0.0
2025-03-22 09:14:38,940 [WARN] PackLoader:240 - Cannot read IP mode file for STMicroelectronics.FP-SNS-MOTENV1.5.0.0
2025-03-22 09:14:39,241 [WARN] PackLoader:240 - Cannot read IP mode file for wolfSSL.I-CUBE-wolfMQTT.1.19.0
2025-03-22 09:14:39,289 [WARN] PackLoader:240 - Cannot read IP mode file for WES.I-CUBE-Cesium.1.3.0
2025-03-22 09:14:39,324 [WARN] PackLoader:240 - Cannot read IP mode file for STMicroelectronics.X-CUBE-BLE2.3.3.0
2025-03-22 09:14:39,370 [WARN] PackLoader:240 - Cannot read IP mode file for STMicroelectronics.X-CUBE-NFC9.1.0.0
2025-03-22 09:14:39,431 [WARN] PackLoader:240 - Cannot read IP mode file for STMicroelectronics.X-CUBE-BLE1.7.1.0
2025-03-22 09:14:39,639 [WARN] PackLoader:240 - Cannot read IP mode file for STMicroelectronics.X-CUBE-TCPP.4.1.0
2025-03-22 09:14:39,758 [INFO] WebApp:167 - Instantiating new browser for Auth
2025-03-22 09:14:39,758 [WARN] PackLoader:240 - Cannot read IP mode file for STMicroelectronics.X-CUBE-ALGOBUILD.1.3.0
2025-03-22 09:14:39,863 [WARN] PackLoader:240 - Cannot read IP mode file for STMicroelectronics.X-CUBE-AZRTOS-G0.1.1.0
2025-03-22 09:14:39,924 [WARN] PackLoader:240 - Cannot read IP mode file for STMicroelectronics.X-CUBE-SAFEA1.1.2.2
2025-03-22 09:14:39,958 [WARN] PackLoader:240 - Cannot read IP mode file for STMicroelectronics.X-CUBE-NFC4.3.0.0
2025-03-22 09:14:40,030 [WARN] PackLoader:240 - Cannot read IP mode file for wolfSSL.I-CUBE-wolfMQTT.1.18.0
2025-03-22 09:14:40,077 [WARN] PackLoader:240 - Cannot read IP mode file for EmbeddedOffice.I-CUBE-FS-RTOS.1.0.1
2025-03-22 09:14:40,077 [ERROR] ConditionMgr:805 - Attr not supported : Dmpu
2025-03-22 09:14:40,078 [ERROR] ConditionMgr:805 - Attr not supported : Dmpu
2025-03-22 09:14:40,078 [ERROR] ConditionMgr:805 - Attr not supported : Dmpu
2025-03-22 09:14:40,078 [ERROR] ConditionMgr:805 - Attr not supported : Dmpu
2025-03-22 09:14:40,078 [ERROR] ConditionMgr:805 - Attr not supported : Dmpu
2025-03-22 09:14:40,078 [ERROR] ConditionMgr:805 - Attr not supported : Dmpu
2025-03-22 09:14:40,078 [ERROR] ConditionMgr:805 - Attr not supported : Dmpu
2025-03-22 09:14:40,078 [ERROR] ConditionMgr:805 - Attr not supported : Dmpu
2025-03-22 09:14:40,078 [ERROR] ConditionMgr:805 - Attr not supported : Dmpu
2025-03-22 09:14:40,079 [ERROR] ConditionMgr:805 - Attr not supported : Dmpu
2025-03-22 09:14:40,079 [ERROR] ConditionMgr:805 - Attr not supported : Dmpu
2025-03-22 09:14:40,079 [ERROR] ConditionMgr:805 - Attr not supported : Dmpu
2025-03-22 09:14:40,079 [ERROR] ConditionMgr:805 - Attr not supported : Dmpu
2025-03-22 09:14:40,079 [ERROR] ConditionMgr:805 - Attr not supported : Dmpu
2025-03-22 09:14:40,079 [ERROR] ConditionMgr:805 - Attr not supported : Dmpu
2025-03-22 09:14:40,080 [ERROR] ConditionMgr:805 - Attr not supported : Dmpu
2025-03-22 09:14:40,080 [ERROR] ConditionMgr:805 - Attr not supported : Dmpu
2025-03-22 09:14:40,080 [ERROR] ConditionMgr:805 - Attr not supported : Dmpu
2025-03-22 09:14:40,081 [ERROR] ConditionMgr:805 - Attr not supported : Dmpu
2025-03-22 09:14:40,081 [ERROR] ConditionMgr:805 - Attr not supported : Dmpu
2025-03-22 09:14:40,081 [ERROR] ConditionMgr:805 - Attr not supported : Dmpu
2025-03-22 09:14:40,081 [ERROR] ConditionMgr:805 - Attr not supported : Dmpu
2025-03-22 09:14:40,081 [ERROR] ConditionMgr:805 - Attr not supported : Dmpu
2025-03-22 09:14:40,081 [ERROR] ConditionMgr:805 - Attr not supported : Dmpu
2025-03-22 09:14:40,081 [ERROR] ConditionMgr:805 - Attr not supported : Dmpu
2025-03-22 09:14:40,083 [ERROR] ConditionMgr:805 - Attr not supported : Dmpu
2025-03-22 09:14:40,094 [ERROR] ConditionMgr:805 - Attr not supported : Dmpu
2025-03-22 09:14:40,097 [ERROR] ConditionMgr:805 - Attr not supported : Dmpu
2025-03-22 09:14:40,098 [ERROR] ConditionMgr:805 - Attr not supported : Dmpu
2025-03-22 09:14:40,098 [ERROR] ConditionMgr:805 - Attr not supported : Dmpu
2025-03-22 09:14:40,101 [ERROR] ConditionMgr:805 - Attr not supported : Dmpu
2025-03-22 09:14:40,103 [ERROR] ConditionMgr:805 - Attr not supported : Dmpu
2025-03-22 09:14:40,103 [ERROR] ConditionMgr:805 - Attr not supported : Dmpu
2025-03-22 09:14:40,103 [ERROR] ConditionMgr:805 - Attr not supported : Dmpu
2025-03-22 09:14:40,103 [ERROR] ConditionMgr:805 - Attr not supported : Dmpu
2025-03-22 09:14:40,103 [ERROR] ConditionMgr:805 - Attr not supported : Dmpu
2025-03-22 09:14:40,104 [ERROR] ConditionMgr:805 - Attr not supported : Dmpu
2025-03-22 09:14:40,104 [ERROR] ConditionMgr:805 - Attr not supported : Dmpu
2025-03-22 09:14:40,104 [ERROR] ConditionMgr:805 - Attr not supported : Dmpu
2025-03-22 09:14:40,104 [ERROR] ConditionMgr:805 - Attr not supported : Dmpu
2025-03-22 09:14:40,104 [ERROR] ConditionMgr:805 - Attr not supported : Dmpu
2025-03-22 09:14:40,104 [ERROR] ConditionMgr:805 - Attr not supported : Dmpu
2025-03-22 09:14:40,104 [ERROR] ConditionMgr:805 - Attr not supported : Dmpu
2025-03-22 09:14:40,104 [ERROR] ConditionMgr:805 - Attr not supported : Dmpu
2025-03-22 09:14:40,104 [ERROR] ConditionMgr:805 - Attr not supported : Dmpu
2025-03-22 09:14:40,104 [ERROR] ConditionMgr:805 - Attr not supported : Dmpu
2025-03-22 09:14:40,104 [ERROR] ConditionMgr:805 - Attr not supported : Dmpu
2025-03-22 09:14:40,104 [ERROR] ConditionMgr:805 - Attr not supported : Dmpu
2025-03-22 09:14:40,104 [ERROR] ConditionMgr:805 - Attr not supported : Dmpu
2025-03-22 09:14:40,104 [ERROR] ConditionMgr:805 - Attr not supported : Dmpu
2025-03-22 09:14:40,104 [ERROR] ConditionMgr:805 - Attr not supported : Dmpu
2025-03-22 09:14:40,104 [ERROR] ConditionMgr:805 - Attr not supported : Dmpu
2025-03-22 09:14:40,104 [ERROR] ConditionMgr:805 - Attr not supported : Dmpu
2025-03-22 09:14:40,104 [ERROR] ConditionMgr:805 - Attr not supported : Dmpu
2025-03-22 09:14:40,104 [ERROR] ConditionMgr:805 - Attr not supported : Dmpu
2025-03-22 09:14:40,104 [ERROR] ConditionMgr:805 - Attr not supported : Dmpu
2025-03-22 09:14:40,105 [ERROR] ConditionMgr:805 - Attr not supported : Dmpu
2025-03-22 09:14:40,105 [ERROR] ConditionMgr:805 - Attr not supported : Dmpu
2025-03-22 09:14:40,105 [ERROR] ConditionMgr:805 - Attr not supported : Dmpu
2025-03-22 09:14:40,105 [ERROR] ConditionMgr:805 - Attr not supported : Dmpu
2025-03-22 09:14:40,105 [ERROR] ConditionMgr:805 - Attr not supported : Dmpu
2025-03-22 09:14:40,109 [ERROR] ConditionMgr:805 - Attr not supported : Dmpu
2025-03-22 09:14:40,110 [ERROR] ConditionMgr:805 - Attr not supported : Dmpu
2025-03-22 09:14:40,111 [ERROR] ConditionMgr:805 - Attr not supported : Dmpu
2025-03-22 09:14:40,157 [ERROR] Engine:466 - C:\Users\OS\.stm32cubemx\thirdparties\pdsc\STMicroelectronics.X-CUBE-TCPP.4.2.0.pdsc: PDSC version is not supported
2025-03-22 09:14:40,191 [WARN] PackLoader:240 - Cannot read IP mode file for RealThread.X-CUBE-RT-Thread_Nano.4.1.1
2025-03-22 09:14:40,257 [WARN] PackLoader:240 - Cannot read IP mode file for STMicroelectronics.FP-ATR-SIGFOX1.3.2.0
2025-03-22 09:14:40,331 [WARN] ConditionMgr:438 - getConditionDescription Invalid condition id : Cortex-A Device cause : null
2025-03-22 09:14:40,407 [WARN] ConditionMgr:1039 - genDependencies : Invalid condition id : Cortex-A Device cause : null
2025-03-22 09:14:40,408 [WARN] ConditionMgr:1039 - genDependencies : Invalid condition id : Cortex-A Device cause : null
2025-03-22 09:14:40,408 [WARN] ConditionMgr:1039 - genDependencies : Invalid condition id : Cortex-A Device cause : null
2025-03-22 09:14:40,445 [WARN] PackLoader:240 - Cannot read IP mode file for STMicroelectronics.X-CUBE-EEPRMA1.5.1.0
2025-03-22 09:14:40,599 [WARN] PackLoader:240 - Cannot read IP mode file for SEGGER.I-CUBE-embOS.1.3.1
2025-03-22 09:14:40,751 [WARN] PackLoader:240 - Cannot read IP mode file for STMicroelectronics.X-CUBE-ALGOBUILD.1.4.0
2025-03-22 09:14:40,787 [WARN] PackLoader:240 - Cannot read IP mode file for STMicroelectronics.X-CUBE-AI.9.1.0
2025-03-22 09:14:40,853 [WARN] PackLoader:240 - Cannot read IP mode file for STMicroelectronics.X-CUBE-GNSS1.6.0.0
2025-03-22 09:14:40,998 [WARN] PackLoader:240 - Cannot read IP mode file for STMicroelectronics.X-CUBE-AZRTOS-F4.1.1.0
2025-03-22 09:14:41,088 [WARN] PackLoader:240 - Cannot read IP mode file for STMicroelectronics.X-CUBE-ISPU.2.1.0
2025-03-22 09:14:41,155 [WARN] PackLoader:240 - Cannot read IP mode file for STMicroelectronics.X-CUBE-FREERTOS.1.2.0
2025-03-22 09:14:41,184 [WARN] PackLoader:240 - Cannot read IP mode file for wolfSSL.I-CUBE-wolfSSL.5.6.6
2025-03-22 09:14:41,239 [WARN] PackLoader:240 - Cannot read IP mode file for STMicroelectronics.X-CUBE-AZRTOS-L5.2.0.0
2025-03-22 09:14:41,322 [WARN] PackLoader:240 - Cannot read IP mode file for STMicroelectronics.X-CUBE-NFC6.3.1.0
2025-03-22 09:14:41,398 [WARN] PackLoader:240 - Cannot read IP mode file for ITTIA_DB.I-CUBE-ITTIADB.8.8.0
2025-03-22 09:14:41,438 [WARN] PackLoader:240 - Cannot read IP mode file for STMicroelectronics.X-CUBE-DPower.1.2.0
2025-03-22 09:14:41,501 [WARN] PackLoader:240 - Cannot read IP mode file for STMicroelectronics.X-CUBE-AI.9.0.0
2025-03-22 09:14:41,533 [WARN] PackLoader:240 - Cannot read IP mode file for STMicroelectronics.X-CUBE-FREERTOS.1.3.0
2025-03-22 09:14:41,565 [WARN] PackLoader:240 - Cannot read IP mode file for STMicroelectronics.X-CUBE-NFC7.1.0.1
2025-03-22 09:14:41,589 [WARN] PackLoader:240 - Cannot read IP mode file for wolfSSL.I-CUBE-wolfTPM.3.2.0
2025-03-22 09:14:41,611 [WARN] PackLoader:240 - Cannot read IP mode file for STMicroelectronics.X-CUBE-AI.8.1.0
2025-03-22 09:14:41,668 [WARN] ConditionMgr:438 - getConditionDescription Invalid condition id : LAN8742 Phy interface Condition cause : null
2025-03-22 09:14:41,669 [WARN] PackLoader:240 - Cannot read IP mode file for STMicroelectronics.X-CUBE-AZRTOS-L4.2.0.0
2025-03-22 09:14:41,671 [WARN] ConditionMgr:1039 - genDependencies : Invalid condition id : LAN8742 Phy interface Condition cause : null
2025-03-22 09:14:41,671 [WARN] ConditionMgr:1039 - genDependencies : Invalid condition id : LAN8742 Phy interface Condition cause : null
2025-03-22 09:14:41,673 [WARN] ConditionMgr:1039 - genDependencies : Invalid condition id : LAN8742 Phy interface Condition cause : null
2025-03-22 09:14:41,715 [WARN] PackLoader:240 - Cannot read IP mode file for STMicroelectronics.X-CUBE-SFXS2LP1.4.0.0
2025-03-22 09:14:41,773 [WARN] PackLoader:240 - Cannot read IP mode file for STMicroelectronics.X-CUBE-AZRTOS-H7.3.3.0
2025-03-22 09:14:41,819 [WARN] PackLoader:240 - Cannot read IP mode file for STMicroelectronics.X-CUBE-IPS.3.0.0
2025-03-22 09:14:41,870 [WARN] ConditionMgr:438 - getConditionDescription Invalid condition id : UX DEVICE CLASS RTOS Condition cause : null
2025-03-22 09:14:41,870 [WARN] ConditionMgr:438 - getConditionDescription Invalid condition id : UX DEVICE CLASS RTOS Condition cause : null
2025-03-22 09:14:41,873 [WARN] PackLoader:240 - Cannot read IP mode file for STMicroelectronics.X-CUBE-AZRTOS-WB.2.0.0
2025-03-22 09:14:41,874 [WARN] ConditionMgr:1039 - genDependencies : Invalid condition id : UX DEVICE CLASS RTOS Condition cause : null
2025-03-22 09:14:41,874 [WARN] ConditionMgr:1039 - genDependencies : Invalid condition id : UX DEVICE CLASS RTOS Condition cause : null
2025-03-22 09:14:41,875 [WARN] ConditionMgr:1039 - genDependencies : Invalid condition id : UX DEVICE CLASS RTOS Condition cause : null
2025-03-22 09:14:41,875 [WARN] ConditionMgr:1039 - genDependencies : Invalid condition id : UX DEVICE CLASS RTOS Condition cause : null
2025-03-22 09:14:41,875 [WARN] ConditionMgr:1039 - genDependencies : Invalid condition id : UX DEVICE CLASS RTOS Condition cause : null
2025-03-22 09:14:41,926 [WARN] PackLoader:240 - Cannot read IP mode file for STMicroelectronics.X-CUBE-GNSS1.7.0.0
2025-03-22 09:14:41,958 [WARN] PackLoader:240 - Cannot read IP mode file for STMicroelectronics.X-CUBE-GNSS1.7.0.1
2025-03-22 09:14:41,989 [WARN] PackLoader:240 - Cannot read IP mode file for STMicroelectronics.X-CUBE-TOUCHGFX.4.25.0
2025-03-22 09:14:42,015 [WARN] PackLoader:240 - Cannot read IP mode file for STMicroelectronics.FP-SNS-STBOX1.2.0.0
2025-03-22 09:14:42,053 [WARN] PackLoader:240 - Cannot read IP mode file for STMicroelectronics.X-CUBE-SUBG2.5.0.0
2025-03-22 09:14:42,104 [WARN] PackLoader:240 - Cannot read IP mode file for STMicroelectronics.X-CUBE-AZRTOS-H7RS.1.1.0
2025-03-22 09:14:42,107 [INFO] WebApp:448 - Apply proxy settings
2025-03-22 09:14:42,108 [INFO] WebApp:533 - Chromium requires no authentication
2025-03-22 09:14:42,125 [INFO] WebApp:476 - Direct internet connection detected
2025-03-22 09:14:42,133 [WARN] PackLoader:240 - Cannot read IP mode file for Cesanta.I-CUBE-Mongoose.7.13.0
2025-03-22 09:14:42,170 [WARN] PackLoader:240 - Cannot read IP mode file for STMicroelectronics.X-CUBE-AZRTOS-G4.2.0.0
2025-03-22 09:14:42,170 [INFO] WebApp:869 - Register for checkConnection events
2025-03-22 09:14:42,170 [INFO] WebApp:448 - Apply proxy settings
2025-03-22 09:14:42,171 [INFO] WebApp:533 - Chromium requires no authentication
2025-03-22 09:14:42,171 [INFO] WebApp:476 - Direct internet connection detected
2025-03-22 09:14:42,206 [WARN] PackLoader:240 - Cannot read IP mode file for Infineon.AIROC-Wi-Fi-Bluetooth-STM32.1.5.1
2025-03-22 09:14:42,231 [WARN] PackLoader:240 - Cannot read IP mode file for STMicroelectronics.FP-SNS-MOTENVWB1.1.3.1
2025-03-22 09:14:42,253 [WARN] PackLoader:240 - Cannot read IP mode file for STMicroelectronics.X-CUBE-ISPU.2.0.0
2025-03-22 09:14:42,281 [ERROR] Engine:466 - C:\Users\OS\.stm32cubemx\thirdparties\pdsc\STMicroelectronics.X-CUBE-IPS.3.1.0.pdsc: PDSC version is not supported
2025-03-22 09:14:42,307 [WARN] PackLoader:240 - Cannot read IP mode file for STMicroelectronics.X-CUBE-ALS.1.0.2
2025-03-22 09:14:42,381 [WARN] PackLoader:240 - Cannot read IP mode file for STMicroelectronics.X-CUBE-MEMS1.10.0.0
2025-03-22 09:14:42,574 [INFO] WebApp:220 - Starting web application
2025-03-22 09:14:42,574 [INFO] WebApp:578 - Web application path used C:\ST\STM32CubeIDE_1.16.0\STM32CubeIDE\plugins\com.st.stm32cube.common.mx_6.12.0.202406281431\db\plugins\mcufinder\reactClient1\index.html
2025-03-22 09:14:42,586 [WARN] PackLoader:240 - Cannot read IP mode file for STMicroelectronics.X-CUBE-FREERTOS.1.1.0
2025-03-22 09:14:42,612 [INFO] WebApp:186 - Connection restablished
2025-03-22 09:14:42,616 [WARN] PackLoader:240 - Cannot read IP mode file for STMicroelectronics.X-CUBE-TOUCHGFX.4.24.0
2025-03-22 09:14:42,640 [WARN] PackLoader:240 - Cannot read IP mode file for STMicroelectronics.X-CUBE-TOUCHGFX.4.24.2
2025-03-22 09:14:42,666 [WARN] PackLoader:240 - Cannot read IP mode file for STMicroelectronics.X-CUBE-TOUCHGFX.4.24.1
2025-03-22 09:14:42,697 [WARN] PackLoader:240 - Cannot read IP mode file for portGmbH.I-Cube-SoM-uGOAL.1.1.0
2025-03-22 09:14:42,733 [WARN] PackLoader:240 - Cannot read IP mode file for STMicroelectronics.X-CUBE-ALS.1.0.1
2025-03-22 09:14:42,801 [WARN] PackLoader:240 - Cannot read IP mode file for STMicroelectronics.X-CUBE-AZRTOS-H7RS.1.0.0
2025-03-22 09:14:42,829 [WARN] PackLoader:240 - Cannot read IP mode file for STMicroelectronics.FP-ATR-ASTRA1.2.0.0
2025-03-22 09:14:42,901 [WARN] PackLoader:240 - Cannot read IP mode file for STMicroelectronics.X-CUBE-TOF1.3.4.2
2025-03-22 09:14:42,950 [WARN] PackLoader:240 - Cannot read IP mode file for STMicroelectronics.X-CUBE-TOF1.3.4.1
2025-03-22 09:14:43,025 [WARN] PackLoader:240 - Cannot read IP mode file for STMicroelectronics.X-CUBE-AZRTOS-H7.3.2.0
2025-03-22 09:14:43,059 [WARN] PackLoader:240 - Cannot read IP mode file for wolfSSL.I-CUBE-wolfSSH.1.4.17
2025-03-22 09:14:43,060 [INFO] ThirdParty:978 - Integrity check success = true
2025-03-22 09:14:43,061 [INFO] IntegrityCheckThread:100 - exiting critical section [integrity check]
2025-03-22 09:14:43,061 [INFO] IntegrityCheckThread:103 - End integrity checks thread
2025-03-22 09:14:43,147 [INFO] UserAuth:417 - Internet connection configuration mode: 1
2025-03-22 09:14:43,910 [INFO] McuFinderGlobals:63 - Set McuFinder mode to 2 (CubeIDE integrated)
2025-03-22 09:14:43,951 [INFO] MainUpdater:2873 - connection check result : 10
2025-03-22 09:14:43,965 [INFO] MainUpdater:2873 - connection check result : 10
2025-03-22 09:14:44,272 [INFO] RulesReader:64 - Compatibility file has been processed (297 Rules)
2025-03-22 09:14:44,284 [INFO] RulesReader:64 - Compatibility file has been processed (297 Rules)
2025-03-22 09:14:44,289 [INFO] MicroXplorer:468 - Change Database Path : 
2025-03-22 09:14:44,289 [INFO] MicroXplorer:498 - Change Database Version : DB.6.0.120
2025-03-22 09:14:44,307 [WARN] ThirdParty:871 - waiting for thirdparty lock release [close project]
2025-03-22 09:14:44,308 [INFO] ThirdParty:873 - entering critical section [close project]
2025-03-22 09:14:44,309 [INFO] ThirdParty:883 - exiting critical section [close project]
2025-03-22 09:14:44,317 [INFO] PinOutPanel:1561 - setPackage(No Configuration,No Configuration)
2025-03-22 09:14:44,324 [INFO] UtilMem:75 - Begin LoadConfig() Used Memory: 173016696 Bytes (319815680)
2025-03-22 09:14:44,327 [INFO] MicroXplorer:468 - Change Database Path : 
2025-03-22 09:14:44,327 [INFO] MicroXplorer:498 - Change Database Version : DB.6.0.120
2025-03-22 09:14:44,327 [INFO] OpenFileManager:332 - Change cursor
2025-03-22 09:14:44,343 [INFO] ThirdPartyDownloadManager:103 - Found SW packSTMicroelectronics.X-CUBE-AI.10.0.0up-to-date on disk
2025-03-22 09:14:44,397 [INFO] Mcu:2032 - Initializing MCU STM32F746NGHx STM32F746NGHx STM32F746NGH6
2025-03-22 09:14:48,309 [INFO] Context:742 - Trying to add GPIOservice into a context  which must be forbidden
2025-03-22 09:14:49,145 [INFO] ApiDbMcu:508 - Load IP Config File for STMicroelectronics.X-CUBE-AI.10.0.0
2025-03-22 09:14:49,548 [INFO] RtosManager:555 - Registered RTOS mode: class=CMSIS, group=RTOS, mode=CMSIS_V1, owner=FREERTOS
2025-03-22 09:14:49,549 [INFO] RtosManager:555 - Registered RTOS mode: class=CMSIS, group=RTOS2, mode=CMSIS_V2, owner=FREERTOS
2025-03-22 09:14:49,549 [INFO] RtosManager:555 - Registered RTOS mode: class=RTOS, group=Core, mode=CMSIS_V1, owner=FREERTOS
2025-03-22 09:14:49,549 [INFO] RtosManager:555 - Registered RTOS mode: class=RTOS, group=Core, mode=CMSIS_V2, owner=FREERTOS
2025-03-22 09:14:49,549 [WARN] ModelIntegratedComponent:184 - Missing modes for component STMicroelectronics:FreeRTOS:0.0.1:STMicroelectronics:RTOS:FreeRTOS:Core:::10.2.0:
2025-03-22 09:14:49,555 [WARN] ModelIntegratedComponent:63 - No mode defined for component null
2025-03-22 09:14:49,555 [WARN] ModelIntegratedComponent:63 - No mode defined for component null
2025-03-22 09:14:49,555 [WARN] ModelIntegratedComponent:63 - No mode defined for component null
2025-03-22 09:14:49,555 [WARN] ModelIntegratedComponent:63 - No mode defined for component null
2025-03-22 09:14:49,555 [WARN] ModelIntegratedComponent:63 - No mode defined for component null
2025-03-22 09:14:49,555 [WARN] ModelIntegratedComponent:63 - No mode defined for component null
2025-03-22 09:14:49,555 [WARN] ModelIntegratedComponent:63 - No mode defined for component null
2025-03-22 09:14:49,555 [WARN] ModelIntegratedComponent:63 - No mode defined for component null
2025-03-22 09:14:49,556 [WARN] ModelIntegratedComponent:63 - No mode defined for component null
2025-03-22 09:14:49,556 [WARN] ModelIntegratedComponent:63 - No mode defined for component null
2025-03-22 09:14:49,556 [WARN] ModelIntegratedComponent:63 - No mode defined for component null
2025-03-22 09:14:49,556 [WARN] ModelIntegratedComponent:63 - No mode defined for component null
2025-03-22 09:14:49,556 [WARN] ModelIntegratedComponent:63 - No mode defined for component null
2025-03-22 09:14:49,556 [WARN] ModelIntegratedComponent:63 - No mode defined for component null
2025-03-22 09:14:49,556 [WARN] ModelIntegratedComponent:63 - No mode defined for component null
2025-03-22 09:14:49,556 [WARN] ModelIntegratedComponent:63 - No mode defined for component null
2025-03-22 09:14:49,556 [WARN] ModelIntegratedComponent:63 - No mode defined for component null
2025-03-22 09:14:49,556 [WARN] ModelIntegratedComponent:63 - No mode defined for component null
2025-03-22 09:14:49,556 [WARN] ModelIntegratedComponent:63 - No mode defined for component null
2025-03-22 09:14:49,556 [WARN] ModelIntegratedComponent:63 - No mode defined for component null
2025-03-22 09:14:49,556 [WARN] ModelIntegratedComponent:63 - No mode defined for component null
2025-03-22 09:14:49,556 [WARN] ModelIntegratedComponent:63 - No mode defined for component null
2025-03-22 09:14:49,556 [WARN] ModelIntegratedComponent:63 - No mode defined for component null
2025-03-22 09:14:49,556 [WARN] ModelIntegratedComponent:63 - No mode defined for component null
2025-03-22 09:14:49,556 [WARN] ModelIntegratedComponent:63 - No mode defined for component null
2025-03-22 09:14:49,556 [WARN] ModelIntegratedComponent:63 - No mode defined for component null
2025-03-22 09:14:49,556 [WARN] ModelIntegratedComponent:63 - No mode defined for component null
2025-03-22 09:14:49,556 [WARN] ModelIntegratedComponent:63 - No mode defined for component null
2025-03-22 09:14:49,557 [WARN] ModelIntegratedComponent:63 - No mode defined for component null
2025-03-22 09:14:49,557 [WARN] ModelIntegratedComponent:63 - No mode defined for component null
2025-03-22 09:14:49,557 [WARN] ModelIntegratedComponent:63 - No mode defined for component null
2025-03-22 09:14:49,557 [WARN] ModelIntegratedComponent:63 - No mode defined for component null
2025-03-22 09:14:49,557 [WARN] ModelIntegratedComponent:63 - No mode defined for component null
2025-03-22 09:14:49,557 [WARN] ModelIntegratedComponent:63 - No mode defined for component null
2025-03-22 09:14:49,557 [WARN] ModelIntegratedComponent:63 - No mode defined for component null
2025-03-22 09:14:49,557 [WARN] ModelPack:524 - Component already loaded: STMicroelectronics:HAL Drivers:0.0.0:STMicroelectronics:Device:STMicro_Driver:XSPI:HAL::0.0.1:HAL_XSPI
2025-03-22 09:14:49,754 [INFO] IPUIPlugin:80 - create IPUIPlugin
2025-03-22 09:14:49,777 [INFO] PluginManager:220 - loadIPPluginJar : add ai.10.0.0
2025-03-22 09:14:50,442 [INFO] Middleware:617 - instanceName : STMicroelectronics.X-CUBE-AI.10.0.0 bspName : COM Port check condition success for : !SEMDeviceJjApplicationJjApplicationTemplate
2025-03-22 09:14:50,442 [INFO] Middleware:617 - instanceName : STMicroelectronics.X-CUBE-AI.10.0.0 bspName : COM Port check condition success for : !SEMDeviceJjApplicationJjApplicationTemplate
2025-03-22 09:14:50,442 [INFO] Middleware:617 - instanceName : STMicroelectronics.X-CUBE-AI.10.0.0 bspName : COM Port check condition success for : !SEMDeviceJjApplicationJjApplicationTemplate
2025-03-22 09:14:50,458 [INFO] ThirdPartyModel:298 - Start build external matchings
2025-03-22 09:14:51,459 [INFO] ThirdPartyModel:316 - End build external matchings
2025-03-22 09:14:51,487 [INFO] ImportTextPane:205 - (OptionalMessage_ERROR) IP (RCC) : Invalid parameter (FamilyName)
2025-03-22 09:14:51,488 [INFO] ImportTextPane:205 - (OptionalMessage_ERROR) IP (RCC) : Parameter (LCDTFToutputFreq_Value) has invalid value (96000000)
2025-03-22 09:14:51,488 [INFO] ImportTextPane:205 - (OptionalMessage_ERROR) IP (RCC) : Invalid parameter (PLLMUL)
2025-03-22 09:14:51,488 [INFO] ImportTextPane:205 - (OptionalMessage_ERROR) IP (RCC) : Parameter (PLLP) has invalid value (2)
2025-03-22 09:14:51,489 [INFO] ImportTextPane:205 - (OptionalMessage_ERROR) IP (RCC) : Invalid parameter (PRESCALERUSB)
2025-03-22 09:14:51,489 [INFO] ImportTextPane:205 - (OptionalMessage_ERROR) IP (RCC) : Parameter (SDMMCFreq_Value) has invalid value (216000000)
2025-03-22 09:14:51,489 [INFO] ImportTextPane:205 - (OptionalMessage_ERROR) IP (RCC) : Invalid parameter (SYSCLKSourceVirtual)
2025-03-22 09:14:51,490 [INFO] ImportTextPane:205 - (OptionalMessage_ERROR) IP (STMicroelectronics.X-CUBE-AI.10.0.0) : Parameter (ModelName) has Id (c11b3522642c75eed0c13020aaece17b16782c5a381a7873b59b3e4f04ea4c08) currently not set
2025-03-22 09:14:51,490 [INFO] ImportTextPane:205 - (OptionalMessage_ERROR) IP (STMicroelectronics.X-CUBE-AI.10.0.0) : Parameter (ModelKind) has Id (c11b3522642c75eed0c13020aaece17b16782c5a381a7873b59b3e4f04ea4c08) currently not set
2025-03-22 09:14:51,490 [INFO] ImportTextPane:205 - (OptionalMessage_ERROR) IP (STMicroelectronics.X-CUBE-AI.10.0.0) : Parameter (ModelCompression) has Id (c11b3522642c75eed0c13020aaece17b16782c5a381a7873b59b3e4f04ea4c08) currently not set
2025-03-22 09:14:51,490 [INFO] ImportTextPane:205 - (OptionalMessage_ERROR) IP (STMicroelectronics.X-CUBE-AI.10.0.0) : Parameter (ModelType) has Id (c11b3522642c75eed0c13020aaece17b16782c5a381a7873b59b3e4f04ea4c08) currently not set
2025-03-22 09:14:51,490 [INFO] ImportTextPane:205 - (OptionalMessage_ERROR) IP (STMicroelectronics.X-CUBE-AI.10.0.0) : Invalid parameter (LatestDirectoryUsed)
2025-03-22 09:14:51,490 [INFO] ImportTextPane:205 - (OptionalMessage_ERROR) IP (STMicroelectronics.X-CUBE-AI.10.0.0) : Parameter (ModelName) has Id (fa3792fcf65903fb6a173b49f1cf7a96553e78f8217c20469db5eba39f1602ea) currently not set
2025-03-22 09:14:51,490 [INFO] ImportTextPane:205 - (OptionalMessage_ERROR) IP (STMicroelectronics.X-CUBE-AI.10.0.0) : Parameter (ModelMacc) has Id (c11b3522642c75eed0c13020aaece17b16782c5a381a7873b59b3e4f04ea4c08) currently not set
2025-03-22 09:14:51,490 [INFO] ImportTextPane:205 - (OptionalMessage_ERROR) IP (STMicroelectronics.X-CUBE-AI.10.0.0) : Parameter (ModelActualCompression) has Id (c11b3522642c75eed0c13020aaece17b16782c5a381a7873b59b3e4f04ea4c08) currently not set
2025-03-22 09:14:51,490 [INFO] ImportTextPane:205 - (OptionalMessage_ERROR) IP (STMicroelectronics.X-CUBE-AI.10.0.0) : Parameter (ModelFlashOccupation) has Id (c11b3522642c75eed0c13020aaece17b16782c5a381a7873b59b3e4f04ea4c08) currently not set
2025-03-22 09:14:51,490 [INFO] ImportTextPane:205 - (OptionalMessage_ERROR) IP (STMicroelectronics.X-CUBE-AI.10.0.0) : Parameter (ModelRamOccupation) has Id (c11b3522642c75eed0c13020aaece17b16782c5a381a7873b59b3e4f04ea4c08) currently not set
2025-03-22 09:14:51,490 [INFO] ImportTextPane:205 - (OptionalMessage_ERROR) IP (STMicroelectronics.X-CUBE-AI.10.0.0) : Parameter (ModelStructureFile) has Id (c11b3522642c75eed0c13020aaece17b16782c5a381a7873b59b3e4f04ea4c08) currently not set
2025-03-22 09:14:52,051 [INFO] ApiDb:581 - Connected to CubeFinder SQLite database (C:\Users\OS\.stmcufinder\plugins\mcufinder\mcu\cube-finder-db.db)
2025-03-22 09:14:52,121 [INFO] ApiDb:668 - CubeFinder database Data Model version=2.1
2025-03-22 09:14:52,121 [INFO] ApiDb:669 - CubeFinder database Configuration version=3.0.39
2025-03-22 09:14:52,121 [INFO] ApiDb:670 - CubeFinder database generation date=2025-02-07 (1738919966)
2025-03-22 09:14:52,121 [INFO] ApiDb:671 - CubeFinder database FW Pack versions=[FP-ATR-ASTRA1_V2.0.0, FP-SNS-FLIGHT1_V5.0.2, FP-SNS-MOTENV1_V5.0.0, FP-SNS-MOTENVWB1_V1.4.0, FP-SNS-SMARTAG2_V1.2.0, FP-SNS-STBOX1_V2.0.0, STM32Cube_FW_C0_V1.3.0, STM32Cube_FW_F4_V1.28.1, STM32Cube_FW_F7_V1.17.2, STM32Cube_FW_G0_V1.6.2, STM32Cube_FW_G4_V1.6.1, STM32Cube_FW_H5_V1.4.0, STM32Cube_FW_H7RS_V1.1.0, STM32Cube_FW_H7_V1.12.0, STM32Cube_FW_L0_V1.12.2, STM32Cube_FW_L4_V1.18.1, STM32Cube_FW_L5_V1.5.1, STM32Cube_FW_N6_V1.0.0, STM32Cube_FW_U0_V1.2.0, STM32Cube_FW_U3_V1.0.0, STM32Cube_FW_U5_V1.7.0, STM32Cube_FW_WB0_V1.1.0, STM32Cube_FW_WBA_V1.5.0, STM32Cube_FW_WB_V1.21.0, STM32Cube_FW_WL3_V1.0.0, STM32Cube_FW_WL_V1.3.0, X-CUBE-ALGOBUILD_V1.4.0, X-CUBE-ALS_V1.0.2, X-CUBE-AZRTOS-F4_V1.1.0, X-CUBE-AZRTOS-F7_V1.1.0, X-CUBE-AZRTOS-G0_V1.1.0, X-CUBE-AZRTOS-G4_V2.0.0, X-CUBE-AZRTOS-H7RS_V1.0.0, X-CUBE-AZRTOS-H7_V3.3.0, X-CUBE-AZRTOS-L4_V2.0.0, X-CUBE-AZRTOS-L5_V2.0.0, X-CUBE-AZRTOS-WB_V2.0.0, X-CUBE-AZRTOS-WL_V2.0.0, X-CUBE-BLE1_V7.0.0, X-CUBE-BLE2_V3.3.0, X-CUBE-BLEMGR_V4.0.0, X-CUBE-EEPRMA1_V5.1.0, X-CUBE-FREERTOS_V1.2.0, X-CUBE-GNSS1_V6.0.0, X-CUBE-MEMS1_V11.1.0, X-CUBE-NFC4_V3.0.0, X-CUBE-NFC7_V1.0.1, X-CUBE-SFXS2LP1_V4.0.0, X-CUBE-SUBG2_V5.0.0, X-CUBE-TOF1_V3.4.2]
2025-03-22 09:14:52,241 [INFO] DbBoardsSqlite:226 - include board P-NUCLEO-WB55-NUCLEO as a kit item of type 'Nucleo-64'
2025-03-22 09:14:52,242 [INFO] DbBoardsSqlite:226 - include board P-NUCLEO-WB55-USBDONGLE as a kit item of type 'Nucleo USB Dongle'
2025-03-22 09:14:52,243 [INFO] DbBoardsSqlite:226 - include board STEVAL-IDP005V1 as a kit item of type 'Evaluation Board'
2025-03-22 09:14:52,243 [INFO] DbBoardsSqlite:226 - include board STEVAL-IDP005V2 as a kit item of type 'Evaluation Board'
2025-03-22 09:14:52,757 [INFO] ApiDb:240 - Found 646 in-development CPN: [B-G473E-ZEST1S, B-WB1M-WPAN1, B-WL5M-SUBG1, NUCLEO-C031C6, NUCLEO-C071RB, NUCLEO-H503RB, NUCLEO-H533RE, NUCLEO-H563ZI, NUCLEO-H7S3L8, NUCLEO-U031R8, NUCLEO-U083RC, NUCLEO-U545RE-Q, NUCLEO-U5A5ZJ-Q, NUCLEO-WB05KZ, NUCLEO-WB07CC, NUCLEO-WB09KE, NUCLEO-WBA52CG, NUCLEO-WBA55CG, STEVAL-PROTEUS1, STEVAL-SMARTAG2, STEVAL-STWINBX1, STM320518-EVAL, STM32C0116-DK, STM32C011D6Y3TR, STM32C011D6Y6TR, STM32C011F4P3, STM32C011F4P6, STM32C011F4U3, STM32C011F4U6TR, STM32C011F6P3, STM32C011F6P6, STM32C011F6U3, STM32C011F6U6TR, STM32C011J4M3, STM32C011J4M6, STM32C011J6M3, STM32C011J6M6, STM32C0316-DK, STM32C031C4T3, STM32C031C4T6, STM32C031C4U3, STM32C031C4U6, STM32C031C6T3, STM32C031C6T6, STM32C031C6U3, STM32C031C6U6, STM32C031F4P3, STM32C031F4P6, STM32C031F6P3, STM32C031F6P6, STM32C031G4U3, STM32C031G4U6, STM32C031G6U3, STM32C031G6U6, STM32C031K4T3, STM32C031K4T6, STM32C031K4U3, STM32C031K4U6, STM32C031K6T3, STM32C031K6T6, STM32C031K6U3, STM32C031K6U6, STM32C071C8T6, STM32C071C8T6N, STM32C071C8U6, STM32C071C8U6N, STM32C071CBT6, STM32C071CBT6N, STM32C071CBU6, STM32C071CBU6N, STM32C071F8P6, STM32C071F8P6N, STM32C071FBP6, STM32C071FBP6N, STM32C071FBY6TR, STM32C071G8U6, STM32C071G8U6N, STM32C071GBU6, STM32C071GBU6N, STM32C071K8T6, STM32C071K8T6N, STM32C071K8U6, STM32C071K8U6N, STM32C071KBT6, STM32C071KBT6N, STM32C071KBU6, STM32C071KBU6N, STM32C071R8T6, STM32C071R8T6N, STM32C071RBI6N, STM32C071RBT6, STM32C071RBT6N, STM32G071K8TXN, STM32G071K8UXN, STM32G081GBU6N, STM32G081KBT6N, STM32G081KBUXN, STM32G0B1CCT6N, STM32G0B1KCT6, STM32G0B1NEY6TR, STM32G0B1RCT6N, STM32G0C1CCT6, STM32G0C1CCT6N, STM32G0C1CCU6N, STM32G0C1CET6N, STM32G0C1CEU6N, STM32G0C1KCT6, STM32G0C1NEY6TR, STM32G0C1RCI6N, STM32G0C1RCT6N, STM32G0C1REI6N, STM32G0C1RET6N, STM32G0C1VCI6, STM32G0C1VEI6, STM32G411C6T3, STM32G411C6T6, STM32G411C6U3, STM32G411C6U6, STM32G411C8T3, STM32G411C8T6, STM32G411C8U3, STM32G411C8U6, STM32G411CBT3, STM32G411CBT6, STM32G411CBU3, STM32G411CBU6, STM32G411K6T3, STM32G411K6T6, STM32G411K6U3, STM32G411K6U6, STM32G411K8T3, STM32G411K8T6, STM32G411K8U3, STM32G411K8U6, STM32G411KBT3, STM32G411KBT6, STM32G411KBU3, STM32G411KBU6, STM32G411M6T3, STM32G411M6T6, STM32G411M8T3, STM32G411M8T6, STM32G411MBT3, STM32G411MBT6, STM32G411R6T3, STM32G411R6T6, STM32G411R8T3, STM32G411R8T6, STM32G411RBT3, STM32G411RBT6, STM32G414CBT3, STM32G414CBT6, STM32G414CBU3, STM32G414CBU6, STM32G414CCT3, STM32G414CCT6, STM32G414CCU3, STM32G414CCU6, STM32G414MBT3, STM32G414MBT6, STM32G414MCT3, STM32G414MCT6, STM32G414RBT3, STM32G414RBT6, STM32G414RCT3, STM32G414RCT6, STM32G414VBT3, STM32G414VBT6, STM32G414VCT3, STM32G414VCT6, STM32G431CBT3Z, STM32G431RBT3Z, STM32G471CCT6, STM32G471CCU6, STM32G471CET3, STM32G471CET6, STM32G471CEU3, STM32G471CEU6, STM32G471MCT6, STM32G471MET3, STM32G471MET6, STM32G471MEY6TR, STM32G471QCT6, STM32G471QET3, STM32G471RCT6, STM32G471RET3, STM32G471RET6, STM32G471VCH6, STM32G471VCI6, STM32G471VCT6, STM32G471VEH3, STM32G471VEH6, STM32G471VEI3, STM32G471VEI6, STM32G471VET3, STM32G471VET6, STM32G473QET3Z, STM32G473RET3Z, STM32G474CCT6, STM32G491RET3Z, STM32H503CBT6, STM32H503CBU6, STM32H503EBY6TR, STM32H503KBU6, STM32H503RBT6, STM32H523CCT6, STM32H523CCU6, STM32H523CET6, STM32H523CEU6, STM32H523HEY6TR, STM32H523RCT6, STM32H523RET6, STM32H523VCI6, STM32H523VCT6, STM32H523VEI6, STM32H523VET6, STM32H523ZCJ6, STM32H523ZCT6, STM32H523ZEJ6, STM32H523ZET6, STM32H533CET6, STM32H533CEU6, STM32H533HEY6TR, STM32H533RET6, STM32H533VEI6, STM32H533VET6, STM32H533ZEJ6, STM32H533ZET6, STM32H562AGI6, STM32H562AII6, STM32H562IGK6, STM32H562IGT6, STM32H562IIK6, STM32H562IIT6, STM32H562RGT6, STM32H562RGV6, STM32H562RIT6, STM32H562RIV6, STM32H562VGT6, STM32H562VIT6, STM32H562ZGT6, STM32H562ZIT6, STM32H563AGI6, STM32H563AII3Q, STM32H563AII6, STM32H563IGK6, STM32H563IGT6, STM32H563IIK3Q, STM32H563IIK6, STM32H563IIT3Q, STM32H563IIT6, STM32H563MIY3QTR, STM32H563RGT6, STM32H563RGV6, STM32H563RIT6, STM32H563RIV6, STM32H563VGT6, STM32H563VIT3Q, STM32H563VIT6, STM32H563ZGT6, STM32H563ZIT3Q, STM32H563ZIT6, STM32H573AII3Q, STM32H573AII6, STM32H573I-DK, STM32H573IIK3Q, STM32H573IIK6, STM32H573IIT3Q, STM32H573IIT6, STM32H573MIY3QTR, STM32H573RIT6, STM32H573RIV6, STM32H573VIT3Q, STM32H573VIT6, STM32H573ZIT3Q, STM32H573ZIT6, STM32H7R3A8I6, STM32H7R3I8K6, STM32H7R3I8T6, STM32H7R3L8H6, STM32H7R3L8H6H, STM32H7R3R8V6, STM32H7R3V8H6, STM32H7R3V8T6, STM32H7R3V8Y6TR, STM32H7R3Z8J6, STM32H7R3Z8T6, STM32H7R7A8I6, STM32H7R7I8K6, STM32H7R7I8T6, STM32H7R7L8H6, STM32H7R7L8H6H, STM32H7R7Z8J6, STM32H7S3A8I6, STM32H7S3I8K6, STM32H7S3I8T6, STM32H7S3L8H6, STM32H7S3L8H6H, STM32H7S3R8V6, STM32H7S3V8H6, STM32H7S3V8T6, STM32H7S3V8Y6TR, STM32H7S3Z8J6, STM32H7S3Z8T6, STM32H7S78-DK, STM32H7S7A8I6, STM32H7S7I8K6, STM32H7S7I8T6, STM32H7S7L8H6, STM32H7S7L8H6H, STM32H7S7Z8J6, STM32L4R5QGI6STR, STM32MP131AAE3, STM32MP131AAF3, STM32MP131AAG3, STM32MP131CAE3, STM32MP131CAF3, STM32MP131CAG3, STM32MP131DAE7, STM32MP131DAF7, STM32MP131DAG7, STM32MP131FAE7, STM32MP131FAF7, STM32MP131FAG7, STM32MP133AAE3, STM32MP133AAF3, STM32MP133AAG3, STM32MP133CAE3, STM32MP133CAF3, STM32MP133CAG3, STM32MP133DAE7, STM32MP133DAF7, STM32MP133DAG7, STM32MP133FAE7, STM32MP133FAF7, STM32MP133FAG7, STM32MP135AAE3, STM32MP135AAF3, STM32MP135AAG3, STM32MP135CAE3, STM32MP135CAF3, STM32MP135CAG3, STM32MP135DAE7, STM32MP135DAF7, STM32MP135DAG7, STM32MP135F-DK, STM32MP135FAE7, STM32MP135FAF7, STM32MP135FAF7T, STM32MP135FAF7U, STM32MP135FAG7, STM32MP251AAI3, STM32MP251AAK3, STM32MP251AAL3, STM32MP251CAI3, STM32MP251CAK3, STM32MP251CAL3, STM32MP251DAI3, STM32MP251DAK3, STM32MP251DAL3, STM32MP251FAI3, STM32MP251FAK3, STM32MP251FAL3, STM32MP253AAI3, STM32MP253AAK3, STM32MP253AAL3, STM32MP253CAI3, STM32MP253CAK3, STM32MP253CAL3, STM32MP253DAI3, STM32MP253DAK3, STM32MP253DAL3, STM32MP253FAI3, STM32MP253FAK3, STM32MP253FAL3, STM32MP255AAI3, STM32MP255AAK3, STM32MP255AAL3, STM32MP255CAI3, STM32MP255CAK3, STM32MP255CAL3, STM32MP255DAI3, STM32MP255DAK3, STM32MP255DAL3, STM32MP255FAI3, STM32MP255FAK3, STM32MP255FAL3, STM32MP257AAI3, STM32MP257AAK3, STM32MP257AAL3, STM32MP257CAI3, STM32MP257CAK3, STM32MP257CAL3, STM32MP257DAI3, STM32MP257DAK3, STM32MP257DAL3, STM32MP257F-DK, STM32MP257F-EV1, STM32MP257FAI3, STM32MP257FAK3, STM32MP257FAL3, STM32U031C6T6, STM32U031C6U6, STM32U031C8T6, STM32U031C8U6, STM32U031F4P6, STM32U031F6P6, STM32U031F8P6, STM32U031G6Y6TR, STM32U031G8Y6TR, STM32U031K4U6, STM32U031K6U6, STM32U031K8U6, STM32U031R6I6, STM32U031R6T6, STM32U031R8I6, STM32U031R8T6, STM32U073C8T6, STM32U073C8U6, STM32U073CBT6, STM32U073CBU6, STM32U073CCT6, STM32U073CCU6, STM32U073H8Y6TR, STM32U073HBY6TR, STM32U073HCY6TR, STM32U073K8U6, STM32U073KBU6, STM32U073KCU6, STM32U073M8I6, STM32U073M8T6, STM32U073MBI6, STM32U073MBT6, STM32U073MCI6, STM32U073MCT6, STM32U073R8I6, STM32U073R8T6, STM32U073RBI6, STM32U073RBT6, STM32U073RCI6, STM32U073RCT6, STM32U083C-DK, STM32U083CCT6, STM32U083CCU6, STM32U083HCY6TR, STM32U083KCU6, STM32U083MCI6, STM32U083MCT6, STM32U083RCI6, STM32U083RCT6, STM32U535CBT6, STM32U535CBT6Q, STM32U535CBU6, STM32U535CBU6Q, STM32U535CCT6, STM32U535CCT6Q, STM32U535CCU6, STM32U535CCU6Q, STM32U535CET6, STM32U535CET6Q, STM32U535CEU6, STM32U535CEU6Q, STM32U535JEY6QTR, STM32U535NCY6QTR, STM32U535NEY6QTR, STM32U535RBI6, STM32U535RBI6Q, STM32U535RBT6, STM32U535RBT6Q, STM32U535RCI6, STM32U535RCI6Q, STM32U535RCT6, STM32U535RCT6Q, STM32U535REI6, STM32U535REI6Q, STM32U535RET6, STM32U535RET6Q, STM32U535VCI6, STM32U535VCI6Q, STM32U535VCT6, STM32U535VCT6Q, STM32U535VEI6, STM32U535VEI6Q, STM32U535VET6, STM32U535VET6Q, STM32U545CET6, STM32U545CET6Q, STM32U545CEU6, STM32U545CEU6Q, STM32U545JEY6QTR, STM32U545NEY6QTR, STM32U545REI6, STM32U545REI6Q, STM32U545RET6, STM32U545RET6Q, STM32U545VEI6, STM32U545VEI6Q, STM32U545VET6, STM32U545VET6Q, STM32U595AIH6, STM32U595AIH6Q, STM32U595AJH6, STM32U595AJH6Q, STM32U595QII6, STM32U595QII6Q, STM32U595QJI6, STM32U595QJI6Q, STM32U595RIT6, STM32U595RIT6Q, STM32U595RJT6, STM32U595RJT6Q, STM32U595VIT6, STM32U595VIT6Q, STM32U595VJT6, STM32U595VJT6Q, STM32U595ZIT6, STM32U595ZIT6Q, STM32U595ZIY6QTR, STM32U595ZJT6, STM32U595ZJT6Q, STM32U595ZJY6QTR, STM32U599BJY6QTR, STM32U599NIH6Q, STM32U599NJH6Q, STM32U599VIT6Q, STM32U599VJT6, STM32U599VJT6Q, STM32U599ZIT6Q, STM32U599ZIY6QTR, STM32U599ZJT6Q, STM32U599ZJY6QTR, STM32U5A5AJH6, STM32U5A5AJH6Q, STM32U5A5QII3Q , STM32U5A5QJI6, STM32U5A5QJI6Q, STM32U5A5RJT6, STM32U5A5RJT6Q, STM32U5A5VJT6, STM32U5A5VJT6Q, STM32U5A5ZJT6, STM32U5A5ZJT6Q, STM32U5A5ZJY6QTR, STM32U5A9BJY6QTR, STM32U5A9J-DK, STM32U5A9NJH6Q, STM32U5A9VJT6Q, STM32U5A9ZJT6Q, STM32U5A9ZJY6QTR, STM32U5F7VIT6, STM32U5F7VIT6Q, STM32U5F7VJT6, STM32U5F7VJT6Q, STM32U5F9BJY6QTR, STM32U5F9NJH6Q, STM32U5F9VIT6Q, STM32U5F9VJT6Q, STM32U5F9ZIJ6QTR, STM32U5F9ZIT6Q, STM32U5F9ZJJ6QTR, STM32U5F9ZJT6Q, STM32U5G7VJT6, STM32U5G7VJT6Q, STM32U5G9BJY6QTR, STM32U5G9J-DK1, STM32U5G9J-DK2, STM32U5G9NJH6Q, STM32U5G9VJT6Q, STM32U5G9ZJJ6QTR, STM32U5G9ZJT6Q, STM32WB05KZV6TR, STM32WB05KZV7TR, STM32WB05TZF6TR, STM32WB05TZF7TR, STM32WB06CCF6TR, STM32WB06CCF7TR, STM32WB06CCV6TR, STM32WB06CCV7TR, STM32WB06KCV6TR, STM32WB06KCV7TR, STM32WB07CCF6TR, STM32WB07CCF7TR, STM32WB07CCV6TR, STM32WB07CCV7TR, STM32WB07KCV6TR, STM32WB07KCV7TR, STM32WB09KEV6TR, STM32WB09KEV7TR, STM32WB09TEF6TR, STM32WB09TEF7TR, STM32WB1MMCH6, STM32WBA50KGU6, STM32WBA50KGU6TR, STM32WBA52CEU6, STM32WBA52CEU6TR, STM32WBA52CEU7, STM32WBA52CEU7TR, STM32WBA52CGU6, STM32WBA52CGU6TR, STM32WBA52CGU6U, STM32WBA52CGU7, STM32WBA52CGU7TR, STM32WBA52KEU6, STM32WBA52KEU6TR, STM32WBA52KGU6, STM32WBA52KGU6TR, STM32WBA54CEU6, STM32WBA54CEU6TR, STM32WBA54CEU7, STM32WBA54CEU7TR, STM32WBA54CGU6, STM32WBA54CGU6TR, STM32WBA54CGU7, STM32WBA54CGU7TR, STM32WBA54KEU6, STM32WBA54KEU6TR, STM32WBA54KEU7, STM32WBA54KEU7TR, STM32WBA54KGU6, STM32WBA54KGU6TR, STM32WBA54KGU7, STM32WBA54KGU7TR, STM32WBA55CEU6, STM32WBA55CEU6TR, STM32WBA55CEU7, STM32WBA55CEU7TR, STM32WBA55CGU6, STM32WBA55CGU6TR, STM32WBA55CGU6U, STM32WBA55CGU7, STM32WBA55CGU7TR, STM32WBA55G-DK1, STM32WBA55HEF6, STM32WBA55HEF7, STM32WBA55HGF6, STM32WBA55HGF7, STM32WBA55UEI6, STM32WBA55UEI6TR, STM32WBA55UEI7, STM32WBA55UEI7TR, STM32WBA55UGI6, STM32WBA55UGI6TR, STM32WBA55UGI7, STM32WBA55UGI7TR, STM32WL5MOCH6, STM32WL5MOCH6TR]
2025-03-22 09:14:52,760 [INFO] ApiDb:668 - CubeFinder database Data Model version=2.1
2025-03-22 09:14:52,760 [INFO] ApiDb:669 - CubeFinder database Configuration version=3.0.39
2025-03-22 09:14:52,761 [INFO] ApiDb:670 - CubeFinder database generation date=2025-02-07 (1738919966)
2025-03-22 09:14:52,761 [INFO] ApiDb:671 - CubeFinder database FW Pack versions=[FP-ATR-ASTRA1_V2.0.0, FP-SNS-FLIGHT1_V5.0.2, FP-SNS-MOTENV1_V5.0.0, FP-SNS-MOTENVWB1_V1.4.0, FP-SNS-SMARTAG2_V1.2.0, FP-SNS-STBOX1_V2.0.0, STM32Cube_FW_C0_V1.3.0, STM32Cube_FW_F4_V1.28.1, STM32Cube_FW_F7_V1.17.2, STM32Cube_FW_G0_V1.6.2, STM32Cube_FW_G4_V1.6.1, STM32Cube_FW_H5_V1.4.0, STM32Cube_FW_H7RS_V1.1.0, STM32Cube_FW_H7_V1.12.0, STM32Cube_FW_L0_V1.12.2, STM32Cube_FW_L4_V1.18.1, STM32Cube_FW_L5_V1.5.1, STM32Cube_FW_N6_V1.0.0, STM32Cube_FW_U0_V1.2.0, STM32Cube_FW_U3_V1.0.0, STM32Cube_FW_U5_V1.7.0, STM32Cube_FW_WB0_V1.1.0, STM32Cube_FW_WBA_V1.5.0, STM32Cube_FW_WB_V1.21.0, STM32Cube_FW_WL3_V1.0.0, STM32Cube_FW_WL_V1.3.0, X-CUBE-ALGOBUILD_V1.4.0, X-CUBE-ALS_V1.0.2, X-CUBE-AZRTOS-F4_V1.1.0, X-CUBE-AZRTOS-F7_V1.1.0, X-CUBE-AZRTOS-G0_V1.1.0, X-CUBE-AZRTOS-G4_V2.0.0, X-CUBE-AZRTOS-H7RS_V1.0.0, X-CUBE-AZRTOS-H7_V3.3.0, X-CUBE-AZRTOS-L4_V2.0.0, X-CUBE-AZRTOS-L5_V2.0.0, X-CUBE-AZRTOS-WB_V2.0.0, X-CUBE-AZRTOS-WL_V2.0.0, X-CUBE-BLE1_V7.0.0, X-CUBE-BLE2_V3.3.0, X-CUBE-BLEMGR_V4.0.0, X-CUBE-EEPRMA1_V5.1.0, X-CUBE-FREERTOS_V1.2.0, X-CUBE-GNSS1_V6.0.0, X-CUBE-MEMS1_V11.1.0, X-CUBE-NFC4_V3.0.0, X-CUBE-NFC7_V1.0.1, X-CUBE-SFXS2LP1_V4.0.0, X-CUBE-SUBG2_V5.0.0, X-CUBE-TOF1_V3.4.2]
2025-03-22 09:14:54,609 [INFO] ApiDb:240 - Found 646 in-development CPN: [B-G473E-ZEST1S, B-WB1M-WPAN1, B-WL5M-SUBG1, NUCLEO-C031C6, NUCLEO-C071RB, NUCLEO-H503RB, NUCLEO-H533RE, NUCLEO-H563ZI, NUCLEO-H7S3L8, NUCLEO-U031R8, NUCLEO-U083RC, NUCLEO-U545RE-Q, NUCLEO-U5A5ZJ-Q, NUCLEO-WB05KZ, NUCLEO-WB07CC, NUCLEO-WB09KE, NUCLEO-WBA52CG, NUCLEO-WBA55CG, STEVAL-PROTEUS1, STEVAL-SMARTAG2, STEVAL-STWINBX1, STM320518-EVAL, STM32C0116-DK, STM32C011D6Y3TR, STM32C011D6Y6TR, STM32C011F4P3, STM32C011F4P6, STM32C011F4U3, STM32C011F4U6TR, STM32C011F6P3, STM32C011F6P6, STM32C011F6U3, STM32C011F6U6TR, STM32C011J4M3, STM32C011J4M6, STM32C011J6M3, STM32C011J6M6, STM32C0316-DK, STM32C031C4T3, STM32C031C4T6, STM32C031C4U3, STM32C031C4U6, STM32C031C6T3, STM32C031C6T6, STM32C031C6U3, STM32C031C6U6, STM32C031F4P3, STM32C031F4P6, STM32C031F6P3, STM32C031F6P6, STM32C031G4U3, STM32C031G4U6, STM32C031G6U3, STM32C031G6U6, STM32C031K4T3, STM32C031K4T6, STM32C031K4U3, STM32C031K4U6, STM32C031K6T3, STM32C031K6T6, STM32C031K6U3, STM32C031K6U6, STM32C071C8T6, STM32C071C8T6N, STM32C071C8U6, STM32C071C8U6N, STM32C071CBT6, STM32C071CBT6N, STM32C071CBU6, STM32C071CBU6N, STM32C071F8P6, STM32C071F8P6N, STM32C071FBP6, STM32C071FBP6N, STM32C071FBY6TR, STM32C071G8U6, STM32C071G8U6N, STM32C071GBU6, STM32C071GBU6N, STM32C071K8T6, STM32C071K8T6N, STM32C071K8U6, STM32C071K8U6N, STM32C071KBT6, STM32C071KBT6N, STM32C071KBU6, STM32C071KBU6N, STM32C071R8T6, STM32C071R8T6N, STM32C071RBI6N, STM32C071RBT6, STM32C071RBT6N, STM32G071K8TXN, STM32G071K8UXN, STM32G081GBU6N, STM32G081KBT6N, STM32G081KBUXN, STM32G0B1CCT6N, STM32G0B1KCT6, STM32G0B1NEY6TR, STM32G0B1RCT6N, STM32G0C1CCT6, STM32G0C1CCT6N, STM32G0C1CCU6N, STM32G0C1CET6N, STM32G0C1CEU6N, STM32G0C1KCT6, STM32G0C1NEY6TR, STM32G0C1RCI6N, STM32G0C1RCT6N, STM32G0C1REI6N, STM32G0C1RET6N, STM32G0C1VCI6, STM32G0C1VEI6, STM32G411C6T3, STM32G411C6T6, STM32G411C6U3, STM32G411C6U6, STM32G411C8T3, STM32G411C8T6, STM32G411C8U3, STM32G411C8U6, STM32G411CBT3, STM32G411CBT6, STM32G411CBU3, STM32G411CBU6, STM32G411K6T3, STM32G411K6T6, STM32G411K6U3, STM32G411K6U6, STM32G411K8T3, STM32G411K8T6, STM32G411K8U3, STM32G411K8U6, STM32G411KBT3, STM32G411KBT6, STM32G411KBU3, STM32G411KBU6, STM32G411M6T3, STM32G411M6T6, STM32G411M8T3, STM32G411M8T6, STM32G411MBT3, STM32G411MBT6, STM32G411R6T3, STM32G411R6T6, STM32G411R8T3, STM32G411R8T6, STM32G411RBT3, STM32G411RBT6, STM32G414CBT3, STM32G414CBT6, STM32G414CBU3, STM32G414CBU6, STM32G414CCT3, STM32G414CCT6, STM32G414CCU3, STM32G414CCU6, STM32G414MBT3, STM32G414MBT6, STM32G414MCT3, STM32G414MCT6, STM32G414RBT3, STM32G414RBT6, STM32G414RCT3, STM32G414RCT6, STM32G414VBT3, STM32G414VBT6, STM32G414VCT3, STM32G414VCT6, STM32G431CBT3Z, STM32G431RBT3Z, STM32G471CCT6, STM32G471CCU6, STM32G471CET3, STM32G471CET6, STM32G471CEU3, STM32G471CEU6, STM32G471MCT6, STM32G471MET3, STM32G471MET6, STM32G471MEY6TR, STM32G471QCT6, STM32G471QET3, STM32G471RCT6, STM32G471RET3, STM32G471RET6, STM32G471VCH6, STM32G471VCI6, STM32G471VCT6, STM32G471VEH3, STM32G471VEH6, STM32G471VEI3, STM32G471VEI6, STM32G471VET3, STM32G471VET6, STM32G473QET3Z, STM32G473RET3Z, STM32G474CCT6, STM32G491RET3Z, STM32H503CBT6, STM32H503CBU6, STM32H503EBY6TR, STM32H503KBU6, STM32H503RBT6, STM32H523CCT6, STM32H523CCU6, STM32H523CET6, STM32H523CEU6, STM32H523HEY6TR, STM32H523RCT6, STM32H523RET6, STM32H523VCI6, STM32H523VCT6, STM32H523VEI6, STM32H523VET6, STM32H523ZCJ6, STM32H523ZCT6, STM32H523ZEJ6, STM32H523ZET6, STM32H533CET6, STM32H533CEU6, STM32H533HEY6TR, STM32H533RET6, STM32H533VEI6, STM32H533VET6, STM32H533ZEJ6, STM32H533ZET6, STM32H562AGI6, STM32H562AII6, STM32H562IGK6, STM32H562IGT6, STM32H562IIK6, STM32H562IIT6, STM32H562RGT6, STM32H562RGV6, STM32H562RIT6, STM32H562RIV6, STM32H562VGT6, STM32H562VIT6, STM32H562ZGT6, STM32H562ZIT6, STM32H563AGI6, STM32H563AII3Q, STM32H563AII6, STM32H563IGK6, STM32H563IGT6, STM32H563IIK3Q, STM32H563IIK6, STM32H563IIT3Q, STM32H563IIT6, STM32H563MIY3QTR, STM32H563RGT6, STM32H563RGV6, STM32H563RIT6, STM32H563RIV6, STM32H563VGT6, STM32H563VIT3Q, STM32H563VIT6, STM32H563ZGT6, STM32H563ZIT3Q, STM32H563ZIT6, STM32H573AII3Q, STM32H573AII6, STM32H573I-DK, STM32H573IIK3Q, STM32H573IIK6, STM32H573IIT3Q, STM32H573IIT6, STM32H573MIY3QTR, STM32H573RIT6, STM32H573RIV6, STM32H573VIT3Q, STM32H573VIT6, STM32H573ZIT3Q, STM32H573ZIT6, STM32H7R3A8I6, STM32H7R3I8K6, STM32H7R3I8T6, STM32H7R3L8H6, STM32H7R3L8H6H, STM32H7R3R8V6, STM32H7R3V8H6, STM32H7R3V8T6, STM32H7R3V8Y6TR, STM32H7R3Z8J6, STM32H7R3Z8T6, STM32H7R7A8I6, STM32H7R7I8K6, STM32H7R7I8T6, STM32H7R7L8H6, STM32H7R7L8H6H, STM32H7R7Z8J6, STM32H7S3A8I6, STM32H7S3I8K6, STM32H7S3I8T6, STM32H7S3L8H6, STM32H7S3L8H6H, STM32H7S3R8V6, STM32H7S3V8H6, STM32H7S3V8T6, STM32H7S3V8Y6TR, STM32H7S3Z8J6, STM32H7S3Z8T6, STM32H7S78-DK, STM32H7S7A8I6, STM32H7S7I8K6, STM32H7S7I8T6, STM32H7S7L8H6, STM32H7S7L8H6H, STM32H7S7Z8J6, STM32L4R5QGI6STR, STM32MP131AAE3, STM32MP131AAF3, STM32MP131AAG3, STM32MP131CAE3, STM32MP131CAF3, STM32MP131CAG3, STM32MP131DAE7, STM32MP131DAF7, STM32MP131DAG7, STM32MP131FAE7, STM32MP131FAF7, STM32MP131FAG7, STM32MP133AAE3, STM32MP133AAF3, STM32MP133AAG3, STM32MP133CAE3, STM32MP133CAF3, STM32MP133CAG3, STM32MP133DAE7, STM32MP133DAF7, STM32MP133DAG7, STM32MP133FAE7, STM32MP133FAF7, STM32MP133FAG7, STM32MP135AAE3, STM32MP135AAF3, STM32MP135AAG3, STM32MP135CAE3, STM32MP135CAF3, STM32MP135CAG3, STM32MP135DAE7, STM32MP135DAF7, STM32MP135DAG7, STM32MP135F-DK, STM32MP135FAE7, STM32MP135FAF7, STM32MP135FAF7T, STM32MP135FAF7U, STM32MP135FAG7, STM32MP251AAI3, STM32MP251AAK3, STM32MP251AAL3, STM32MP251CAI3, STM32MP251CAK3, STM32MP251CAL3, STM32MP251DAI3, STM32MP251DAK3, STM32MP251DAL3, STM32MP251FAI3, STM32MP251FAK3, STM32MP251FAL3, STM32MP253AAI3, STM32MP253AAK3, STM32MP253AAL3, STM32MP253CAI3, STM32MP253CAK3, STM32MP253CAL3, STM32MP253DAI3, STM32MP253DAK3, STM32MP253DAL3, STM32MP253FAI3, STM32MP253FAK3, STM32MP253FAL3, STM32MP255AAI3, STM32MP255AAK3, STM32MP255AAL3, STM32MP255CAI3, STM32MP255CAK3, STM32MP255CAL3, STM32MP255DAI3, STM32MP255DAK3, STM32MP255DAL3, STM32MP255FAI3, STM32MP255FAK3, STM32MP255FAL3, STM32MP257AAI3, STM32MP257AAK3, STM32MP257AAL3, STM32MP257CAI3, STM32MP257CAK3, STM32MP257CAL3, STM32MP257DAI3, STM32MP257DAK3, STM32MP257DAL3, STM32MP257F-DK, STM32MP257F-EV1, STM32MP257FAI3, STM32MP257FAK3, STM32MP257FAL3, STM32U031C6T6, STM32U031C6U6, STM32U031C8T6, STM32U031C8U6, STM32U031F4P6, STM32U031F6P6, STM32U031F8P6, STM32U031G6Y6TR, STM32U031G8Y6TR, STM32U031K4U6, STM32U031K6U6, STM32U031K8U6, STM32U031R6I6, STM32U031R6T6, STM32U031R8I6, STM32U031R8T6, STM32U073C8T6, STM32U073C8U6, STM32U073CBT6, STM32U073CBU6, STM32U073CCT6, STM32U073CCU6, STM32U073H8Y6TR, STM32U073HBY6TR, STM32U073HCY6TR, STM32U073K8U6, STM32U073KBU6, STM32U073KCU6, STM32U073M8I6, STM32U073M8T6, STM32U073MBI6, STM32U073MBT6, STM32U073MCI6, STM32U073MCT6, STM32U073R8I6, STM32U073R8T6, STM32U073RBI6, STM32U073RBT6, STM32U073RCI6, STM32U073RCT6, STM32U083C-DK, STM32U083CCT6, STM32U083CCU6, STM32U083HCY6TR, STM32U083KCU6, STM32U083MCI6, STM32U083MCT6, STM32U083RCI6, STM32U083RCT6, STM32U535CBT6, STM32U535CBT6Q, STM32U535CBU6, STM32U535CBU6Q, STM32U535CCT6, STM32U535CCT6Q, STM32U535CCU6, STM32U535CCU6Q, STM32U535CET6, STM32U535CET6Q, STM32U535CEU6, STM32U535CEU6Q, STM32U535JEY6QTR, STM32U535NCY6QTR, STM32U535NEY6QTR, STM32U535RBI6, STM32U535RBI6Q, STM32U535RBT6, STM32U535RBT6Q, STM32U535RCI6, STM32U535RCI6Q, STM32U535RCT6, STM32U535RCT6Q, STM32U535REI6, STM32U535REI6Q, STM32U535RET6, STM32U535RET6Q, STM32U535VCI6, STM32U535VCI6Q, STM32U535VCT6, STM32U535VCT6Q, STM32U535VEI6, STM32U535VEI6Q, STM32U535VET6, STM32U535VET6Q, STM32U545CET6, STM32U545CET6Q, STM32U545CEU6, STM32U545CEU6Q, STM32U545JEY6QTR, STM32U545NEY6QTR, STM32U545REI6, STM32U545REI6Q, STM32U545RET6, STM32U545RET6Q, STM32U545VEI6, STM32U545VEI6Q, STM32U545VET6, STM32U545VET6Q, STM32U595AIH6, STM32U595AIH6Q, STM32U595AJH6, STM32U595AJH6Q, STM32U595QII6, STM32U595QII6Q, STM32U595QJI6, STM32U595QJI6Q, STM32U595RIT6, STM32U595RIT6Q, STM32U595RJT6, STM32U595RJT6Q, STM32U595VIT6, STM32U595VIT6Q, STM32U595VJT6, STM32U595VJT6Q, STM32U595ZIT6, STM32U595ZIT6Q, STM32U595ZIY6QTR, STM32U595ZJT6, STM32U595ZJT6Q, STM32U595ZJY6QTR, STM32U599BJY6QTR, STM32U599NIH6Q, STM32U599NJH6Q, STM32U599VIT6Q, STM32U599VJT6, STM32U599VJT6Q, STM32U599ZIT6Q, STM32U599ZIY6QTR, STM32U599ZJT6Q, STM32U599ZJY6QTR, STM32U5A5AJH6, STM32U5A5AJH6Q, STM32U5A5QII3Q , STM32U5A5QJI6, STM32U5A5QJI6Q, STM32U5A5RJT6, STM32U5A5RJT6Q, STM32U5A5VJT6, STM32U5A5VJT6Q, STM32U5A5ZJT6, STM32U5A5ZJT6Q, STM32U5A5ZJY6QTR, STM32U5A9BJY6QTR, STM32U5A9J-DK, STM32U5A9NJH6Q, STM32U5A9VJT6Q, STM32U5A9ZJT6Q, STM32U5A9ZJY6QTR, STM32U5F7VIT6, STM32U5F7VIT6Q, STM32U5F7VJT6, STM32U5F7VJT6Q, STM32U5F9BJY6QTR, STM32U5F9NJH6Q, STM32U5F9VIT6Q, STM32U5F9VJT6Q, STM32U5F9ZIJ6QTR, STM32U5F9ZIT6Q, STM32U5F9ZJJ6QTR, STM32U5F9ZJT6Q, STM32U5G7VJT6, STM32U5G7VJT6Q, STM32U5G9BJY6QTR, STM32U5G9J-DK1, STM32U5G9J-DK2, STM32U5G9NJH6Q, STM32U5G9VJT6Q, STM32U5G9ZJJ6QTR, STM32U5G9ZJT6Q, STM32WB05KZV6TR, STM32WB05KZV7TR, STM32WB05TZF6TR, STM32WB05TZF7TR, STM32WB06CCF6TR, STM32WB06CCF7TR, STM32WB06CCV6TR, STM32WB06CCV7TR, STM32WB06KCV6TR, STM32WB06KCV7TR, STM32WB07CCF6TR, STM32WB07CCF7TR, STM32WB07CCV6TR, STM32WB07CCV7TR, STM32WB07KCV6TR, STM32WB07KCV7TR, STM32WB09KEV6TR, STM32WB09KEV7TR, STM32WB09TEF6TR, STM32WB09TEF7TR, STM32WB1MMCH6, STM32WBA50KGU6, STM32WBA50KGU6TR, STM32WBA52CEU6, STM32WBA52CEU6TR, STM32WBA52CEU7, STM32WBA52CEU7TR, STM32WBA52CGU6, STM32WBA52CGU6TR, STM32WBA52CGU6U, STM32WBA52CGU7, STM32WBA52CGU7TR, STM32WBA52KEU6, STM32WBA52KEU6TR, STM32WBA52KGU6, STM32WBA52KGU6TR, STM32WBA54CEU6, STM32WBA54CEU6TR, STM32WBA54CEU7, STM32WBA54CEU7TR, STM32WBA54CGU6, STM32WBA54CGU6TR, STM32WBA54CGU7, STM32WBA54CGU7TR, STM32WBA54KEU6, STM32WBA54KEU6TR, STM32WBA54KEU7, STM32WBA54KEU7TR, STM32WBA54KGU6, STM32WBA54KGU6TR, STM32WBA54KGU7, STM32WBA54KGU7TR, STM32WBA55CEU6, STM32WBA55CEU6TR, STM32WBA55CEU7, STM32WBA55CEU7TR, STM32WBA55CGU6, STM32WBA55CGU6TR, STM32WBA55CGU6U, STM32WBA55CGU7, STM32WBA55CGU7TR, STM32WBA55G-DK1, STM32WBA55HEF6, STM32WBA55HEF7, STM32WBA55HGF6, STM32WBA55HGF7, STM32WBA55UEI6, STM32WBA55UEI6TR, STM32WBA55UEI7, STM32WBA55UEI7TR, STM32WBA55UGI6, STM32WBA55UGI6TR, STM32WBA55UGI7, STM32WBA55UGI7TR, STM32WL5MOCH6, STM32WL5MOCH6TR]
2025-03-22 09:14:54,615 [INFO] DbMcus:218 - Found 4440 MCUs, 4440 are supported
2025-03-22 09:14:54,622 [INFO] ApiDb:423 - Load user favorites file C:\Users\OS/.stm32cubeide/favorites.mcus.txt: 1 item(s)
2025-03-22 09:14:54,622 [INFO] ApiDb:427 - User favorites MCUs=[STM32F407VGT6]
2025-03-22 09:14:54,622 [INFO] DbMcus:224 - Set 1 / 1 favorites MCUs
2025-03-22 09:14:55,059 [INFO] BoardInfo:889 - No configuration file found for board NUCLEO-N657X0-Q
2025-03-22 09:14:55,059 [INFO] DbBoards:161 - Board is not supported: NUCLEO-N657X0-Q
2025-03-22 09:14:55,079 [INFO] BoardInfo:889 - No configuration file found for board NUCLEO-WL33CC1
2025-03-22 09:14:55,080 [INFO] DbBoards:161 - Board is not supported: NUCLEO-WL33CC1
2025-03-22 09:14:55,081 [INFO] BoardInfo:889 - No configuration file found for board NUCLEO-WL33CC2
2025-03-22 09:14:55,081 [INFO] DbBoards:161 - Board is not supported: NUCLEO-WL33CC2
2025-03-22 09:14:55,088 [INFO] BoardInfo:889 - No configuration file found for board P-NUCLEO-WB55
2025-03-22 09:14:55,089 [INFO] DbBoards:161 - Kit is not supported: P-NUCLEO-WB55
2025-03-22 09:14:55,094 [INFO] BoardInfo:889 - No configuration file found for board STEVAL-BFA001V1B
2025-03-22 09:14:55,095 [INFO] DbBoards:161 - Kit is not supported: STEVAL-BFA001V1B
2025-03-22 09:14:55,096 [INFO] BoardInfo:889 - No configuration file found for board STEVAL-BFA001V2B
2025-03-22 09:14:55,097 [INFO] DbBoards:161 - Kit is not supported: STEVAL-BFA001V2B
2025-03-22 09:14:55,281 [INFO] BoardInfo:889 - No configuration file found for board STM32N6570-DK
2025-03-22 09:14:55,282 [INFO] DbBoards:161 - Board is not supported: STM32N6570-DK
2025-03-22 09:14:55,295 [INFO] DbBoards:168 - Found 205 boards, 198 are supported
2025-03-22 09:14:55,296 [INFO] DbBoards:169 - Found 205 boards, 25 of them is supported for  Bsp
2025-03-22 09:14:55,305 [INFO] ApiDb:423 - Load user favorites file C:\Users\OS/.stm32cubeide/favorites.boards.txt: 1 item(s)
2025-03-22 09:14:55,306 [INFO] ApiDb:427 - User favorites Boards=[STM32F407G-DISC1]
2025-03-22 09:14:55,306 [INFO] DbBoards:198 - Set 1 / 1 favorites Boards
2025-03-22 09:14:55,351 [INFO] UtilMem:75 - End LoadConfig() Used Memory: 415663872 Bytes (600834048)
2025-03-22 09:14:55,539 [WARN] ThirdParty:833 - waiting for thirdparty lock release [change project]
2025-03-22 09:14:55,539 [INFO] ThirdParty:835 - entering critical section [change project]
2025-03-22 09:14:55,540 [INFO] ThirdParty:1030 - CMSIS Pack Vendor :STMicroelectronics USBPD 4.1
2025-03-22 09:14:55,540 [INFO] ThirdParty:1030 - CMSIS Pack Vendor :STMicroelectronics X-CUBE-GNSS1 6.0.0
2025-03-22 09:14:55,540 [INFO] ThirdParty:1030 - CMSIS Pack Vendor :STMicroelectronics USB_HOST 2.0.0
2025-03-22 09:14:55,540 [INFO] ThirdParty:1030 - CMSIS Pack Vendor :STMicroelectronics FP-SNS-MOTENVWB1 1.4.0
2025-03-22 09:14:55,540 [INFO] ThirdParty:1030 - CMSIS Pack Vendor :STMicroelectronics X-CUBE-AZRTOS-F4 1.1.0
2025-03-22 09:14:55,540 [INFO] ThirdParty:1030 - CMSIS Pack Vendor :STMicroelectronics LIBJPEG 8.0.0
2025-03-22 09:14:55,540 [INFO] ThirdParty:1030 - CMSIS Pack Vendor :STMicroelectronics FP-ATR-ASTRA1 2.0.2
2025-03-22 09:14:55,540 [INFO] ThirdParty:1030 - CMSIS Pack Vendor :STMicroelectronics FP-ATR-ASTRA1 2.0.1
2025-03-22 09:14:55,540 [INFO] ThirdParty:1030 - CMSIS Pack Vendor :STMicroelectronics X-CUBE-SMBUS 2.1.0
2025-03-22 09:14:55,540 [INFO] ThirdParty:1030 - CMSIS Pack Vendor :STMicroelectronics X-CUBE-WB05N 1.1.0
2025-03-22 09:14:55,540 [INFO] ThirdParty:1030 - CMSIS Pack Vendor :STMicroelectronics X-CUBE-ISPU 2.1.0
2025-03-22 09:14:55,540 [INFO] ThirdParty:1030 - CMSIS Pack Vendor :STMicroelectronics X-CUBE-FREERTOS 1.2.0
2025-03-22 09:14:55,540 [INFO] ThirdParty:1030 - CMSIS Pack Vendor :wolfSSL I-CUBE-wolfSSL 5.6.6
2025-03-22 09:14:55,540 [INFO] ThirdParty:1030 - CMSIS Pack Vendor :STMicroelectronics X-CUBE-TOUCHGFX 4.23.0
2025-03-22 09:14:55,541 [INFO] ThirdParty:1030 - CMSIS Pack Vendor :STMicroelectronics X-CUBE-TOUCHGFX 4.23.2
2025-03-22 09:14:55,541 [INFO] ThirdParty:1030 - CMSIS Pack Vendor :STMicroelectronics X-CUBE-AZRTOS-F7 1.1.0
2025-03-22 09:14:55,541 [INFO] ThirdParty:1030 - CMSIS Pack Vendor :STMicroelectronics X-CUBE-AZRTOS-L5 2.0.0
2025-03-22 09:14:55,541 [INFO] ThirdParty:1030 - CMSIS Pack Vendor :STMicroelectronics USB_DEVICE 2.0.0
2025-03-22 09:14:55,541 [INFO] ThirdParty:1030 - CMSIS Pack Vendor :STMicroelectronics X-CUBE-NFC6 3.1.0
2025-03-22 09:14:55,541 [INFO] ThirdParty:1030 - CMSIS Pack Vendor :ITTIA_DB I-CUBE-ITTIADB 8.8.0
2025-03-22 09:14:55,541 [INFO] ThirdParty:1030 - CMSIS Pack Vendor :STMicroelectronics FP-SNS-MOTENV1 4.3.2
2025-03-22 09:14:55,541 [INFO] ThirdParty:1030 - CMSIS Pack Vendor :STMicroelectronics X-CUBE-MEMS1 11.0.0
2025-03-22 09:14:55,541 [INFO] ThirdParty:1030 - CMSIS Pack Vendor :STMicroelectronics FreeRTOS 0.0.1
2025-03-22 09:14:55,541 [INFO] ThirdParty:1030 - CMSIS Pack Vendor :STMicroelectronics X-CUBE-DPower 1.2.0
2025-03-22 09:14:55,541 [INFO] ThirdParty:1030 - CMSIS Pack Vendor :STMicroelectronics FP-SNS-FLIGHT1 5.0.2
2025-03-22 09:14:55,541 [INFO] ThirdParty:1030 - CMSIS Pack Vendor :STMicroelectronics X-CUBE-AI 9.0.0
2025-03-22 09:14:55,541 [INFO] ThirdParty:1030 - CMSIS Pack Vendor :STMicroelectronics PDM2PCM 3.3.0
2025-03-22 09:14:55,541 [INFO] ThirdParty:1030 - CMSIS Pack Vendor :STMicroelectronics X-CUBE-DISPLAY 3.0.0
2025-03-22 09:14:55,541 [INFO] ThirdParty:1030 - CMSIS Pack Vendor :STMicroelectronics X-CUBE-BLE1 7.0.0
2025-03-22 09:14:55,541 [INFO] ThirdParty:1030 - CMSIS Pack Vendor :STMicroelectronics X-CUBE-NFC10 1.0.0
2025-03-22 09:14:55,541 [INFO] ThirdParty:1030 - CMSIS Pack Vendor :STMicroelectronics X-CUBE-BLEMGR 4.0.0
2025-03-22 09:14:55,541 [INFO] ThirdParty:1030 - CMSIS Pack Vendor :STMicroelectronics HAL Drivers 0.0.0
2025-03-22 09:14:55,542 [INFO] ThirdParty:1030 - CMSIS Pack Vendor :emotas I-CUBE-CANOPEN 1.3.0
2025-03-22 09:14:55,542 [INFO] ThirdParty:1030 - CMSIS Pack Vendor :STMicroelectronics X-CUBE-FREERTOS 1.3.0
2025-03-22 09:14:55,542 [INFO] ThirdParty:1030 - CMSIS Pack Vendor :STMicroelectronics X-CUBE-NFC7 1.0.1
2025-03-22 09:14:55,542 [INFO] ThirdParty:1030 - CMSIS Pack Vendor :STMicroelectronics MBEDTLS 2.14.1
2025-03-22 09:14:55,542 [INFO] ThirdParty:1030 - CMSIS Pack Vendor :wolfSSL I-CUBE-wolfTPM 3.2.0
2025-03-22 09:14:55,542 [INFO] ThirdParty:1030 - CMSIS Pack Vendor :STMicroelectronics X-CUBE-BLEMGR 3.1.0
2025-03-22 09:14:55,542 [INFO] ThirdParty:1030 - CMSIS Pack Vendor :STMicroelectronics X-CUBE-AI 10.0.0
2025-03-22 09:14:55,542 [INFO] ThirdParty:1030 - CMSIS Pack Vendor :STMicroelectronics FP-SNS-SMARTAG2 1.2.0
2025-03-22 09:14:55,542 [INFO] ThirdParty:1030 - CMSIS Pack Vendor :STMicroelectronics X-CUBE-MEMS1 11.1.0
2025-03-22 09:14:55,542 [INFO] ThirdParty:1030 - CMSIS Pack Vendor :STMicroelectronics X-CUBE-AZRTOS-WL 2.0.0
2025-03-22 09:14:55,542 [INFO] ThirdParty:1030 - CMSIS Pack Vendor :STMicroelectronics FP-SNS-MOTENV1 5.0.0
2025-03-22 09:14:55,542 [INFO] ThirdParty:1030 - CMSIS Pack Vendor :STMicroelectronics USB_DEVICE 1.0.0
2025-03-22 09:14:55,542 [INFO] ThirdParty:1030 - CMSIS Pack Vendor :STMicroelectronics X-CUBE-AI 8.1.0
2025-03-22 09:14:55,542 [INFO] ThirdParty:1030 - CMSIS Pack Vendor :wolfSSL I-CUBE-wolfMQTT 1.19.0
2025-03-22 09:14:55,542 [INFO] ThirdParty:1030 - CMSIS Pack Vendor :STMicroelectronics X-CUBE-AZRTOS-L4 2.0.0
2025-03-22 09:14:55,542 [INFO] ThirdParty:1030 - CMSIS Pack Vendor :STMicroelectronics ThreadX 0.0.2
2025-03-22 09:14:55,542 [INFO] ThirdParty:1030 - CMSIS Pack Vendor :WES I-CUBE-Cesium 1.3.0
2025-03-22 09:14:55,543 [INFO] ThirdParty:1030 - CMSIS Pack Vendor :STMicroelectronics lwIP 2.1.2
2025-03-22 09:14:55,543 [INFO] ThirdParty:1030 - CMSIS Pack Vendor :STMicroelectronics X-CUBE-SFXS2LP1 4.0.0
2025-03-22 09:14:55,543 [INFO] ThirdParty:1030 - CMSIS Pack Vendor :STMicroelectronics X-CUBE-BLE2 3.3.0
2025-03-22 09:14:55,543 [INFO] ThirdParty:1030 - CMSIS Pack Vendor :STMicroelectronics PDM2PCM 3.2.0
2025-03-22 09:14:55,543 [INFO] ThirdParty:1030 - CMSIS Pack Vendor :STMicroelectronics X-CUBE-AZRTOS-H7 3.3.0
2025-03-22 09:14:55,543 [INFO] ThirdParty:1030 - CMSIS Pack Vendor :STMicroelectronics X-CUBE-NFC9 1.0.0
2025-03-22 09:14:55,543 [INFO] ThirdParty:1030 - CMSIS Pack Vendor :STMicroelectronics X-CUBE-BLE1 7.1.0
2025-03-22 09:14:55,543 [INFO] ThirdParty:1030 - CMSIS Pack Vendor :STMicroelectronics USB_DEVICE 3.0.0
2025-03-22 09:14:55,543 [INFO] ThirdParty:1030 - CMSIS Pack Vendor :STMicroelectronics X-CUBE-TCPP 4.1.0
2025-03-22 09:14:55,543 [INFO] ThirdParty:1030 - CMSIS Pack Vendor :STMicroelectronics X-CUBE-IPS 3.0.0
2025-03-22 09:14:55,543 [INFO] ThirdParty:1030 - CMSIS Pack Vendor :STMicroelectronics X-CUBE-AZRTOS-WB 2.0.0
2025-03-22 09:14:55,543 [INFO] ThirdParty:1030 - CMSIS Pack Vendor :STMicroelectronics X-CUBE-GNSS1 7.0.0
2025-03-22 09:14:55,543 [INFO] ThirdParty:1030 - CMSIS Pack Vendor :STMicroelectronics X-CUBE-GNSS1 7.0.1
2025-03-22 09:14:55,543 [INFO] ThirdParty:1030 - CMSIS Pack Vendor :STMicroelectronics X-CUBE-TOUCHGFX 4.25.0
2025-03-22 09:14:55,544 [INFO] ThirdParty:1030 - CMSIS Pack Vendor :STMicroelectronics FP-SNS-STBOX1 2.0.0
2025-03-22 09:14:55,544 [INFO] ThirdParty:1030 - CMSIS Pack Vendor :STMicroelectronics X-CUBE-ALGOBUILD 1.3.0
2025-03-22 09:14:55,544 [INFO] ThirdParty:1030 - CMSIS Pack Vendor :STMicroelectronics X-CUBE-AZRTOS-G0 1.1.0
2025-03-22 09:14:55,544 [INFO] ThirdParty:1030 - CMSIS Pack Vendor :STMicroelectronics X-CUBE-SAFEA1 1.2.2
2025-03-22 09:14:55,544 [INFO] ThirdParty:1030 - CMSIS Pack Vendor :STMicroelectronics X-CUBE-NFC4 3.0.0
2025-03-22 09:14:55,544 [INFO] ThirdParty:1030 - CMSIS Pack Vendor :STMicroelectronics X-CUBE-SUBG2 5.0.0
2025-03-22 09:14:55,544 [INFO] ThirdParty:1030 - CMSIS Pack Vendor :STMicroelectronics X-CUBE-AZRTOS-H7RS 1.1.0
2025-03-22 09:14:55,544 [INFO] ThirdParty:1030 - CMSIS Pack Vendor :STMicroelectronics STM32_WPAN 1.0.0
2025-03-22 09:14:55,544 [INFO] ThirdParty:1030 - CMSIS Pack Vendor :wolfSSL I-CUBE-wolfMQTT 1.18.0
2025-03-22 09:14:55,544 [INFO] ThirdParty:1030 - CMSIS Pack Vendor :EmbeddedOffice I-CUBE-FS-RTOS 1.0.1
2025-03-22 09:14:55,544 [INFO] ThirdParty:1030 - CMSIS Pack Vendor :STMicroelectronics lwIP 2.0.3
2025-03-22 09:14:55,544 [INFO] ThirdParty:1030 - CMSIS Pack Vendor :Cesanta I-CUBE-Mongoose 7.13.0
2025-03-22 09:14:55,544 [INFO] ThirdParty:1030 - CMSIS Pack Vendor :STMicroelectronics USB_HOST 1.0.0
2025-03-22 09:14:55,544 [INFO] ThirdParty:1030 - CMSIS Pack Vendor :STMicroelectronics X-CUBE-AZRTOS-G4 2.0.0
2025-03-22 09:14:55,544 [INFO] ThirdParty:1030 - CMSIS Pack Vendor :STMicroelectronics PDM2PCM 3.1.0
2025-03-22 09:14:55,544 [INFO] ThirdParty:1030 - CMSIS Pack Vendor :Infineon AIROC-Wi-Fi-Bluetooth-STM32 1.5.1
2025-03-22 09:14:55,544 [INFO] ThirdParty:1030 - CMSIS Pack Vendor :RealThread X-CUBE-RT-Thread_Nano 4.1.1
2025-03-22 09:14:55,544 [INFO] ThirdParty:1030 - CMSIS Pack Vendor :STMicroelectronics FP-SNS-MOTENVWB1 1.3.1
2025-03-22 09:14:55,544 [INFO] ThirdParty:1030 - CMSIS Pack Vendor :STMicroelectronics FP-ATR-SIGFOX1 3.2.0
2025-03-22 09:14:55,544 [INFO] ThirdParty:1030 - CMSIS Pack Vendor :quantropi X-CUBE-qispace-sdk-base 1.9.3
2025-03-22 09:14:55,544 [INFO] ThirdParty:1030 - CMSIS Pack Vendor :STMicroelectronics X-CUBE-ISPU 2.0.0
2025-03-22 09:14:55,544 [INFO] ThirdParty:1030 - CMSIS Pack Vendor :STMicroelectronics X-CUBE-EEPRMA1 5.1.0
2025-03-22 09:14:55,544 [INFO] ThirdParty:1030 - CMSIS Pack Vendor :STMicroelectronics MBEDTLS 2.16.2
2025-03-22 09:14:55,544 [INFO] ThirdParty:1030 - CMSIS Pack Vendor :STMicroelectronics X-CUBE-ALS 1.0.2
2025-03-22 09:14:55,544 [INFO] ThirdParty:1030 - CMSIS Pack Vendor :STMicroelectronics X-CUBE-MEMS1 10.0.0
2025-03-22 09:14:55,544 [INFO] ThirdParty:1030 - CMSIS Pack Vendor :STMicroelectronics X-CUBE-FREERTOS 1.1.0
2025-03-22 09:14:55,545 [INFO] ThirdParty:1030 - CMSIS Pack Vendor :STMicroelectronics X-CUBE-TOUCHGFX 4.24.0
2025-03-22 09:14:55,545 [INFO] ThirdParty:1030 - CMSIS Pack Vendor :STMicroelectronics X-CUBE-TOUCHGFX 4.24.2
2025-03-22 09:14:55,545 [INFO] ThirdParty:1030 - CMSIS Pack Vendor :STMicroelectronics X-CUBE-TOUCHGFX 4.24.1
2025-03-22 09:14:55,545 [INFO] ThirdParty:1030 - CMSIS Pack Vendor :portGmbH I-Cube-SoM-uGOAL 1.1.0
2025-03-22 09:14:55,545 [INFO] ThirdParty:1030 - CMSIS Pack Vendor :STMicroelectronics X-CUBE-ALS 1.0.1
2025-03-22 09:14:55,545 [INFO] ThirdParty:1030 - CMSIS Pack Vendor :STMicroelectronics ThreadX 1.0.0
2025-03-22 09:14:55,545 [INFO] ThirdParty:1030 - CMSIS Pack Vendor :SEGGER I-CUBE-embOS 1.3.1
2025-03-22 09:14:55,545 [INFO] ThirdParty:1030 - CMSIS Pack Vendor :STMicroelectronics X-CUBE-ALGOBUILD 1.4.0
2025-03-22 09:14:55,545 [INFO] ThirdParty:1030 - CMSIS Pack Vendor :STMicroelectronics X-CUBE-AZRTOS-H7RS 1.0.0
2025-03-22 09:14:55,545 [INFO] ThirdParty:1030 - CMSIS Pack Vendor :STMicroelectronics FP-ATR-ASTRA1 2.0.0
2025-03-22 09:14:55,545 [INFO] ThirdParty:1030 - CMSIS Pack Vendor :STMicroelectronics X-CUBE-TOF1 3.4.2
2025-03-22 09:14:55,545 [INFO] ThirdParty:1030 - CMSIS Pack Vendor :STMicroelectronics X-CUBE-AI 9.1.0
2025-03-22 09:14:55,545 [INFO] ThirdParty:1030 - CMSIS Pack Vendor :STMicroelectronics X-CUBE-TOF1 3.4.1
2025-03-22 09:14:55,545 [INFO] ThirdParty:1030 - CMSIS Pack Vendor :STMicroelectronics X-CUBE-AZRTOS-H7 3.2.0
2025-03-22 09:14:55,545 [INFO] ThirdParty:1030 - CMSIS Pack Vendor :wolfSSL I-CUBE-wolfSSH 1.4.17
2025-03-22 09:14:55,545 [INFO] ThirdParty:841 - exiting critical section [change project]
2025-03-22 09:14:56,008 [INFO] PinOutPanel:1561 - setPackage(No Configuration,No Configuration)
2025-03-22 09:14:56,010 [INFO] PinOutPanel:1561 - setPackage(STM32F746NGHx,TFBGA216)
2025-03-22 09:14:56,963 [INFO] UtilMem:75 - Before build in PCC Used Memory: 276293400 Bytes (600834048)
2025-03-22 09:14:57,961 [INFO] UtilMem:75 - After build in PCC Used Memory: 355099120 Bytes (600834048)
2025-03-22 09:14:57,962 [INFO] Middleware:617 - instanceName : STMicroelectronics.X-CUBE-AI.10.0.0 bspName : COM Port check condition success for : !SEMDeviceJjApplicationJjApplicationTemplate
2025-03-22 09:14:57,962 [INFO] Middleware:617 - instanceName : STMicroelectronics.X-CUBE-AI.10.0.0 bspName : COM Port check condition success for : !SEMDeviceJjApplicationJjApplicationTemplate
2025-03-22 09:14:57,962 [INFO] Middleware:617 - instanceName : STMicroelectronics.X-CUBE-AI.10.0.0 bspName : COM Port check condition success for : !SEMDeviceJjApplicationJjApplicationTemplate
2025-03-22 09:14:58,001 [INFO] IPUIPlugin:80 - create IPUIPlugin
2025-03-22 09:14:58,001 [INFO] IPUIPlugin:80 - create IPUIPlugin
2025-03-22 09:14:58,001 [INFO] IPUIPlugin:80 - create IPUIPlugin
2025-03-22 09:14:58,002 [INFO] IPUIPlugin:80 - create IPUIPlugin
2025-03-22 09:14:58,002 [INFO] IPUIPlugin:80 - create IPUIPlugin
2025-03-22 09:14:58,002 [INFO] IPUIPlugin:80 - create IPUIPlugin
2025-03-22 09:14:58,002 [INFO] IPUIPlugin:80 - create IPUIPlugin
2025-03-22 09:14:58,002 [INFO] IPUIPlugin:80 - create IPUIPlugin
2025-03-22 09:14:58,002 [INFO] IPUIPlugin:80 - create IPUIPlugin
2025-03-22 09:14:58,002 [INFO] IPUIPlugin:80 - create IPUIPlugin
2025-03-22 09:14:58,002 [INFO] IPUIPlugin:80 - create IPUIPlugin
2025-03-22 09:14:58,003 [INFO] IPUIPlugin:80 - create IPUIPlugin
2025-03-22 09:14:58,003 [INFO] IPUIPlugin:80 - create IPUIPlugin
2025-03-22 09:14:58,003 [INFO] IPUIPlugin:80 - create IPUIPlugin
2025-03-22 09:14:58,003 [INFO] IPUIPlugin:80 - create IPUIPlugin
2025-03-22 09:14:58,003 [INFO] IPUIPlugin:80 - create IPUIPlugin
2025-03-22 09:14:58,003 [INFO] IPUIPlugin:80 - create IPUIPlugin
2025-03-22 09:14:58,003 [INFO] IPUIPlugin:80 - create IPUIPlugin
2025-03-22 09:14:58,003 [INFO] IPUIPlugin:80 - create IPUIPlugin
2025-03-22 09:14:58,004 [INFO] IPUIPlugin:80 - create IPUIPlugin
2025-03-22 09:14:58,004 [INFO] IPUIPlugin:80 - create IPUIPlugin
2025-03-22 09:14:58,004 [INFO] IPUIPlugin:80 - create IPUIPlugin
2025-03-22 09:14:58,004 [INFO] IPUIPlugin:80 - create IPUIPlugin
2025-03-22 09:14:58,004 [INFO] IPUIPlugin:80 - create IPUIPlugin
2025-03-22 09:14:58,004 [INFO] IPUIPlugin:80 - create IPUIPlugin
2025-03-22 09:14:58,004 [INFO] IPUIPlugin:80 - create IPUIPlugin
2025-03-22 09:14:58,005 [INFO] IPUIPlugin:80 - create IPUIPlugin
2025-03-22 09:14:58,005 [INFO] IPUIPlugin:80 - create IPUIPlugin
2025-03-22 09:14:58,005 [INFO] IPUIPlugin:80 - create IPUIPlugin
2025-03-22 09:14:58,005 [INFO] IPUIPlugin:80 - create IPUIPlugin
2025-03-22 09:14:58,006 [INFO] IPUIPlugin:80 - create IPUIPlugin
2025-03-22 09:14:58,006 [INFO] IPUIPlugin:80 - create IPUIPlugin
2025-03-22 09:14:58,006 [INFO] IPUIPlugin:80 - create IPUIPlugin
2025-03-22 09:14:58,006 [INFO] IPUIPlugin:80 - create IPUIPlugin
2025-03-22 09:14:58,007 [INFO] IPUIPlugin:80 - create IPUIPlugin
2025-03-22 09:14:58,007 [INFO] IPUIPlugin:80 - create IPUIPlugin
2025-03-22 09:14:58,008 [INFO] IPUIPlugin:80 - create IPUIPlugin
2025-03-22 09:14:58,008 [INFO] IPUIPlugin:80 - create IPUIPlugin
2025-03-22 09:14:58,008 [INFO] IPUIPlugin:80 - create IPUIPlugin
2025-03-22 09:14:58,009 [INFO] IPUIPlugin:80 - create IPUIPlugin
2025-03-22 09:14:58,010 [INFO] IPUIPlugin:80 - create IPUIPlugin
2025-03-22 09:14:58,010 [INFO] IPUIPlugin:80 - create IPUIPlugin
2025-03-22 09:14:58,011 [INFO] IPUIPlugin:80 - create IPUIPlugin
2025-03-22 09:14:58,011 [INFO] IPUIPlugin:80 - create IPUIPlugin
2025-03-22 09:14:58,012 [INFO] IPUIPlugin:80 - create IPUIPlugin
2025-03-22 09:14:58,012 [INFO] IPUIPlugin:80 - create IPUIPlugin
2025-03-22 09:14:58,013 [INFO] IPUIPlugin:80 - create IPUIPlugin
2025-03-22 09:14:58,013 [INFO] IPUIPlugin:80 - create IPUIPlugin
2025-03-22 09:14:58,014 [INFO] IPUIPlugin:80 - create IPUIPlugin
2025-03-22 09:14:58,014 [INFO] IPUIPlugin:80 - create IPUIPlugin
2025-03-22 09:14:58,014 [INFO] IPUIPlugin:80 - create IPUIPlugin
2025-03-22 09:14:58,014 [INFO] IPUIPlugin:80 - create IPUIPlugin
2025-03-22 09:14:58,015 [INFO] IPUIPlugin:80 - create IPUIPlugin
2025-03-22 09:14:58,015 [INFO] IPUIPlugin:80 - create IPUIPlugin
2025-03-22 09:14:58,016 [INFO] IPUIPlugin:80 - create IPUIPlugin
2025-03-22 09:14:58,016 [INFO] IPUIPlugin:80 - create IPUIPlugin
2025-03-22 09:14:58,016 [INFO] IPUIPlugin:80 - create IPUIPlugin
2025-03-22 09:14:58,017 [INFO] IPUIPlugin:80 - create IPUIPlugin
2025-03-22 09:14:58,017 [INFO] IPUIPlugin:80 - create IPUIPlugin
2025-03-22 09:14:58,017 [INFO] IPUIPlugin:80 - create IPUIPlugin
2025-03-22 09:14:58,017 [INFO] IPUIPlugin:80 - create IPUIPlugin
2025-03-22 09:14:58,018 [INFO] IPUIPlugin:80 - create IPUIPlugin
2025-03-22 09:14:58,018 [INFO] IPUIPlugin:80 - create IPUIPlugin
2025-03-22 09:14:58,018 [INFO] IPUIPlugin:80 - create IPUIPlugin
2025-03-22 09:14:58,019 [INFO] IPUIPlugin:80 - create IPUIPlugin
2025-03-22 09:14:58,019 [INFO] IPUIPlugin:80 - create IPUIPlugin
2025-03-22 09:14:58,020 [INFO] IPUIPlugin:80 - create IPUIPlugin
2025-03-22 09:14:58,020 [INFO] IPUIPlugin:80 - create IPUIPlugin
2025-03-22 09:14:58,020 [INFO] IPUIPlugin:80 - create IPUIPlugin
2025-03-22 09:14:58,021 [INFO] IPUIPlugin:80 - create IPUIPlugin
2025-03-22 09:14:58,022 [INFO] IPUIPlugin:80 - create IPUIPlugin
2025-03-22 09:14:58,022 [INFO] IPUIPlugin:80 - create IPUIPlugin
2025-03-22 09:14:58,023 [INFO] IPUIPlugin:80 - create IPUIPlugin
2025-03-22 09:14:58,023 [INFO] IPUIPlugin:80 - create IPUIPlugin
2025-03-22 09:14:58,024 [INFO] IPUIPlugin:80 - create IPUIPlugin
2025-03-22 09:14:58,031 [INFO] AI:968 - onDisable adding AI com.st.microxplorer.plugins.ip.ai.AI@13f49579 on STMicroelectronics.X-CUBE-AI.10.0.0
2025-03-22 09:14:58,079 [INFO] ApiDbMcu:508 - Load IP Config File for PDM2PCM
2025-03-22 09:14:58,358 [INFO] CADModel:165 - CPN selected for project levelSTM32F746NGH6
2025-03-22 09:14:58,358 [INFO] CADModel:114 - Register for checkConnection events
2025-03-22 09:14:58,406 [INFO] OpenFileManager:363 - Restore cursor
2025-03-22 09:14:58,886 [INFO] AIMainUI:1270 - Restoring parameters from IP...
2025-03-22 09:14:58,886 [INFO] AIMainUI:1393 - No old model detected
2025-03-22 09:14:58,941 [ERROR] N6Profiles:77 - java.io.FileNotFoundException: C:\Users\OS\STM32Cube\Repository\Packs\STMicroelectronics\X-CUBE-AI\10.0.0\scripts\N6_scripts\user_neuralart.json (The system cannot find the path specified)
2025-03-22 09:14:58,966 [INFO] AInterface:114 - AInterface using toolDir: C:/Users/OS/STM32Cube/Repository/Packs/STMicroelectronics/X-CUBE-AI/10.0.0/Utilities/windows
2025-03-22 09:14:58,972 [INFO] AIModelDetailledView:2372 - Analysis status: -
2025-03-22 09:14:58,973 [INFO] AIModelDetailledView:930 - Selected model: Keras
2025-03-22 09:14:59,057 [INFO] AIModelDetailledView:2372 - Analysis status: done
2025-03-22 09:15:15,993 [INFO] AI:951 - getUI adding AI com.st.microxplorer.plugins.ip.ai.AI@13f49579 on STMicroelectronics.X-CUBE-AI.10.0.0
2025-03-22 09:15:15,994 [INFO] Middleware:617 - instanceName : STMicroelectronics.X-CUBE-AI.10.0.0 bspName : COM Port check condition success for : !SEMDeviceJjApplicationJjApplicationTemplate
2025-03-22 09:15:15,994 [INFO] Middleware:617 - instanceName : STMicroelectronics.X-CUBE-AI.10.0.0 bspName : COM Port check condition success for : !SEMDeviceJjApplicationJjApplicationTemplate
2025-03-22 09:15:15,994 [INFO] Middleware:617 - instanceName : STMicroelectronics.X-CUBE-AI.10.0.0 bspName : COM Port check condition success for : !SEMDeviceJjApplicationJjApplicationTemplate
2025-03-22 09:15:25,216 [INFO] Middleware:617 - instanceName : STMicroelectronics.X-CUBE-AI.10.0.0 bspName : COM Port check condition success for : !SEMDeviceJjApplicationJjApplicationTemplate
2025-03-22 09:15:25,217 [INFO] Middleware:617 - instanceName : STMicroelectronics.X-CUBE-AI.10.0.0 bspName : COM Port check condition success for : !SEMDeviceJjApplicationJjApplicationTemplate
2025-03-22 09:15:25,217 [INFO] Middleware:617 - instanceName : STMicroelectronics.X-CUBE-AI.10.0.0 bspName : COM Port check condition success for : !SEMDeviceJjApplicationJjApplicationTemplate
2025-03-22 09:15:25,217 [INFO] Middleware:617 - instanceName : STMicroelectronics.X-CUBE-AI.10.0.0 bspName : COM Port check condition success for : !SEMDeviceJjApplicationJjApplicationTemplate
2025-03-22 09:15:25,217 [INFO] Middleware:617 - instanceName : STMicroelectronics.X-CUBE-AI.10.0.0 bspName : COM Port check condition success for : !SEMDeviceJjApplicationJjApplicationTemplate
2025-03-22 09:15:25,217 [INFO] Middleware:617 - instanceName : STMicroelectronics.X-CUBE-AI.10.0.0 bspName : COM Port check condition success for : !SEMDeviceJjApplicationJjApplicationTemplate
2025-03-22 09:15:31,901 [INFO] AIModelDetailledView:2372 - Analysis status: -
2025-03-22 09:15:32,469 [INFO] AInterface:254 - ModelName:network; files:[C:\Users\OS\Downloads\train_ptbdb_cnn.h5]; type:Keras; compression:None
2025-03-22 09:15:32,469 [INFO] AInterface:519 - workspaceTempDir: C:/Users/OS/AppData/Local/Temp/mxAI_workspace40494082248009835409769030690641
2025-03-22 09:15:32,471 [INFO] AInterface:1132 - Setting Env: C:/Users/OS/STM32Cube/Repository/Packs/STMicroelectronics/X-CUBE-AI/10.0.0/Utilities/windows
2025-03-22 09:15:32,598 [INFO] STM32CubeIDEBuilder:265 - Looking for gnu-tools-for-stm32 tools/bin/arm-none-eabi-gcc.exe in C:\ST\STM32CubeIDE_1.16.0\STM32CubeIDE
2025-03-22 09:15:32,606 [INFO] STM32CubeIDEBuilder:294 - checking C:\ST\STM32CubeIDE_1.16.0\STM32CubeIDE\plugins\com.st.stm32cube.ide.mcu.externaltools.gnu-tools-for-stm32.13.3.rel1.win32_1.0.0.202411081344\tools\bin\arm-none-eabi-gcc.exe
2025-03-22 09:15:32,607 [INFO] STM32CubeIDEBuilder:297 - ret=C:\ST\STM32CubeIDE_1.16.0\STM32CubeIDE\plugins\com.st.stm32cube.ide.mcu.externaltools.gnu-tools-for-stm32.13.3.rel1.win32_1.0.0.202411081344\tools\bin\arm-none-eabi-gcc.exe
2025-03-22 09:15:32,607 [INFO] STM32CubeIDEBuilder:311 - returning C:\ST\STM32CubeIDE_1.16.0\STM32CubeIDE\plugins\com.st.stm32cube.ide.mcu.externaltools.gnu-tools-for-stm32.13.3.rel1.win32_1.0.0.202411081344\tools\bin\arm-none-eabi-gcc.exe
2025-03-22 09:15:32,608 [INFO] AInterface:1189 - Custom PATH variable: C:/Users/OS/STM32Cube/Repository/Packs/STMicroelectronics/X-CUBE-AI/10.0.0/Utilities/windows;C:/Users/OS/STM32Cube/Repository/Packs/STMicroelectronics/X-CUBE-AI/10.0.0/Utilities/windows/mingw64/bin;C:/Users/OS/STM32Cube/Repository/Packs/STMicroelectronics/X-CUBE-AI/10.0.0/Utilities/windows/mingw64/libexec/gcc/x86_64-w64-mingw32/7.3.0;;C:\ST\STM32CubeIDE_1.16.0\STM32CubeIDE\plugins\com.st.stm32cube.ide.mcu.externaltools.gnu-tools-for-stm32.13.3.rel1.win32_1.0.0.202411081344\tools\bin
2025-03-22 09:15:32,610 [INFO] CmdLine:109 - Command: C:/Users/OS/STM32Cube/Repository/Packs/STMicroelectronics/X-CUBE-AI/10.0.0/Utilities/windows/stedgeai.exe analyze --target stm32f7 --name network -m C:/Users/OS/Downloads/train_ptbdb_cnn.h5 --compression none --verbosity 1 --workspace C:/Users/OS/AppData/Local/Temp/mxAI_workspace40494082248009835409769030690641 --output C:/Users/OS/.stm32cubemx/network_output
2025-03-22 09:15:32,615 [INFO] AIModelDetailledView:2372 - Analysis status: pending
2025-03-22 09:15:39,015 [INFO] CmdLine:74 - ST Edge AI Core v2.0.0-20049
2025-03-22 09:16:27,865 [INFO] CmdLine:74 - E010(InvalidModelError): Couldn't load Keras model C:\Users\OS\Downloads\train_ptbdb_cnn.h5,
2025-03-22 09:16:27,866 [INFO] CmdLine:74 - error: Error when deserializing class 'InputLayer' using config={'batch_shape': [1, 187, 1], 'dtype': 'float32', 'sparse': False, 'name': 'input_layer_4'}.
2025-03-22 09:16:27,866 [INFO] CmdLine:74 - Exception encountered: Unrecognized keyword arguments: ['batch_shape']
2025-03-22 09:16:28,299 [INFO] CmdLine:142 - stedgeai exit with status: -1
2025-03-22 09:16:28,299 [ERROR] CmdLine:145 - stedgeai return with an error
2025-03-22 09:16:28,315 [ERROR] AIModelDetailledView:2753 - Analyze fail on the AI model
2025-03-22 09:16:28,318 [INFO] AIModelDetailledView:2372 - Analysis status: error
2025-03-22 09:16:55,925 [INFO] AIModelDetailledView:2372 - Analysis status: -
2025-03-22 09:16:55,979 [INFO] AInterface:254 - ModelName:network; files:[C:\Users\OS\Downloads\train_ptbdb_cnn.h5]; type:Keras; compression:None
2025-03-22 09:16:55,980 [INFO] AInterface:519 - workspaceTempDir: C:/Users/OS/AppData/Local/Temp/mxAI_workspace41329180270991092752506760967971
2025-03-22 09:16:55,980 [INFO] AInterface:1132 - Setting Env: C:/Users/OS/STM32Cube/Repository/Packs/STMicroelectronics/X-CUBE-AI/10.0.0/Utilities/windows
2025-03-22 09:16:55,993 [INFO] STM32CubeIDEBuilder:265 - Looking for gnu-tools-for-stm32 tools/bin/arm-none-eabi-gcc.exe in C:\ST\STM32CubeIDE_1.16.0\STM32CubeIDE
2025-03-22 09:16:56,014 [INFO] STM32CubeIDEBuilder:294 - checking C:\ST\STM32CubeIDE_1.16.0\STM32CubeIDE\plugins\com.st.stm32cube.ide.mcu.externaltools.gnu-tools-for-stm32.13.3.rel1.win32_1.0.0.202411081344\tools\bin\arm-none-eabi-gcc.exe
2025-03-22 09:16:56,016 [INFO] STM32CubeIDEBuilder:297 - ret=C:\ST\STM32CubeIDE_1.16.0\STM32CubeIDE\plugins\com.st.stm32cube.ide.mcu.externaltools.gnu-tools-for-stm32.13.3.rel1.win32_1.0.0.202411081344\tools\bin\arm-none-eabi-gcc.exe
2025-03-22 09:16:56,016 [INFO] STM32CubeIDEBuilder:311 - returning C:\ST\STM32CubeIDE_1.16.0\STM32CubeIDE\plugins\com.st.stm32cube.ide.mcu.externaltools.gnu-tools-for-stm32.13.3.rel1.win32_1.0.0.202411081344\tools\bin\arm-none-eabi-gcc.exe
2025-03-22 09:16:56,017 [INFO] AInterface:1189 - Custom PATH variable: C:/Users/OS/STM32Cube/Repository/Packs/STMicroelectronics/X-CUBE-AI/10.0.0/Utilities/windows;C:/Users/OS/STM32Cube/Repository/Packs/STMicroelectronics/X-CUBE-AI/10.0.0/Utilities/windows/mingw64/bin;C:/Users/OS/STM32Cube/Repository/Packs/STMicroelectronics/X-CUBE-AI/10.0.0/Utilities/windows/mingw64/libexec/gcc/x86_64-w64-mingw32/7.3.0;;C:\ST\STM32CubeIDE_1.16.0\STM32CubeIDE\plugins\com.st.stm32cube.ide.mcu.externaltools.gnu-tools-for-stm32.13.3.rel1.win32_1.0.0.202411081344\tools\bin
2025-03-22 09:16:56,018 [INFO] CmdLine:109 - Command: C:/Users/OS/STM32Cube/Repository/Packs/STMicroelectronics/X-CUBE-AI/10.0.0/Utilities/windows/stedgeai.exe analyze --target stm32f7 --name network -m C:/Users/OS/Downloads/train_ptbdb_cnn.h5 --compression none --verbosity 1 --workspace C:/Users/OS/AppData/Local/Temp/mxAI_workspace41329180270991092752506760967971 --output C:/Users/OS/.stm32cubemx/network_output
2025-03-22 09:16:56,021 [INFO] AIModelDetailledView:2372 - Analysis status: pending
2025-03-22 09:16:56,730 [INFO] CmdLine:74 - ST Edge AI Core v2.0.0-20049
2025-03-22 09:17:04,768 [INFO] CmdLine:74 - E010(InvalidModelError): Couldn't load Keras model C:\Users\OS\Downloads\train_ptbdb_cnn.h5,
2025-03-22 09:17:04,768 [INFO] CmdLine:74 - error: Error when deserializing class 'InputLayer' using config={'batch_shape': [1, 187, 1], 'dtype': 'float32', 'sparse': False, 'name': 'input_layer_4'}.
2025-03-22 09:17:04,769 [INFO] CmdLine:74 - Exception encountered: Unrecognized keyword arguments: ['batch_shape']
2025-03-22 09:17:05,214 [INFO] CmdLine:142 - stedgeai exit with status: -1
2025-03-22 09:17:05,214 [ERROR] CmdLine:145 - stedgeai return with an error
2025-03-22 09:17:05,220 [ERROR] AIModelDetailledView:2753 - Analyze fail on the AI model
2025-03-22 09:17:05,220 [INFO] AIModelDetailledView:2372 - Analysis status: error
2025-03-22 09:17:51,869 [INFO] Middleware:617 - instanceName : STMicroelectronics.X-CUBE-AI.10.0.0 bspName : COM Port check condition success for : !SEMDeviceJjApplicationJjApplicationTemplate
2025-03-22 09:17:51,870 [INFO] Middleware:617 - instanceName : STMicroelectronics.X-CUBE-AI.10.0.0 bspName : COM Port check condition success for : !SEMDeviceJjApplicationJjApplicationTemplate
2025-03-22 09:17:51,870 [INFO] Middleware:617 - instanceName : STMicroelectronics.X-CUBE-AI.10.0.0 bspName : COM Port check condition success for : !SEMDeviceJjApplicationJjApplicationTemplate
2025-03-22 09:17:51,870 [INFO] Middleware:617 - instanceName : STMicroelectronics.X-CUBE-AI.10.0.0 bspName : COM Port check condition success for : !SEMDeviceJjApplicationJjApplicationTemplate
2025-03-22 09:17:51,870 [INFO] Middleware:617 - instanceName : STMicroelectronics.X-CUBE-AI.10.0.0 bspName : COM Port check condition success for : !SEMDeviceJjApplicationJjApplicationTemplate
2025-03-22 09:17:51,870 [INFO] Middleware:617 - instanceName : STMicroelectronics.X-CUBE-AI.10.0.0 bspName : COM Port check condition success for : !SEMDeviceJjApplicationJjApplicationTemplate
2025-03-22 09:17:53,669 [INFO] AIModelDetailledView:2372 - Analysis status: -
2025-03-22 09:17:53,721 [INFO] AInterface:254 - ModelName:network; files:[C:\Users\OS\Downloads\train_mitbih_cnn (1).h5]; type:Keras; compression:None
2025-03-22 09:17:53,722 [INFO] AInterface:519 - workspaceTempDir: C:/Users/OS/AppData/Local/Temp/mxAI_workspace41906607538007228825005382133649
2025-03-22 09:17:53,722 [INFO] AInterface:1132 - Setting Env: C:/Users/OS/STM32Cube/Repository/Packs/STMicroelectronics/X-CUBE-AI/10.0.0/Utilities/windows
2025-03-22 09:17:53,732 [INFO] STM32CubeIDEBuilder:265 - Looking for gnu-tools-for-stm32 tools/bin/arm-none-eabi-gcc.exe in C:\ST\STM32CubeIDE_1.16.0\STM32CubeIDE
2025-03-22 09:17:53,736 [INFO] STM32CubeIDEBuilder:294 - checking C:\ST\STM32CubeIDE_1.16.0\STM32CubeIDE\plugins\com.st.stm32cube.ide.mcu.externaltools.gnu-tools-for-stm32.13.3.rel1.win32_1.0.0.202411081344\tools\bin\arm-none-eabi-gcc.exe
2025-03-22 09:17:53,738 [INFO] STM32CubeIDEBuilder:297 - ret=C:\ST\STM32CubeIDE_1.16.0\STM32CubeIDE\plugins\com.st.stm32cube.ide.mcu.externaltools.gnu-tools-for-stm32.13.3.rel1.win32_1.0.0.202411081344\tools\bin\arm-none-eabi-gcc.exe
2025-03-22 09:17:53,738 [INFO] STM32CubeIDEBuilder:311 - returning C:\ST\STM32CubeIDE_1.16.0\STM32CubeIDE\plugins\com.st.stm32cube.ide.mcu.externaltools.gnu-tools-for-stm32.13.3.rel1.win32_1.0.0.202411081344\tools\bin\arm-none-eabi-gcc.exe
2025-03-22 09:17:53,739 [INFO] AInterface:1189 - Custom PATH variable: C:/Users/OS/STM32Cube/Repository/Packs/STMicroelectronics/X-CUBE-AI/10.0.0/Utilities/windows;C:/Users/OS/STM32Cube/Repository/Packs/STMicroelectronics/X-CUBE-AI/10.0.0/Utilities/windows/mingw64/bin;C:/Users/OS/STM32Cube/Repository/Packs/STMicroelectronics/X-CUBE-AI/10.0.0/Utilities/windows/mingw64/libexec/gcc/x86_64-w64-mingw32/7.3.0;;C:\ST\STM32CubeIDE_1.16.0\STM32CubeIDE\plugins\com.st.stm32cube.ide.mcu.externaltools.gnu-tools-for-stm32.13.3.rel1.win32_1.0.0.202411081344\tools\bin
2025-03-22 09:17:53,740 [INFO] CmdLine:109 - Command: C:/Users/OS/STM32Cube/Repository/Packs/STMicroelectronics/X-CUBE-AI/10.0.0/Utilities/windows/stedgeai.exe analyze --target stm32f7 --name network -m C:/Users/OS/Downloads/train_mitbih_cnn (1).h5 --compression none --verbosity 1 --workspace C:/Users/OS/AppData/Local/Temp/mxAI_workspace41906607538007228825005382133649 --output C:/Users/OS/.stm32cubemx/network_output
2025-03-22 09:17:53,748 [INFO] AIModelDetailledView:2372 - Analysis status: pending
2025-03-22 09:17:54,399 [INFO] CmdLine:74 - ST Edge AI Core v2.0.0-20049
2025-03-22 09:17:59,928 [INFO] CmdLine:74 - E010(InvalidModelError): Couldn't load Keras model C:\Users\OS\Downloads\train_mitbih_cnn (1).h5,
2025-03-22 09:17:59,928 [INFO] CmdLine:74 - error: Error when deserializing class 'InputLayer' using config={'batch_shape': [1, 187, 1], 'dtype': 'float32', 'sparse': False, 'name': 'input_layer_2'}.
2025-03-22 09:17:59,929 [INFO] CmdLine:74 - Exception encountered: Unrecognized keyword arguments: ['batch_shape']
2025-03-22 09:18:00,448 [INFO] CmdLine:142 - stedgeai exit with status: -1
2025-03-22 09:18:00,448 [ERROR] CmdLine:145 - stedgeai return with an error
2025-03-22 09:18:00,455 [ERROR] AIModelDetailledView:2753 - Analyze fail on the AI model
2025-03-22 09:18:00,456 [INFO] AIModelDetailledView:2372 - Analysis status: error
2025-03-22 09:18:22,868 [INFO] AIModelDetailledView:2372 - Analysis status: -
2025-03-22 09:18:22,924 [INFO] AInterface:254 - ModelName:network; files:[D:\model_ex\train_mitbih_cnn.h5]; type:Keras; compression:None
2025-03-22 09:18:22,925 [INFO] AInterface:519 - workspaceTempDir: C:/Users/OS/AppData/Local/Temp/mxAI_workspace42198637110007606205591808902728
2025-03-22 09:18:22,926 [INFO] AInterface:1132 - Setting Env: C:/Users/OS/STM32Cube/Repository/Packs/STMicroelectronics/X-CUBE-AI/10.0.0/Utilities/windows
2025-03-22 09:18:22,934 [INFO] STM32CubeIDEBuilder:265 - Looking for gnu-tools-for-stm32 tools/bin/arm-none-eabi-gcc.exe in C:\ST\STM32CubeIDE_1.16.0\STM32CubeIDE
2025-03-22 09:18:22,940 [INFO] STM32CubeIDEBuilder:294 - checking C:\ST\STM32CubeIDE_1.16.0\STM32CubeIDE\plugins\com.st.stm32cube.ide.mcu.externaltools.gnu-tools-for-stm32.13.3.rel1.win32_1.0.0.202411081344\tools\bin\arm-none-eabi-gcc.exe
2025-03-22 09:18:22,940 [INFO] STM32CubeIDEBuilder:297 - ret=C:\ST\STM32CubeIDE_1.16.0\STM32CubeIDE\plugins\com.st.stm32cube.ide.mcu.externaltools.gnu-tools-for-stm32.13.3.rel1.win32_1.0.0.202411081344\tools\bin\arm-none-eabi-gcc.exe
2025-03-22 09:18:22,941 [INFO] STM32CubeIDEBuilder:311 - returning C:\ST\STM32CubeIDE_1.16.0\STM32CubeIDE\plugins\com.st.stm32cube.ide.mcu.externaltools.gnu-tools-for-stm32.13.3.rel1.win32_1.0.0.202411081344\tools\bin\arm-none-eabi-gcc.exe
2025-03-22 09:18:22,941 [INFO] AInterface:1189 - Custom PATH variable: C:/Users/OS/STM32Cube/Repository/Packs/STMicroelectronics/X-CUBE-AI/10.0.0/Utilities/windows;C:/Users/OS/STM32Cube/Repository/Packs/STMicroelectronics/X-CUBE-AI/10.0.0/Utilities/windows/mingw64/bin;C:/Users/OS/STM32Cube/Repository/Packs/STMicroelectronics/X-CUBE-AI/10.0.0/Utilities/windows/mingw64/libexec/gcc/x86_64-w64-mingw32/7.3.0;;C:\ST\STM32CubeIDE_1.16.0\STM32CubeIDE\plugins\com.st.stm32cube.ide.mcu.externaltools.gnu-tools-for-stm32.13.3.rel1.win32_1.0.0.202411081344\tools\bin
2025-03-22 09:18:22,942 [INFO] CmdLine:109 - Command: C:/Users/OS/STM32Cube/Repository/Packs/STMicroelectronics/X-CUBE-AI/10.0.0/Utilities/windows/stedgeai.exe analyze --target stm32f7 --name network -m D:/model_ex/train_mitbih_cnn.h5 --compression none --verbosity 1 --workspace C:/Users/OS/AppData/Local/Temp/mxAI_workspace42198637110007606205591808902728 --output C:/Users/OS/.stm32cubemx/network_output
2025-03-22 09:18:22,946 [INFO] AIModelDetailledView:2372 - Analysis status: pending
2025-03-22 09:18:23,602 [INFO] CmdLine:74 - ST Edge AI Core v2.0.0-20049
2025-03-22 09:18:38,565 [INFO] CmdLine:74 - Creating c (debug) info json file C:\Users\OS\AppData\Local\Temp\mxAI_workspace42198637110007606205591808902728\network_c_info.json
2025-03-22 09:18:38,699 [INFO] CmdLine:74 -  
2025-03-22 09:18:38,700 [INFO] CmdLine:74 -  Exec/report summary (analyze)
2025-03-22 09:18:38,700 [INFO] CmdLine:74 -  -------------------------------------------------------------------------------------------------------
2025-03-22 09:18:38,700 [INFO] CmdLine:74 -  model file         :   D:\model_ex\train_mitbih_cnn.h5                                                 
2025-03-22 09:18:38,701 [INFO] CmdLine:74 -  type               :   keras                                                                           
2025-03-22 09:18:38,702 [INFO] CmdLine:74 -  c_name             :   network                                                                         
2025-03-22 09:18:38,703 [INFO] CmdLine:74 -  compression        :   none                                                                            
2025-03-22 09:18:38,703 [INFO] CmdLine:74 -  options            :   allocate-inputs, allocate-outputs                                               
2025-03-22 09:18:38,706 [INFO] CmdLine:74 -  optimization       :   balanced                                                                        
2025-03-22 09:18:38,707 [INFO] CmdLine:74 -  target/series      :   stm32f7                                                                         
2025-03-22 09:18:38,708 [INFO] CmdLine:74 -  workspace dir      :   C:\Users\OS\AppData\Local\Temp\mxAI_workspace42198637110007606205591808902728   
2025-03-22 09:18:38,709 [INFO] CmdLine:74 -  output dir         :   C:\Users\OS\.stm32cubemx\network_output                                         
2025-03-22 09:18:38,709 [INFO] CmdLine:74 -  model_fmt          :   float                                                                           
2025-03-22 09:18:38,709 [INFO] CmdLine:74 -  model_name         :   train_mitbih_cnn                                                                
2025-03-22 09:18:38,710 [INFO] CmdLine:74 -  model_hash         :   0xfb63ca31bd9e14667c14d98b07694101                                              
2025-03-22 09:18:38,710 [INFO] CmdLine:74 -  params #           :   254,901 items (995.71 KiB)                                                      
2025-03-22 09:18:38,710 [INFO] CmdLine:74 -  -------------------------------------------------------------------------------------------------------
2025-03-22 09:18:38,711 [INFO] CmdLine:74 -  input 1/1          :   'input_1', f32(1x187x1), 748 Bytes, activations                                 
2025-03-22 09:18:38,711 [INFO] CmdLine:74 -  output 1/1         :   'dense_3_mitbih', f32(1x5), 20 Bytes, activations                               
2025-03-22 09:18:38,711 [INFO] CmdLine:74 -  macc               :   4,299,424                                                                       
2025-03-22 09:18:38,711 [INFO] CmdLine:74 -  weights (ro)       :   1,019,604 B (995.71 KiB) (1 segment)                                            
2025-03-22 09:18:38,712 [INFO] CmdLine:74 -  activations (rw)   :   21,504 B (21.00 KiB) (1 segment) *                                              
2025-03-22 09:18:38,712 [INFO] CmdLine:74 -  ram (total)        :   21,504 B (21.00 KiB) = 21,504 + 0 + 0                                           
2025-03-22 09:18:38,712 [INFO] CmdLine:74 -  -------------------------------------------------------------------------------------------------------
2025-03-22 09:18:38,712 [INFO] CmdLine:74 -  (*) 'input'/'output' buffers can be used from the activations buffer
2025-03-22 09:18:38,791 [INFO] CmdLine:74 - Computing AI RT data/code size (target=stm32f7)..
2025-03-22 09:18:43,045 [INFO] CmdLine:74 -  Model name - train_mitbih_cnn
2025-03-22 09:18:43,046 [INFO] CmdLine:74 -  ------ ------------------------------------------------ ------------------ ----------------- ----------- ---------------------------
2025-03-22 09:18:43,047 [INFO] CmdLine:74 -  m_id   layer (original)                                 oshape             param/size               macc                connected to
2025-03-22 09:18:43,048 [INFO] CmdLine:74 -  ------ ------------------------------------------------ ------------------ ----------------- ----------- ---------------------------
2025-03-22 09:18:43,049 [INFO] CmdLine:74 -  0      input_1 (InputLayer)                             [b:1,h:187,c:1]
2025-03-22 09:18:43,049 [INFO] CmdLine:74 -  ------ ------------------------------------------------ ------------------ ----------------- ----------- ---------------------------
2025-03-22 09:18:43,050 [INFO] CmdLine:74 -  1      conv1d_conv2d (Conv1D)                           [b:1,h:183,c:16]   96/384                 14,656                     input_1
2025-03-22 09:18:43,051 [INFO] CmdLine:74 -         conv1d (Conv1D)                                  [b:1,h:183,c:16]                           2,928               conv1d_conv2d
2025-03-22 09:18:43,052 [INFO] CmdLine:74 -  ------ ------------------------------------------------ ------------------ ----------------- ----------- ---------------------------
2025-03-22 09:18:43,055 [INFO] CmdLine:74 -  2      conv1d_1_conv2d (Conv1D)                         [b:1,h:179,c:16]   1,296/5,184           229,136                      conv1d
2025-03-22 09:18:43,056 [INFO] CmdLine:74 -         conv1d_1 (Conv1D)                                [b:1,h:179,c:16]                           2,864             conv1d_1_conv2d
2025-03-22 09:18:43,057 [INFO] CmdLine:74 -  ------ ------------------------------------------------ ------------------ ----------------- ----------- ---------------------------
2025-03-22 09:18:43,058 [INFO] CmdLine:74 -  3      max_pooling1d (MaxPooling1D)                     [b:1,h:89,c:16]                            2,848                    conv1d_1
2025-03-22 09:18:43,059 [INFO] CmdLine:74 -  ------ ------------------------------------------------ ------------------ ----------------- ----------- ---------------------------
2025-03-22 09:18:43,060 [INFO] CmdLine:74 -  5      conv1d_2_conv2d (Conv1D)                         [b:1,h:87,c:32]    1,568/6,272           133,664               max_pooling1d
2025-03-22 09:18:43,061 [INFO] CmdLine:74 -         conv1d_2 (Conv1D)                                [b:1,h:87,c:32]                            2,784             conv1d_2_conv2d
2025-03-22 09:18:43,061 [INFO] CmdLine:74 -  ------ ------------------------------------------------ ------------------ ----------------- ----------- ---------------------------
2025-03-22 09:18:43,062 [INFO] CmdLine:74 -  6      conv1d_3_conv2d (Conv1D)                         [b:1,h:85,c:32]    3,104/12,416          261,152                    conv1d_2
2025-03-22 09:18:43,062 [INFO] CmdLine:74 -         conv1d_3 (Conv1D)                                [b:1,h:85,c:32]                            2,720             conv1d_3_conv2d
2025-03-22 09:18:43,063 [INFO] CmdLine:74 -  ------ ------------------------------------------------ ------------------ ----------------- ----------- ---------------------------
2025-03-22 09:18:43,063 [INFO] CmdLine:74 -  7      max_pooling1d_1 (MaxPooling1D)                   [b:1,h:42,c:32]                            2,688                    conv1d_3
2025-03-22 09:18:43,064 [INFO] CmdLine:74 -  ------ ------------------------------------------------ ------------------ ----------------- ----------- ---------------------------
2025-03-22 09:18:43,064 [INFO] CmdLine:74 -  9      conv1d_4_conv2d (Conv1D)                         [b:1,h:40,c:32]    3,104/12,416          122,912             max_pooling1d_1
2025-03-22 09:18:43,068 [INFO] CmdLine:74 -         conv1d_4 (Conv1D)                                [b:1,h:40,c:32]                            1,280             conv1d_4_conv2d
2025-03-22 09:18:43,070 [INFO] CmdLine:74 -  ------ ------------------------------------------------ ------------------ ----------------- ----------- ---------------------------
2025-03-22 09:18:43,070 [INFO] CmdLine:74 -  10     conv1d_5_conv2d (Conv1D)                         [b:1,h:38,c:32]    3,104/12,416          116,768                    conv1d_4
2025-03-22 09:18:43,071 [INFO] CmdLine:74 -         conv1d_5 (Conv1D)                                [b:1,h:38,c:32]                            1,216             conv1d_5_conv2d
2025-03-22 09:18:43,072 [INFO] CmdLine:74 -  ------ ------------------------------------------------ ------------------ ----------------- ----------- ---------------------------
2025-03-22 09:18:43,072 [INFO] CmdLine:74 -  11     max_pooling1d_2 (MaxPooling1D)                   [b:1,h:19,c:32]                            1,216                    conv1d_5
2025-03-22 09:18:43,073 [INFO] CmdLine:74 -  ------ ------------------------------------------------ ------------------ ----------------- ----------- ---------------------------
2025-03-22 09:18:43,074 [INFO] CmdLine:74 -  13     conv1d_6_conv2d (Conv1D)                         [b:1,h:17,c:256]   24,832/99,328         418,048             max_pooling1d_2
2025-03-22 09:18:43,075 [INFO] CmdLine:74 -         conv1d_6 (Conv1D)                                [b:1,h:17,c:256]                           4,352             conv1d_6_conv2d
2025-03-22 09:18:43,076 [INFO] CmdLine:74 -  ------ ------------------------------------------------ ------------------ ----------------- ----------- ---------------------------
2025-03-22 09:18:43,077 [INFO] CmdLine:74 -  14     conv1d_7_conv2d (Conv1D)                         [b:1,h:15,c:256]   196,864/787,456     2,949,376                    conv1d_6
2025-03-22 09:18:43,077 [INFO] CmdLine:74 -         conv1d_7 (Conv1D)                                [b:1,h:15,c:256]                           3,840             conv1d_7_conv2d
2025-03-22 09:18:43,078 [INFO] CmdLine:74 -  ------ ------------------------------------------------ ------------------ ----------------- ----------- ---------------------------
2025-03-22 09:18:43,078 [INFO] CmdLine:74 -  15     global_max_pooling1d_pool (GlobalMaxPooling1D)   [b:1,h:1,c:256]                            3,840                    conv1d_7
2025-03-22 09:18:43,079 [INFO] CmdLine:74 -         global_max_pooling1d (GlobalMaxPooling1D)        [b:1,c:256]                                        global_max_pooling1d_pool
2025-03-22 09:18:43,080 [INFO] CmdLine:74 -  ------ ------------------------------------------------ ------------------ ----------------- ----------- ---------------------------
2025-03-22 09:18:43,081 [INFO] CmdLine:74 -  17     dense_1_dense (Dense)                            [b:1,c:64]         16,448/65,792          16,448        global_max_pooling1d
2025-03-22 09:18:43,084 [INFO] CmdLine:74 -         dense_1 (Dense)                                  [b:1,c:64]                                    64               dense_1_dense
2025-03-22 09:18:43,085 [INFO] CmdLine:74 -  ------ ------------------------------------------------ ------------------ ----------------- ----------- ---------------------------
2025-03-22 09:18:43,087 [INFO] CmdLine:74 -  18     dense_2_dense (Dense)                            [b:1,c:64]         4,160/16,640            4,160                     dense_1
2025-03-22 09:18:43,088 [INFO] CmdLine:74 -         dense_2 (Dense)                                  [b:1,c:64]                                    64               dense_2_dense
2025-03-22 09:18:43,088 [INFO] CmdLine:74 -  ------ ------------------------------------------------ ------------------ ----------------- ----------- ---------------------------
2025-03-22 09:18:43,089 [INFO] CmdLine:74 -  19     dense_3_mitbih_dense (Dense)                     [b:1,c:5]          325/1,300                 325                     dense_2
2025-03-22 09:18:43,089 [INFO] CmdLine:74 -         dense_3_mitbih (Dense)                           [b:1,c:5]                                     75        dense_3_mitbih_dense
2025-03-22 09:18:43,090 [INFO] CmdLine:74 -  ------ ------------------------------------------------ ------------------ ----------------- ----------- ---------------------------
2025-03-22 09:18:43,090 [INFO] CmdLine:74 -  model: macc=4,299,424 weights=1,019,604 activations=-- io=--
2025-03-22 09:18:43,090 [INFO] CmdLine:74 -  Number of operations per c-layer
2025-03-22 09:18:43,090 [INFO] CmdLine:74 -  ------- ------ ---------------------------------- ----------- --------------
2025-03-22 09:18:43,091 [INFO] CmdLine:74 -  c_id    m_id   name (type)                                #op           type
2025-03-22 09:18:43,091 [INFO] CmdLine:74 -  ------- ------ ---------------------------------- ----------- --------------
2025-03-22 09:18:43,092 [INFO] CmdLine:74 -  0       1      conv1d_conv2d (Conv2D)                  14,656   smul_f32_f32
2025-03-22 09:18:43,092 [INFO] CmdLine:74 -  1       1      conv1d (Nonlinearity)                    2,928     op_f32_f32
2025-03-22 09:18:43,095 [INFO] CmdLine:74 -  2       3      conv1d_1_conv2d (Conv2D)               234,848   smul_f32_f32
2025-03-22 09:18:43,096 [INFO] CmdLine:74 -  3       5      conv1d_2_conv2d (Conv2D)               133,664   smul_f32_f32
2025-03-22 09:18:43,096 [INFO] CmdLine:74 -  4       5      conv1d_2 (Nonlinearity)                  2,784     op_f32_f32
2025-03-22 09:18:43,097 [INFO] CmdLine:74 -  5       7      conv1d_3_conv2d (Conv2D)               266,560   smul_f32_f32
2025-03-22 09:18:43,097 [INFO] CmdLine:74 -  6       9      conv1d_4_conv2d (Conv2D)               122,912   smul_f32_f32
2025-03-22 09:18:43,098 [INFO] CmdLine:74 -  7       9      conv1d_4 (Nonlinearity)                  1,280     op_f32_f32
2025-03-22 09:18:43,098 [INFO] CmdLine:74 -  8       11     conv1d_5_conv2d (Conv2D)               119,200   smul_f32_f32
2025-03-22 09:18:43,099 [INFO] CmdLine:74 -  9       13     conv1d_6_conv2d (Conv2D)               418,048   smul_f32_f32
2025-03-22 09:18:43,100 [INFO] CmdLine:74 -  10      13     conv1d_6 (Nonlinearity)                  4,352     op_f32_f32
2025-03-22 09:18:43,101 [INFO] CmdLine:74 -  11      14     conv1d_7_conv2d (Conv2D)             2,949,376   smul_f32_f32
2025-03-22 09:18:43,103 [INFO] CmdLine:74 -  12      14     conv1d_7 (Nonlinearity)                  3,840     op_f32_f32
2025-03-22 09:18:43,104 [INFO] CmdLine:74 -  13      15     global_max_pooling1d_pool (Pool)         3,840   smul_f32_f32
2025-03-22 09:18:43,105 [INFO] CmdLine:74 -  14      17     dense_1_dense (Dense)                   16,448   smul_f32_f32
2025-03-22 09:18:43,106 [INFO] CmdLine:74 -  15      17     dense_1 (Nonlinearity)                      64     op_f32_f32
2025-03-22 09:18:43,108 [INFO] CmdLine:74 -  16      18     dense_2_dense (Dense)                    4,160   smul_f32_f32
2025-03-22 09:18:43,109 [INFO] CmdLine:74 -  17      18     dense_2 (Nonlinearity)                      64     op_f32_f32
2025-03-22 09:18:43,109 [INFO] CmdLine:74 -  18      19     dense_3_mitbih_dense (Dense)               325   smul_f32_f32
2025-03-22 09:18:43,110 [INFO] CmdLine:74 -  19      19     dense_3_mitbih (Nonlinearity)               75     op_f32_f32
2025-03-22 09:18:43,110 [INFO] CmdLine:74 -  ------- ------ ---------------------------------- ----------- --------------
2025-03-22 09:18:43,110 [INFO] CmdLine:74 -  total                                               4,299,424
2025-03-22 09:18:43,111 [INFO] CmdLine:74 -  Number of operation types
2025-03-22 09:18:43,111 [INFO] CmdLine:74 -  ---------------- ----------- -----------
2025-03-22 09:18:43,112 [INFO] CmdLine:74 -  operation type             #           %
2025-03-22 09:18:43,113 [INFO] CmdLine:74 -  ---------------- ----------- -----------
2025-03-22 09:18:43,113 [INFO] CmdLine:74 -  smul_f32_f32       4,284,037       99.6%
2025-03-22 09:18:43,114 [INFO] CmdLine:74 -  op_f32_f32            15,387        0.4%
2025-03-22 09:18:43,114 [INFO] CmdLine:74 -  Complexity report (model)
2025-03-22 09:18:43,115 [INFO] CmdLine:74 -  ------ --------------------------- ------------------------- ------------------------- ----------
2025-03-22 09:18:43,115 [INFO] CmdLine:74 -  m_id   name                        c_macc                    c_rom                     c_id
2025-03-22 09:18:43,116 [INFO] CmdLine:74 -  ------ --------------------------- ------------------------- ------------------------- ----------
2025-03-22 09:18:43,116 [INFO] CmdLine:74 -  1      conv1d_conv2d               |                  0.4%   |                  0.0%   [0, 1]
2025-03-22 09:18:43,117 [INFO] CmdLine:74 -  3      max_pooling1d               ||                 5.5%   |                  0.5%   [2]
2025-03-22 09:18:43,117 [INFO] CmdLine:74 -  5      conv1d_2_conv2d             |                  3.2%   |                  0.6%   [3, 4]
2025-03-22 09:18:43,117 [INFO] CmdLine:74 -  7      max_pooling1d_1             ||                 6.2%   |                  1.2%   [5]
2025-03-22 09:18:43,118 [INFO] CmdLine:74 -  9      conv1d_4_conv2d             |                  2.9%   |                  1.2%   [6, 7]
2025-03-22 09:18:43,139 [INFO] CmdLine:74 -  11     max_pooling1d_2             |                  2.8%   |                  1.2%   [8]
2025-03-22 09:18:43,140 [INFO] CmdLine:74 -  13     conv1d_6_conv2d             |||                9.8%   ||                 9.7%   [9, 10]
2025-03-22 09:18:43,141 [INFO] CmdLine:74 -  14     conv1d_7_conv2d             ||||||||||||||||  68.7%   ||||||||||||||||  77.2%   [11, 12]
2025-03-22 09:18:43,142 [INFO] CmdLine:74 -  15     global_max_pooling1d_pool   |                  0.1%   |                  0.0%   [13]
2025-03-22 09:18:43,143 [INFO] CmdLine:74 -  17     dense_1_dense               |                  0.4%   ||                 6.5%   [14, 15]
2025-03-22 09:18:43,158 [INFO] CmdLine:74 -  18     dense_2_dense               |                  0.1%   |                  1.6%   [16, 17]
2025-03-22 09:18:43,163 [INFO] CmdLine:74 -  19     dense_3_mitbih_dense        |                  0.0%   |                  0.1%   [18, 19]
2025-03-22 09:18:43,164 [INFO] CmdLine:74 -  ------ --------------------------- ------------------------- ------------------------- ----------
2025-03-22 09:18:43,165 [INFO] CmdLine:74 -  macc=4,299,424 weights=1,019,604 act=21,504 ram_io=0
2025-03-22 09:18:43,166 [INFO] CmdLine:74 -  Requested memory size by section - "stm32f7" target
2025-03-22 09:18:43,171 [INFO] CmdLine:74 -  ------------------------------ -------- ----------- ------- --------
2025-03-22 09:18:43,173 [INFO] CmdLine:74 -  module                             text      rodata    data      bss
2025-03-22 09:18:43,174 [INFO] CmdLine:74 -  ------------------------------ -------- ----------- ------- --------
2025-03-22 09:18:43,175 [INFO] CmdLine:74 -  NetworkRuntime1000_CM7_GCC.a     14,184           0       0        0
2025-03-22 09:18:43,177 [INFO] CmdLine:74 -  network.o                         1,256         160   6,656      388
2025-03-22 09:18:43,182 [INFO] CmdLine:74 -  network_data.o                       48          16      88        0
2025-03-22 09:18:43,202 [INFO] CmdLine:74 -  lib (toolchain)*                    614          24       0        0
2025-03-22 09:18:43,204 [INFO] CmdLine:74 -  ------------------------------ -------- ----------- ------- --------
2025-03-22 09:18:43,205 [INFO] CmdLine:74 -  RT total**                       16,102         200   6,744      388
2025-03-22 09:18:43,206 [INFO] CmdLine:74 -  ------------------------------ -------- ----------- ------- --------
2025-03-22 09:18:43,207 [INFO] CmdLine:74 -  weights                               0   1,019,608       0        0
2025-03-22 09:18:43,208 [INFO] CmdLine:74 -  activations                           0           0       0   21,504
2025-03-22 09:18:43,208 [INFO] CmdLine:74 -  io                                    0           0       0        0
2025-03-22 09:18:43,209 [INFO] CmdLine:74 -  ------------------------------ -------- ----------- ------- --------
2025-03-22 09:18:43,209 [INFO] CmdLine:74 -  TOTAL                            16,102   1,019,808   6,744   21,892
2025-03-22 09:18:43,210 [INFO] CmdLine:74 -  ------------------------------ -------- ----------- ------- --------
2025-03-22 09:18:43,210 [INFO] CmdLine:74 -  *  toolchain objects (libm/libgcc*)
2025-03-22 09:18:43,211 [INFO] CmdLine:74 -  ** RT AI runtime objects (kernels+infrastructure)
2025-03-22 09:18:43,212 [INFO] CmdLine:74 -   Summary - "stm32f7" target
2025-03-22 09:18:43,215 [INFO] CmdLine:74 -   --------------------------------------------------
2025-03-22 09:18:43,216 [INFO] CmdLine:74 -                FLASH (ro)     %*   RAM (rw)       %
2025-03-22 09:18:43,217 [INFO] CmdLine:74 -   --------------------------------------------------
2025-03-22 09:18:43,223 [INFO] CmdLine:74 -   RT total         23,046   2.2%      7,132   24.9%
2025-03-22 09:18:43,223 [INFO] CmdLine:74 -   --------------------------------------------------
2025-03-22 09:18:43,224 [INFO] CmdLine:74 -   TOTAL         1,042,654            28,636
2025-03-22 09:18:43,224 [INFO] CmdLine:74 -   --------------------------------------------------
2025-03-22 09:18:43,227 [INFO] CmdLine:74 -   *  rt/total
2025-03-22 09:18:43,227 [INFO] CmdLine:74 - Creating txt report file C:\Users\OS\.stm32cubemx\network_output\network_analyze_report.txt
2025-03-22 09:18:52,435 [INFO] CmdLine:74 - elapsed time (analyze): 28.832s
2025-03-22 09:18:52,976 [INFO] CmdLine:142 - stedgeai exit with status: 0
2025-03-22 09:18:52,994 [INFO] AIModelDetailledView:1176 - Model file:      train_mitbih_cnn.h5
2025-03-22 09:18:52,995 [INFO] AIModelDetailledView:1176 - Total Flash:     1042650 B (1018.21 KiB)
2025-03-22 09:18:52,995 [INFO] AIModelDetailledView:1176 -     Weights:     1019604 B (995.71 KiB)
2025-03-22 09:18:52,995 [INFO] AIModelDetailledView:1176 -     Library:     23046 B (22.51 KiB)
2025-03-22 09:18:52,996 [INFO] AIModelDetailledView:1176 - Total Ram:       28636 B (27.96 KiB)
2025-03-22 09:18:52,997 [INFO] AIModelDetailledView:1176 -     Activations: 21504 B (21.00 KiB)
2025-03-22 09:18:52,997 [INFO] AIModelDetailledView:1176 -     Library:     7132 B (6.96 KiB)
2025-03-22 09:18:52,997 [INFO] AIModelDetailledView:1176 -     Input:       748 B (included in Activations)
2025-03-22 09:18:52,998 [INFO] AIModelDetailledView:1176 -     Output:      20 B (included in Activations)
2025-03-22 09:18:52,998 [INFO] AIModelDetailledView:1176 - Done
2025-03-22 09:18:52,999 [INFO] AIModelDetailledView:2707 - Analyze complete on AI model
2025-03-22 09:18:53,002 [INFO] AIModelDetailledView:2372 - Analysis status: done
2025-03-22 10:02:21,946 [INFO] AIModelDetailledView:2372 - Analysis status: -
2025-03-22 10:02:22,043 [INFO] AInterface:254 - ModelName:network; files:[D:\model_ex\train_mitbih_cnn.h5]; type:Keras; compression:None
2025-03-22 10:02:22,048 [INFO] AInterface:519 - workspaceTempDir: C:/Users/OS/AppData/Local/Temp/mxAI_workspace685898422520017068508967057073780
2025-03-22 10:02:22,051 [INFO] AInterface:1132 - Setting Env: C:/Users/OS/STM32Cube/Repository/Packs/STMicroelectronics/X-CUBE-AI/10.0.0/Utilities/windows
2025-03-22 10:02:22,079 [INFO] STM32CubeIDEBuilder:265 - Looking for gnu-tools-for-stm32 tools/bin/arm-none-eabi-gcc.exe in C:\ST\STM32CubeIDE_1.16.0\STM32CubeIDE
2025-03-22 10:02:22,111 [INFO] STM32CubeIDEBuilder:294 - checking C:\ST\STM32CubeIDE_1.16.0\STM32CubeIDE\plugins\com.st.stm32cube.ide.mcu.externaltools.gnu-tools-for-stm32.13.3.rel1.win32_1.0.0.202411081344\tools\bin\arm-none-eabi-gcc.exe
2025-03-22 10:02:22,112 [INFO] STM32CubeIDEBuilder:297 - ret=C:\ST\STM32CubeIDE_1.16.0\STM32CubeIDE\plugins\com.st.stm32cube.ide.mcu.externaltools.gnu-tools-for-stm32.13.3.rel1.win32_1.0.0.202411081344\tools\bin\arm-none-eabi-gcc.exe
2025-03-22 10:02:22,112 [INFO] STM32CubeIDEBuilder:311 - returning C:\ST\STM32CubeIDE_1.16.0\STM32CubeIDE\plugins\com.st.stm32cube.ide.mcu.externaltools.gnu-tools-for-stm32.13.3.rel1.win32_1.0.0.202411081344\tools\bin\arm-none-eabi-gcc.exe
2025-03-22 10:02:22,113 [INFO] AInterface:1189 - Custom PATH variable: C:/Users/OS/STM32Cube/Repository/Packs/STMicroelectronics/X-CUBE-AI/10.0.0/Utilities/windows;C:/Users/OS/STM32Cube/Repository/Packs/STMicroelectronics/X-CUBE-AI/10.0.0/Utilities/windows/mingw64/bin;C:/Users/OS/STM32Cube/Repository/Packs/STMicroelectronics/X-CUBE-AI/10.0.0/Utilities/windows/mingw64/libexec/gcc/x86_64-w64-mingw32/7.3.0;;C:\ST\STM32CubeIDE_1.16.0\STM32CubeIDE\plugins\com.st.stm32cube.ide.mcu.externaltools.gnu-tools-for-stm32.13.3.rel1.win32_1.0.0.202411081344\tools\bin
2025-03-22 10:02:22,117 [INFO] CmdLine:109 - Command: C:/Users/OS/STM32Cube/Repository/Packs/STMicroelectronics/X-CUBE-AI/10.0.0/Utilities/windows/stedgeai.exe analyze --target stm32f7 --name network -m D:/model_ex/train_mitbih_cnn.h5 --compression none --verbosity 1 --workspace C:/Users/OS/AppData/Local/Temp/mxAI_workspace685898422520017068508967057073780 --output C:/Users/OS/.stm32cubemx/network_output
2025-03-22 10:02:22,127 [INFO] AIModelDetailledView:2372 - Analysis status: pending
2025-03-22 10:02:22,776 [INFO] CmdLine:74 - ST Edge AI Core v2.0.0-20049
2025-03-22 10:02:36,743 [INFO] CmdLine:74 - Creating c (debug) info json file C:\Users\OS\AppData\Local\Temp\mxAI_workspace685898422520017068508967057073780\network_c_info.json
2025-03-22 10:02:36,805 [INFO] CmdLine:74 -  
2025-03-22 10:02:36,806 [INFO] CmdLine:74 -  Exec/report summary (analyze)
2025-03-22 10:02:36,806 [INFO] CmdLine:74 -  --------------------------------------------------------------------------------------------------------
2025-03-22 10:02:36,806 [INFO] CmdLine:74 -  model file         :   D:\model_ex\train_mitbih_cnn.h5                                                  
2025-03-22 10:02:36,806 [INFO] CmdLine:74 -  type               :   keras                                                                            
2025-03-22 10:02:36,807 [INFO] CmdLine:74 -  c_name             :   network                                                                          
2025-03-22 10:02:36,808 [INFO] CmdLine:74 -  compression        :   none                                                                             
2025-03-22 10:02:36,809 [INFO] CmdLine:74 -  options            :   allocate-inputs, allocate-outputs                                                
2025-03-22 10:02:36,809 [INFO] CmdLine:74 -  optimization       :   balanced                                                                         
2025-03-22 10:02:36,810 [INFO] CmdLine:74 -  target/series      :   stm32f7                                                                          
2025-03-22 10:02:36,810 [INFO] CmdLine:74 -  workspace dir      :   C:\Users\OS\AppData\Local\Temp\mxAI_workspace685898422520017068508967057073780   
2025-03-22 10:02:36,810 [INFO] CmdLine:74 -  output dir         :   C:\Users\OS\.stm32cubemx\network_output                                          
2025-03-22 10:02:36,811 [INFO] CmdLine:74 -  model_fmt          :   float                                                                            
2025-03-22 10:02:36,812 [INFO] CmdLine:74 -  model_name         :   train_mitbih_cnn                                                                 
2025-03-22 10:02:36,812 [INFO] CmdLine:74 -  model_hash         :   0x8cb24a713f8f7142d814a797cd53fcb8                                               
2025-03-22 10:02:36,812 [INFO] CmdLine:74 -  params #           :   254,901 items (995.71 KiB)                                                       
2025-03-22 10:02:36,812 [INFO] CmdLine:74 -  --------------------------------------------------------------------------------------------------------
2025-03-22 10:02:36,814 [INFO] CmdLine:74 -  input 1/1          :   'input_3', f32(1x187x1), 748 Bytes, activations                                  
2025-03-22 10:02:36,814 [INFO] CmdLine:74 -  output 1/1         :   'dense_3_mitbih', f32(1x5), 20 Bytes, activations                                
2025-03-22 10:02:36,814 [INFO] CmdLine:74 -  macc               :   4,299,424                                                                        
2025-03-22 10:02:36,814 [INFO] CmdLine:74 -  weights (ro)       :   1,019,604 B (995.71 KiB) (1 segment)                                             
2025-03-22 10:02:36,815 [INFO] CmdLine:74 -  activations (rw)   :   21,504 B (21.00 KiB) (1 segment) *                                               
2025-03-22 10:02:36,815 [INFO] CmdLine:74 -  ram (total)        :   21,504 B (21.00 KiB) = 21,504 + 0 + 0                                            
2025-03-22 10:02:36,815 [INFO] CmdLine:74 -  --------------------------------------------------------------------------------------------------------
2025-03-22 10:02:36,815 [INFO] CmdLine:74 -  (*) 'input'/'output' buffers can be used from the activations buffer
2025-03-22 10:02:36,824 [INFO] CmdLine:74 - Computing AI RT data/code size (target=stm32f7)..
2025-03-22 10:02:38,987 [INFO] CmdLine:74 -  Model name - train_mitbih_cnn
2025-03-22 10:02:38,987 [INFO] CmdLine:74 -  ------ -------------------------------------------------- ------------------ ----------------- ----------- -----------------------------
2025-03-22 10:02:38,988 [INFO] CmdLine:74 -  m_id   layer (original)                                   oshape             param/size               macc                  connected to
2025-03-22 10:02:38,988 [INFO] CmdLine:74 -  ------ -------------------------------------------------- ------------------ ----------------- ----------- -----------------------------
2025-03-22 10:02:38,989 [INFO] CmdLine:74 -  0      input_3 (InputLayer)                               [b:1,h:187,c:1]
2025-03-22 10:02:38,990 [INFO] CmdLine:74 -  ------ -------------------------------------------------- ------------------ ----------------- ----------- -----------------------------
2025-03-22 10:02:38,990 [INFO] CmdLine:74 -  1      conv1d_16_conv2d (Conv1D)                          [b:1,h:183,c:16]   96/384                 14,656                       input_3
2025-03-22 10:02:38,991 [INFO] CmdLine:74 -         conv1d_16 (Conv1D)                                 [b:1,h:183,c:16]                           2,928              conv1d_16_conv2d
2025-03-22 10:02:38,992 [INFO] CmdLine:74 -  ------ -------------------------------------------------- ------------------ ----------------- ----------- -----------------------------
2025-03-22 10:02:38,993 [INFO] CmdLine:74 -  2      conv1d_17_conv2d (Conv1D)                          [b:1,h:179,c:16]   1,296/5,184           229,136                     conv1d_16
2025-03-22 10:02:38,993 [INFO] CmdLine:74 -         conv1d_17 (Conv1D)                                 [b:1,h:179,c:16]                           2,864              conv1d_17_conv2d
2025-03-22 10:02:38,994 [INFO] CmdLine:74 -  ------ -------------------------------------------------- ------------------ ----------------- ----------- -----------------------------
2025-03-22 10:02:38,994 [INFO] CmdLine:74 -  3      max_pooling1d_6 (MaxPooling1D)                     [b:1,h:89,c:16]                            2,848                     conv1d_17
2025-03-22 10:02:38,995 [INFO] CmdLine:74 -  ------ -------------------------------------------------- ------------------ ----------------- ----------- -----------------------------
2025-03-22 10:02:38,996 [INFO] CmdLine:74 -  5      conv1d_18_conv2d (Conv1D)                          [b:1,h:87,c:32]    1,568/6,272           133,664               max_pooling1d_6
2025-03-22 10:02:38,996 [INFO] CmdLine:74 -         conv1d_18 (Conv1D)                                 [b:1,h:87,c:32]                            2,784              conv1d_18_conv2d
2025-03-22 10:02:38,997 [INFO] CmdLine:74 -  ------ -------------------------------------------------- ------------------ ----------------- ----------- -----------------------------
2025-03-22 10:02:38,998 [INFO] CmdLine:74 -  6      conv1d_19_conv2d (Conv1D)                          [b:1,h:85,c:32]    3,104/12,416          261,152                     conv1d_18
2025-03-22 10:02:38,998 [INFO] CmdLine:74 -         conv1d_19 (Conv1D)                                 [b:1,h:85,c:32]                            2,720              conv1d_19_conv2d
2025-03-22 10:02:38,998 [INFO] CmdLine:74 -  ------ -------------------------------------------------- ------------------ ----------------- ----------- -----------------------------
2025-03-22 10:02:38,999 [INFO] CmdLine:74 -  7      max_pooling1d_7 (MaxPooling1D)                     [b:1,h:42,c:32]                            2,688                     conv1d_19
2025-03-22 10:02:38,999 [INFO] CmdLine:74 -  ------ -------------------------------------------------- ------------------ ----------------- ----------- -----------------------------
2025-03-22 10:02:39,000 [INFO] CmdLine:74 -  9      conv1d_20_conv2d (Conv1D)                          [b:1,h:40,c:32]    3,104/12,416          122,912               max_pooling1d_7
2025-03-22 10:02:39,000 [INFO] CmdLine:74 -         conv1d_20 (Conv1D)                                 [b:1,h:40,c:32]                            1,280              conv1d_20_conv2d
2025-03-22 10:02:39,001 [INFO] CmdLine:74 -  ------ -------------------------------------------------- ------------------ ----------------- ----------- -----------------------------
2025-03-22 10:02:39,001 [INFO] CmdLine:74 -  10     conv1d_21_conv2d (Conv1D)                          [b:1,h:38,c:32]    3,104/12,416          116,768                     conv1d_20
2025-03-22 10:02:39,004 [INFO] CmdLine:74 -         conv1d_21 (Conv1D)                                 [b:1,h:38,c:32]                            1,216              conv1d_21_conv2d
2025-03-22 10:02:39,004 [INFO] CmdLine:74 -  ------ -------------------------------------------------- ------------------ ----------------- ----------- -----------------------------
2025-03-22 10:02:39,005 [INFO] CmdLine:74 -  11     max_pooling1d_8 (MaxPooling1D)                     [b:1,h:19,c:32]                            1,216                     conv1d_21
2025-03-22 10:02:39,005 [INFO] CmdLine:74 -  ------ -------------------------------------------------- ------------------ ----------------- ----------- -----------------------------
2025-03-22 10:02:39,006 [INFO] CmdLine:74 -  13     conv1d_22_conv2d (Conv1D)                          [b:1,h:17,c:256]   24,832/99,328         418,048               max_pooling1d_8
2025-03-22 10:02:39,006 [INFO] CmdLine:74 -         conv1d_22 (Conv1D)                                 [b:1,h:17,c:256]                           4,352              conv1d_22_conv2d
2025-03-22 10:02:39,007 [INFO] CmdLine:74 -  ------ -------------------------------------------------- ------------------ ----------------- ----------- -----------------------------
2025-03-22 10:02:39,009 [INFO] CmdLine:74 -  14     conv1d_23_conv2d (Conv1D)                          [b:1,h:15,c:256]   196,864/787,456     2,949,376                     conv1d_22
2025-03-22 10:02:39,010 [INFO] CmdLine:74 -         conv1d_23 (Conv1D)                                 [b:1,h:15,c:256]                           3,840              conv1d_23_conv2d
2025-03-22 10:02:39,010 [INFO] CmdLine:74 -  ------ -------------------------------------------------- ------------------ ----------------- ----------- -----------------------------
2025-03-22 10:02:39,011 [INFO] CmdLine:74 -  15     global_max_pooling1d_2_pool (GlobalMaxPooling1D)   [b:1,h:1,c:256]                            3,840                     conv1d_23
2025-03-22 10:02:39,012 [INFO] CmdLine:74 -         global_max_pooling1d_2 (GlobalMaxPooling1D)        [b:1,c:256]                                        global_max_pooling1d_2_pool
2025-03-22 10:02:39,013 [INFO] CmdLine:74 -  ------ -------------------------------------------------- ------------------ ----------------- ----------- -----------------------------
2025-03-22 10:02:39,014 [INFO] CmdLine:74 -  17     dense_1_dense (Dense)                              [b:1,c:64]         16,448/65,792          16,448        global_max_pooling1d_2
2025-03-22 10:02:39,015 [INFO] CmdLine:74 -         dense_1 (Dense)                                    [b:1,c:64]                                    64                 dense_1_dense
2025-03-22 10:02:39,016 [INFO] CmdLine:74 -  ------ -------------------------------------------------- ------------------ ----------------- ----------- -----------------------------
2025-03-22 10:02:39,017 [INFO] CmdLine:74 -  18     dense_2_dense (Dense)                              [b:1,c:64]         4,160/16,640            4,160                       dense_1
2025-03-22 10:02:39,018 [INFO] CmdLine:74 -         dense_2 (Dense)                                    [b:1,c:64]                                    64                 dense_2_dense
2025-03-22 10:02:39,019 [INFO] CmdLine:74 -  ------ -------------------------------------------------- ------------------ ----------------- ----------- -----------------------------
2025-03-22 10:02:39,019 [INFO] CmdLine:74 -  19     dense_3_mitbih_dense (Dense)                       [b:1,c:5]          325/1,300                 325                       dense_2
2025-03-22 10:02:39,020 [INFO] CmdLine:74 -         dense_3_mitbih (Dense)                             [b:1,c:5]                                     75          dense_3_mitbih_dense
2025-03-22 10:02:39,020 [INFO] CmdLine:74 -  ------ -------------------------------------------------- ------------------ ----------------- ----------- -----------------------------
2025-03-22 10:02:39,021 [INFO] CmdLine:74 -  model: macc=4,299,424 weights=1,019,604 activations=-- io=--
2025-03-22 10:02:39,021 [INFO] CmdLine:74 -  Number of operations per c-layer
2025-03-22 10:02:39,022 [INFO] CmdLine:74 -  ------- ------ ------------------------------------ ----------- --------------
2025-03-22 10:02:39,023 [INFO] CmdLine:74 -  c_id    m_id   name (type)                                  #op           type
2025-03-22 10:02:39,023 [INFO] CmdLine:74 -  ------- ------ ------------------------------------ ----------- --------------
2025-03-22 10:02:39,024 [INFO] CmdLine:74 -  0       1      conv1d_16_conv2d (Conv2D)                 14,656   smul_f32_f32
2025-03-22 10:02:39,025 [INFO] CmdLine:74 -  1       1      conv1d_16 (Nonlinearity)                   2,928     op_f32_f32
2025-03-22 10:02:39,026 [INFO] CmdLine:74 -  2       3      conv1d_17_conv2d (Conv2D)                234,848   smul_f32_f32
2025-03-22 10:02:39,027 [INFO] CmdLine:74 -  3       5      conv1d_18_conv2d (Conv2D)                133,664   smul_f32_f32
2025-03-22 10:02:39,027 [INFO] CmdLine:74 -  4       5      conv1d_18 (Nonlinearity)                   2,784     op_f32_f32
2025-03-22 10:02:39,028 [INFO] CmdLine:74 -  5       7      conv1d_19_conv2d (Conv2D)                266,560   smul_f32_f32
2025-03-22 10:02:39,028 [INFO] CmdLine:74 -  6       9      conv1d_20_conv2d (Conv2D)                122,912   smul_f32_f32
2025-03-22 10:02:39,029 [INFO] CmdLine:74 -  7       9      conv1d_20 (Nonlinearity)                   1,280     op_f32_f32
2025-03-22 10:02:39,029 [INFO] CmdLine:74 -  8       11     conv1d_21_conv2d (Conv2D)                119,200   smul_f32_f32
2025-03-22 10:02:39,029 [INFO] CmdLine:74 -  9       13     conv1d_22_conv2d (Conv2D)                418,048   smul_f32_f32
2025-03-22 10:02:39,030 [INFO] CmdLine:74 -  10      13     conv1d_22 (Nonlinearity)                   4,352     op_f32_f32
2025-03-22 10:02:39,031 [INFO] CmdLine:74 -  11      14     conv1d_23_conv2d (Conv2D)              2,949,376   smul_f32_f32
2025-03-22 10:02:39,031 [INFO] CmdLine:74 -  12      14     conv1d_23 (Nonlinearity)                   3,840     op_f32_f32
2025-03-22 10:02:39,031 [INFO] CmdLine:74 -  13      15     global_max_pooling1d_2_pool (Pool)         3,840   smul_f32_f32
2025-03-22 10:02:39,032 [INFO] CmdLine:74 -  14      17     dense_1_dense (Dense)                     16,448   smul_f32_f32
2025-03-22 10:02:39,032 [INFO] CmdLine:74 -  15      17     dense_1 (Nonlinearity)                        64     op_f32_f32
2025-03-22 10:02:39,033 [INFO] CmdLine:74 -  16      18     dense_2_dense (Dense)                      4,160   smul_f32_f32
2025-03-22 10:02:39,034 [INFO] CmdLine:74 -  17      18     dense_2 (Nonlinearity)                        64     op_f32_f32
2025-03-22 10:02:39,034 [INFO] CmdLine:74 -  18      19     dense_3_mitbih_dense (Dense)                 325   smul_f32_f32
2025-03-22 10:02:39,034 [INFO] CmdLine:74 -  19      19     dense_3_mitbih (Nonlinearity)                 75     op_f32_f32
2025-03-22 10:02:39,035 [INFO] CmdLine:74 -  ------- ------ ------------------------------------ ----------- --------------
2025-03-22 10:02:39,035 [INFO] CmdLine:74 -  total                                                 4,299,424
2025-03-22 10:02:39,036 [INFO] CmdLine:74 -  Number of operation types
2025-03-22 10:02:39,036 [INFO] CmdLine:74 -  ---------------- ----------- -----------
2025-03-22 10:02:39,037 [INFO] CmdLine:74 -  operation type             #           %
2025-03-22 10:02:39,038 [INFO] CmdLine:74 -  ---------------- ----------- -----------
2025-03-22 10:02:39,039 [INFO] CmdLine:74 -  smul_f32_f32       4,284,037       99.6%
2025-03-22 10:02:39,039 [INFO] CmdLine:74 -  op_f32_f32            15,387        0.4%
2025-03-22 10:02:39,040 [INFO] CmdLine:74 -  Complexity report (model)
2025-03-22 10:02:39,042 [INFO] CmdLine:74 -  ------ ----------------------------- ------------------------- ------------------------- ----------
…
2025-03-22 11:49:53,330 [INFO] CmdLine:74 -         conv1d_67 (Conv1D)                                 [b:1,h:87,c:32]                            2,784              conv1d_67_conv2d
2025-03-22 11:49:53,331 [INFO] CmdLine:74 -  ------ -------------------------------------------------- ------------------ ----------------- ----------- -----------------------------
2025-03-22 11:49:53,331 [INFO] CmdLine:74 -  6      conv1d_68_conv2d (Conv1D)                          [b:1,h:85,c:32]    3,104/12,416          261,152                     conv1d_67
2025-03-22 11:49:53,332 [INFO] CmdLine:74 -         conv1d_68 (Conv1D)                                 [b:1,h:85,c:32]                            2,720              conv1d_68_conv2d
2025-03-22 11:49:53,332 [INFO] CmdLine:74 -  ------ -------------------------------------------------- ------------------ ----------------- ----------- -----------------------------
2025-03-22 11:49:53,333 [INFO] CmdLine:74 -  7      max_pooling1d_26 (MaxPooling1D)                    [b:1,h:42,c:32]                            2,688                     conv1d_68
2025-03-22 11:49:53,333 [INFO] CmdLine:74 -  ------ -------------------------------------------------- ------------------ ----------------- ----------- -----------------------------
2025-03-22 11:49:53,334 [INFO] CmdLine:74 -  9      conv1d_69_conv2d (Conv1D)                          [b:1,h:40,c:32]    3,104/12,416          122,912              max_pooling1d_26
2025-03-22 11:49:53,335 [INFO] CmdLine:74 -         conv1d_69 (Conv1D)                                 [b:1,h:40,c:32]                            1,280              conv1d_69_conv2d
2025-03-22 11:49:53,336 [INFO] CmdLine:74 -  ------ -------------------------------------------------- ------------------ ----------------- ----------- -----------------------------
2025-03-22 11:49:53,336 [INFO] CmdLine:74 -  10     conv1d_70_conv2d (Conv1D)                          [b:1,h:38,c:32]    3,104/12,416          116,768                     conv1d_69
2025-03-22 11:49:53,337 [INFO] CmdLine:74 -         conv1d_70 (Conv1D)                                 [b:1,h:38,c:32]                            1,216              conv1d_70_conv2d
2025-03-22 11:49:53,337 [INFO] CmdLine:74 -  ------ -------------------------------------------------- ------------------ ----------------- ----------- -----------------------------
2025-03-22 11:49:53,338 [INFO] CmdLine:74 -  11     max_pooling1d_27 (MaxPooling1D)                    [b:1,h:19,c:32]                            1,216                     conv1d_70
2025-03-22 11:49:53,338 [INFO] CmdLine:74 -  ------ -------------------------------------------------- ------------------ ----------------- ----------- -----------------------------
2025-03-22 11:49:53,339 [INFO] CmdLine:74 -  13     conv1d_71_conv2d (Conv1D)                          [b:1,h:17,c:256]   24,832/99,328         418,048              max_pooling1d_27
2025-03-22 11:49:53,339 [INFO] CmdLine:74 -         conv1d_71 (Conv1D)                                 [b:1,h:17,c:256]                           4,352              conv1d_71_conv2d
2025-03-22 11:49:53,340 [INFO] CmdLine:74 -  ------ -------------------------------------------------- ------------------ ----------------- ----------- -----------------------------
2025-03-22 11:49:53,340 [INFO] CmdLine:74 -  14     conv1d_72_conv2d (Conv1D)                          [b:1,h:15,c:256]   196,864/787,456     2,949,376                     conv1d_71
2025-03-22 11:49:53,341 [INFO] CmdLine:74 -         conv1d_72 (Conv1D)                                 [b:1,h:15,c:256]                           3,840              conv1d_72_conv2d
2025-03-22 11:49:53,341 [INFO] CmdLine:74 -  ------ -------------------------------------------------- ------------------ ----------------- ----------- -----------------------------
2025-03-22 11:49:53,342 [INFO] CmdLine:74 -  15     global_max_pooling1d_9_pool (GlobalMaxPooling1D)   [b:1,h:1,c:256]                            3,840                     conv1d_72
2025-03-22 11:49:53,342 [INFO] CmdLine:74 -         global_max_pooling1d_9 (GlobalMaxPooling1D)        [b:1,c:256]                                        global_max_pooling1d_9_pool
2025-03-22 11:49:53,343 [INFO] CmdLine:74 -  ------ -------------------------------------------------- ------------------ ----------------- ----------- -----------------------------
2025-03-22 11:49:53,344 [INFO] CmdLine:74 -  17     dense_1_dense (Dense)                              [b:1,c:64]         16,448/65,792          16,448        global_max_pooling1d_9
2025-03-22 11:49:53,345 [INFO] CmdLine:74 -         dense_1 (Dense)                                    [b:1,c:64]                                    64                 dense_1_dense
2025-03-22 11:49:53,345 [INFO] CmdLine:74 -  ------ -------------------------------------------------- ------------------ ----------------- ----------- -----------------------------
2025-03-22 11:49:53,346 [INFO] CmdLine:74 -  18     dense_2_dense (Dense)                              [b:1,c:64]         4,160/16,640            4,160                       dense_1
2025-03-22 11:49:53,346 [INFO] CmdLine:74 -         dense_2 (Dense)                                    [b:1,c:64]                                    64                 dense_2_dense
2025-03-22 11:49:53,347 [INFO] CmdLine:74 -  ------ -------------------------------------------------- ------------------ ----------------- ----------- -----------------------------
2025-03-22 11:49:53,347 [INFO] CmdLine:74 -  19     dense_3_ptbdb_dense (Dense)                        [b:1,c:1]          65/260                     65                       dense_2
2025-03-22 11:49:53,348 [INFO] CmdLine:74 -         dense_3_ptbdb (Dense)                              [b:1,c:1]                                     10           dense_3_ptbdb_dense
2025-03-22 11:49:53,348 [INFO] CmdLine:74 -  ------ -------------------------------------------------- ------------------ ----------------- ----------- -----------------------------
2025-03-22 11:49:53,349 [INFO] CmdLine:74 -  model: macc=4,299,099 weights=1,018,564 activations=-- io=--
2025-03-22 11:49:53,349 [INFO] CmdLine:74 -  Number of operations per c-layer
2025-03-22 11:49:53,350 [INFO] CmdLine:74 -  ------- ------ ------------------------------------ ----------- --------------
2025-03-22 11:49:53,350 [INFO] CmdLine:74 -  c_id    m_id   name (type)                                  #op           type
2025-03-22 11:49:53,350 [INFO] CmdLine:74 -  ------- ------ ------------------------------------ ----------- --------------
2025-03-22 11:49:53,351 [INFO] CmdLine:74 -  0       1      conv1d_65_conv2d (Conv2D)                 14,656   smul_f32_f32
2025-03-22 11:49:53,352 [INFO] CmdLine:74 -  1       1      conv1d_65 (Nonlinearity)                   2,928     op_f32_f32
2025-03-22 11:49:53,353 [INFO] CmdLine:74 -  2       3      conv1d_66_conv2d (Conv2D)                234,848   smul_f32_f32
2025-03-22 11:49:53,353 [INFO] CmdLine:74 -  3       5      conv1d_67_conv2d (Conv2D)                133,664   smul_f32_f32
2025-03-22 11:49:53,353 [INFO] CmdLine:74 -  4       5      conv1d_67 (Nonlinearity)                   2,784     op_f32_f32
2025-03-22 11:49:53,354 [INFO] CmdLine:74 -  5       7      conv1d_68_conv2d (Conv2D)                266,560   smul_f32_f32
2025-03-22 11:49:53,354 [INFO] CmdLine:74 -  6       9      conv1d_69_conv2d (Conv2D)                122,912   smul_f32_f32
2025-03-22 11:49:53,354 [INFO] CmdLine:74 -  7       9      conv1d_69 (Nonlinearity)                   1,280     op_f32_f32
2025-03-22 11:49:53,355 [INFO] CmdLine:74 -  8       11     conv1d_70_conv2d (Conv2D)                119,200   smul_f32_f32
2025-03-22 11:49:53,355 [INFO] CmdLine:74 -  9       13     conv1d_71_conv2d (Conv2D)                418,048   smul_f32_f32
2025-03-22 11:49:53,355 [INFO] CmdLine:74 -  10      13     conv1d_71 (Nonlinearity)                   4,352     op_f32_f32
2025-03-22 11:49:53,356 [INFO] CmdLine:74 -  11      14     conv1d_72_conv2d (Conv2D)              2,949,376   smul_f32_f32
2025-03-22 11:49:53,356 [INFO] CmdLine:74 -  12      14     conv1d_72 (Nonlinearity)                   3,840     op_f32_f32
2025-03-22 11:49:53,357 [INFO] CmdLine:74 -  13      15     global_max_pooling1d_9_pool (Pool)         3,840   smul_f32_f32
2025-03-22 11:49:53,357 [INFO] CmdLine:74 -  14      17     dense_1_dense (Dense)                     16,448   smul_f32_f32
2025-03-22 11:49:53,357 [INFO] CmdLine:74 -  15      17     dense_1 (Nonlinearity)                        64     op_f32_f32
2025-03-22 11:49:53,358 [INFO] CmdLine:74 -  16      18     dense_2_dense (Dense)                      4,160   smul_f32_f32
2025-03-22 11:49:53,358 [INFO] CmdLine:74 -  17      18     dense_2 (Nonlinearity)                        64     op_f32_f32
2025-03-22 11:49:53,358 [INFO] CmdLine:74 -  18      19     dense_3_ptbdb_dense (Dense)                   65   smul_f32_f32
2025-03-22 11:49:53,359 [INFO] CmdLine:74 -  19      19     dense_3_ptbdb (Nonlinearity)                  10     op_f32_f32
2025-03-22 11:49:53,359 [INFO] CmdLine:74 -  ------- ------ ------------------------------------ ----------- --------------
2025-03-22 11:49:53,359 [INFO] CmdLine:74 -  total                                                 4,299,099
2025-03-22 11:49:53,359 [INFO] CmdLine:74 -  Number of operation types
2025-03-22 11:49:53,360 [INFO] CmdLine:74 -  ---------------- ----------- -----------
2025-03-22 11:49:53,360 [INFO] CmdLine:74 -  operation type             #           %
2025-03-22 11:49:53,360 [INFO] CmdLine:74 -  ---------------- ----------- -----------
2025-03-22 11:49:53,360 [INFO] CmdLine:74 -  smul_f32_f32       4,283,777       99.6%
2025-03-22 11:49:53,361 [INFO] CmdLine:74 -  op_f32_f32            15,322        0.4%
2025-03-22 11:49:53,361 [INFO] CmdLine:74 -  Complexity report (model)
2025-03-22 11:49:53,361 [INFO] CmdLine:74 -  ------ ----------------------------- ------------------------- ------------------------- ----------
2025-03-22 11:49:53,362 [INFO] CmdLine:74 -  m_id   name                          c_macc                    c_rom                     c_id
2025-03-22 11:49:53,362 [INFO] CmdLine:74 -  ------ ----------------------------- ------------------------- ------------------------- ----------
2025-03-22 11:49:53,363 [INFO] CmdLine:74 -  1      conv1d_65_conv2d              |                  0.4%   |                  0.0%   [0, 1]
2025-03-22 11:49:53,363 [INFO] CmdLine:74 -  3      max_pooling1d_25              ||                 5.5%   |                  0.5%   [2]
2025-03-22 11:49:53,363 [INFO] CmdLine:74 -  5      conv1d_67_conv2d              |                  3.2%   |                  0.6%   [3, 4]
2025-03-22 11:49:53,364 [INFO] CmdLine:74 -  7      max_pooling1d_26              ||                 6.2%   |                  1.2%   [5]
2025-03-22 11:49:53,365 [INFO] CmdLine:74 -  9      conv1d_69_conv2d              |                  2.9%   |                  1.2%   [6, 7]
2025-03-22 11:49:53,365 [INFO] CmdLine:74 -  11     max_pooling1d_27              |                  2.8%   |                  1.2%   [8]
2025-03-22 11:49:53,365 [INFO] CmdLine:74 -  13     conv1d_71_conv2d              |||                9.8%   ||                 9.8%   [9, 10]
2025-03-22 11:49:53,366 [INFO] CmdLine:74 -  14     conv1d_72_conv2d              ||||||||||||||||  68.7%   ||||||||||||||||  77.4%   [11, 12]
2025-03-22 11:49:53,366 [INFO] CmdLine:74 -  15     global_max_pooling1d_9_pool   |                  0.1%   |                  0.0%   [13]
2025-03-22 11:49:53,367 [INFO] CmdLine:74 -  17     dense_1_dense                 |                  0.4%   ||                 6.5%   [14, 15]
2025-03-22 11:49:53,367 [INFO] CmdLine:74 -  18     dense_2_dense                 |                  0.1%   |                  1.6%   [16, 17]
2025-03-22 11:49:53,368 [INFO] CmdLine:74 -  19     dense_3_ptbdb_dense           |                  0.0%   |                  0.0%   [18, 19]
2025-03-22 11:49:53,369 [INFO] CmdLine:74 -  ------ ----------------------------- ------------------------- ------------------------- ----------
2025-03-22 11:49:53,388 [INFO] CmdLine:74 -  macc=4,299,099 weights=1,017,092 act=21,504 ram_io=0
2025-03-22 11:49:53,390 [INFO] CmdLine:74 -  Requested memory size by section - "stm32f7" target
2025-03-22 11:49:53,390 [INFO] CmdLine:74 -  ------------------------------ -------- ----------- ------- --------
2025-03-22 11:49:53,391 [INFO] CmdLine:74 -  module                             text      rodata    data      bss
2025-03-22 11:49:53,391 [INFO] CmdLine:74 -  ------------------------------ -------- ----------- ------- --------
2025-03-22 11:49:53,391 [INFO] CmdLine:74 -  NetworkRuntime1000_CM7_GCC.a     13,884           0       0        0
2025-03-22 11:49:53,392 [INFO] CmdLine:74 -  network.o                         1,132         160   6,272      388
2025-03-22 11:49:53,392 [INFO] CmdLine:74 -  network_data.o                       48          16      88        0
2025-03-22 11:49:53,392 [INFO] CmdLine:74 -  lib (toolchain)*                    614          24       0        0
2025-03-22 11:49:53,393 [INFO] CmdLine:74 -  ------------------------------ -------- ----------- ------- --------
2025-03-22 11:49:53,393 [INFO] CmdLine:74 -  RT total**                       15,678         200   6,360      388
2025-03-22 11:49:53,394 [INFO] CmdLine:74 -  ------------------------------ -------- ----------- ------- --------
2025-03-22 11:49:53,394 [INFO] CmdLine:74 -  weights                               0   1,017,096       0        0
2025-03-22 11:49:53,395 [INFO] CmdLine:74 -  activations                           0           0       0   21,504
2025-03-22 11:49:53,395 [INFO] CmdLine:74 -  io                                    0           0       0        0
2025-03-22 11:49:53,395 [INFO] CmdLine:74 -  ------------------------------ -------- ----------- ------- --------
2025-03-22 11:49:53,396 [INFO] CmdLine:74 -  TOTAL                            15,678   1,017,296   6,360   21,892
2025-03-22 11:49:53,396 [INFO] CmdLine:74 -  ------------------------------ -------- ----------- ------- --------
2025-03-22 11:49:53,396 [INFO] CmdLine:74 -  *  toolchain objects (libm/libgcc*)
2025-03-22 11:49:53,397 [INFO] CmdLine:74 -  ** RT AI runtime objects (kernels+infrastructure)
2025-03-22 11:49:53,397 [INFO] CmdLine:74 -   Summary - "stm32f7" target
2025-03-22 11:49:53,397 [INFO] CmdLine:74 -   --------------------------------------------------
2025-03-22 11:49:53,398 [INFO] CmdLine:74 -                FLASH (ro)     %*   RAM (rw)       %
2025-03-22 11:49:53,398 [INFO] CmdLine:74 -   --------------------------------------------------
2025-03-22 11:49:53,398 [INFO] CmdLine:74 -   RT total         22,238   2.1%      6,748   23.9%
2025-03-22 11:49:53,399 [INFO] CmdLine:74 -   --------------------------------------------------
2025-03-22 11:49:53,399 [INFO] CmdLine:74 -   TOTAL         1,039,334            28,252
2025-03-22 11:49:53,399 [INFO] CmdLine:74 -   --------------------------------------------------
2025-03-22 11:49:53,400 [INFO] CmdLine:74 -   *  rt/total
2025-03-22 11:49:53,400 [INFO] CmdLine:74 - Creating txt report file C:\Users\OS\.stm32cubemx\network_output\network_analyze_report.txt
2025-03-22 11:50:01,715 [INFO] CmdLine:74 - elapsed time (analyze): 35.891s
2025-03-22 11:50:02,216 [INFO] CmdLine:142 - stedgeai exit with status: 0
2025-03-22 11:50:02,239 [INFO] AIModelDetailledView:1176 - Model file:      transfer_learning_ptbdb_freeze.h5
2025-03-22 11:50:02,240 [INFO] AIModelDetailledView:1176 - Total Flash:     1039330 B (1014.97 KiB)
2025-03-22 11:50:02,240 [INFO] AIModelDetailledView:1176 -     Weights:     1017092 B (993.25 KiB)
2025-03-22 11:50:02,241 [INFO] AIModelDetailledView:1176 -     Library:     22238 B (21.72 KiB)
2025-03-22 11:50:02,241 [INFO] AIModelDetailledView:1176 - Total Ram:       28252 B (27.59 KiB)
2025-03-22 11:50:02,241 [INFO] AIModelDetailledView:1176 -     Activations: 21504 B (21.00 KiB)
2025-03-22 11:50:02,242 [INFO] AIModelDetailledView:1176 -     Library:     6748 B (6.59 KiB)
2025-03-22 11:50:02,242 [INFO] AIModelDetailledView:1176 -     Input:       748 B (included in Activations)
2025-03-22 11:50:02,242 [INFO] AIModelDetailledView:1176 -     Output:      4 B (included in Activations)
2025-03-22 11:50:02,243 [INFO] AIModelDetailledView:1176 - Done
2025-03-22 11:50:02,243 [INFO] AIModelDetailledView:2707 - Analyze complete on AI model
2025-03-22 11:50:02,278 [INFO] Middleware:617 - instanceName : STMicroelectronics.X-CUBE-AI.10.0.0 bspName : COM Port check condition success for : !SEMDeviceJjApplicationJjApplicationTemplate
2025-03-22 11:50:02,278 [INFO] Middleware:617 - instanceName : STMicroelectronics.X-CUBE-AI.10.0.0 bspName : COM Port check condition success for : !SEMDeviceJjApplicationJjApplicationTemplate
2025-03-22 11:50:02,279 [INFO] Middleware:617 - instanceName : STMicroelectronics.X-CUBE-AI.10.0.0 bspName : COM Port check condition success for : !SEMDeviceJjApplicationJjApplicationTemplate
2025-03-22 11:50:02,279 [INFO] Middleware:617 - instanceName : STMicroelectronics.X-CUBE-AI.10.0.0 bspName : COM Port check condition success for : !SEMDeviceJjApplicationJjApplicationTemplate
2025-03-22 11:50:02,279 [INFO] Middleware:617 - instanceName : STMicroelectronics.X-CUBE-AI.10.0.0 bspName : COM Port check condition success for : !SEMDeviceJjApplicationJjApplicationTemplate
2025-03-22 11:50:02,279 [INFO] Middleware:617 - instanceName : STMicroelectronics.X-CUBE-AI.10.0.0 bspName : COM Port check condition success for : !SEMDeviceJjApplicationJjApplicationTemplate
2025-03-22 11:50:02,333 [INFO] Middleware:617 - instanceName : STMicroelectronics.X-CUBE-AI.10.0.0 bspName : COM Port check condition success for : !SEMDeviceJjApplicationJjApplicationTemplate
2025-03-22 11:50:02,333 [INFO] Middleware:617 - instanceName : STMicroelectronics.X-CUBE-AI.10.0.0 bspName : COM Port check condition success for : !SEMDeviceJjApplicationJjApplicationTemplate
2025-03-22 11:50:02,333 [INFO] Middleware:617 - instanceName : STMicroelectronics.X-CUBE-AI.10.0.0 bspName : COM Port check condition success for : !SEMDeviceJjApplicationJjApplicationTemplate
2025-03-22 11:50:02,333 [INFO] Middleware:617 - instanceName : STMicroelectronics.X-CUBE-AI.10.0.0 bspName : COM Port check condition success for : !SEMDeviceJjApplicationJjApplicationTemplate
2025-03-22 11:50:02,333 [INFO] Middleware:617 - instanceName : STMicroelectronics.X-CUBE-AI.10.0.0 bspName : COM Port check condition success for : !SEMDeviceJjApplicationJjApplicationTemplate
2025-03-22 11:50:02,334 [INFO] Middleware:617 - instanceName : STMicroelectronics.X-CUBE-AI.10.0.0 bspName : COM Port check condition success for : !SEMDeviceJjApplicationJjApplicationTemplate
2025-03-22 11:50:02,341 [INFO] AIModelDetailledView:2372 - Analysis status: done
2025-03-22 15:27:32,218 [INFO] WebApp:189 - Connection lost
2025-03-22 15:27:33,994 [INFO] WebApp:186 - Connection restablished
2025-03-22 15:33:02,190 [INFO] UtilMem:75 - End SaveConfig() Used Memory: 768649552 Bytes (1073741824)
2025-03-22 15:33:02,544 [INFO] Middleware:617 - instanceName : STMicroelectronics.X-CUBE-AI.10.0.0 bspName : COM Port check condition success for : !SEMDeviceJjApplicationJjApplicationTemplate
2025-03-22 15:33:02,544 [INFO] Middleware:617 - instanceName : STMicroelectronics.X-CUBE-AI.10.0.0 bspName : COM Port check condition success for : !SEMDeviceJjApplicationJjApplicationTemplate
2025-03-22 15:33:02,544 [INFO] Middleware:617 - instanceName : STMicroelectronics.X-CUBE-AI.10.0.0 bspName : COM Port check condition success for : !SEMDeviceJjApplicationJjApplicationTemplate
2025-03-22 15:33:02,544 [INFO] Middleware:617 - instanceName : STMicroelectronics.X-CUBE-AI.10.0.0 bspName : COM Port check condition success for : !SEMDeviceJjApplicationJjApplicationTemplate
2025-03-22 15:33:02,544 [INFO] Middleware:617 - instanceName : STMicroelectronics.X-CUBE-AI.10.0.0 bspName : COM Port check condition success for : !SEMDeviceJjApplicationJjApplicationTemplate
2025-03-22 15:33:02,544 [INFO] Middleware:617 - instanceName : STMicroelectronics.X-CUBE-AI.10.0.0 bspName : COM Port check condition success for : !SEMDeviceJjApplicationJjApplicationTemplate
2025-03-22 15:33:02,555 [INFO] AIModelDetailledView:2372 - Analysis status: -
2025-03-22 15:33:02,579 [INFO] AInterface:254 - ModelName:network; files:[D:\model_ex\transfer_learning_ptbdb_freeze.h5]; type:Keras; compression:None
2025-03-22 15:33:02,582 [INFO] AInterface:519 - workspaceTempDir: C:/Users/OS/AppData/Local/Temp/mxAI_workspace266995307927003418637405018837812
2025-03-22 15:33:02,582 [INFO] AInterface:1132 - Setting Env: C:/Users/OS/STM32Cube/Repository/Packs/STMicroelectronics/X-CUBE-AI/10.0.0/Utilities/windows
2025-03-22 15:33:02,601 [INFO] STM32CubeIDEBuilder:265 - Looking for gnu-tools-for-stm32 tools/bin/arm-none-eabi-gcc.exe in C:\ST\STM32CubeIDE_1.16.0\STM32CubeIDE
2025-03-22 15:33:02,685 [INFO] STM32CubeIDEBuilder:294 - checking C:\ST\STM32CubeIDE_1.16.0\STM32CubeIDE\plugins\com.st.stm32cube.ide.mcu.externaltools.gnu-tools-for-stm32.13.3.rel1.win32_1.0.0.202411081344\tools\bin\arm-none-eabi-gcc.exe
2025-03-22 15:33:02,685 [INFO] STM32CubeIDEBuilder:297 - ret=C:\ST\STM32CubeIDE_1.16.0\STM32CubeIDE\plugins\com.st.stm32cube.ide.mcu.externaltools.gnu-tools-for-stm32.13.3.rel1.win32_1.0.0.202411081344\tools\bin\arm-none-eabi-gcc.exe
2025-03-22 15:33:02,686 [INFO] STM32CubeIDEBuilder:311 - returning C:\ST\STM32CubeIDE_1.16.0\STM32CubeIDE\plugins\com.st.stm32cube.ide.mcu.externaltools.gnu-tools-for-stm32.13.3.rel1.win32_1.0.0.202411081344\tools\bin\arm-none-eabi-gcc.exe
2025-03-22 15:33:02,687 [INFO] AInterface:1189 - Custom PATH variable: C:/Users/OS/STM32Cube/Repository/Packs/STMicroelectronics/X-CUBE-AI/10.0.0/Utilities/windows;C:/Users/OS/STM32Cube/Repository/Packs/STMicroelectronics/X-CUBE-AI/10.0.0/Utilities/windows/mingw64/bin;C:/Users/OS/STM32Cube/Repository/Packs/STMicroelectronics/X-CUBE-AI/10.0.0/Utilities/windows/mingw64/libexec/gcc/x86_64-w64-mingw32/7.3.0;;C:\ST\STM32CubeIDE_1.16.0\STM32CubeIDE\plugins\com.st.stm32cube.ide.mcu.externaltools.gnu-tools-for-stm32.13.3.rel1.win32_1.0.0.202411081344\tools\bin
2025-03-22 15:33:02,688 [INFO] CmdLine:109 - Command: C:/Users/OS/STM32Cube/Repository/Packs/STMicroelectronics/X-CUBE-AI/10.0.0/Utilities/windows/stedgeai.exe analyze --target stm32f7 --name network -m D:/model_ex/transfer_learning_ptbdb_freeze.h5 --compression none --verbosity 1 --workspace C:/Users/OS/AppData/Local/Temp/mxAI_workspace266995307927003418637405018837812 --output C:/Users/OS/.stm32cubemx/network_output
2025-03-22 15:33:02,689 [INFO] AIModelDetailledView:2372 - Analysis status: pending
2025-03-22 15:33:09,899 [INFO] CmdLine:74 - ST Edge AI Core v2.0.0-20049
2025-03-22 15:33:47,110 [INFO] CmdLine:74 - Creating c (debug) info json file C:\Users\OS\AppData\Local\Temp\mxAI_workspace266995307927003418637405018837812\network_c_info.json
2025-03-22 15:33:47,167 [INFO] CmdLine:74 -  
2025-03-22 15:33:47,167 [INFO] CmdLine:74 -  Exec/report summary (analyze)
2025-03-22 15:33:47,167 [INFO] CmdLine:74 -  --------------------------------------------------------------------------------------------------------
2025-03-22 15:33:47,167 [INFO] CmdLine:74 -  model file         :   D:\model_ex\transfer_learning_ptbdb_freeze.h5                                    
2025-03-22 15:33:47,167 [INFO] CmdLine:74 -  type               :   keras                                                                            
2025-03-22 15:33:47,168 [INFO] CmdLine:74 -  c_name             :   network                                                                          
2025-03-22 15:33:47,168 [INFO] CmdLine:74 -  compression        :   none                                                                             
2025-03-22 15:33:47,168 [INFO] CmdLine:74 -  options            :   allocate-inputs, allocate-outputs                                                
2025-03-22 15:33:47,168 [INFO] CmdLine:74 -  optimization       :   balanced                                                                         
2025-03-22 15:33:47,168 [INFO] CmdLine:74 -  target/series      :   stm32f7                                                                          
2025-03-22 15:33:47,169 [INFO] CmdLine:74 -  workspace dir      :   C:\Users\OS\AppData\Local\Temp\mxAI_workspace266995307927003418637405018837812   
2025-03-22 15:33:47,169 [INFO] CmdLine:74 -  output dir         :   C:\Users\OS\.stm32cubemx\network_output                                          
2025-03-22 15:33:47,169 [INFO] CmdLine:74 -  model_fmt          :   float                                                                            
2025-03-22 15:33:47,169 [INFO] CmdLine:74 -  model_name         :   transfer_learning_ptbdb_freeze                                                   
2025-03-22 15:33:47,170 [INFO] CmdLine:74 -  model_hash         :   0x0bd5b930ae63262a77ae48b7bf9565d1                                               
2025-03-22 15:33:47,171 [INFO] CmdLine:74 -  params #           :   254,641 items (994.69 KiB)                                                       
2025-03-22 15:33:47,171 [INFO] CmdLine:74 -  --------------------------------------------------------------------------------------------------------
2025-03-22 15:33:47,171 [INFO] CmdLine:74 -  input 1/1          :   'input_13', f32(1x187x1), 748 Bytes, activations                                 
2025-03-22 15:33:47,171 [INFO] CmdLine:74 -  output 1/1         :   'dense_3_ptbdb', f32(1x1), 4 Bytes, activations                                  
2025-03-22 15:33:47,171 [INFO] CmdLine:74 -  macc               :   4,299,099                                                                        
2025-03-22 15:33:47,171 [INFO] CmdLine:74 -  weights (ro)       :   1,017,092 B (993.25 KiB) (1 segment) / -1,472(-0.1%) vs float model              
2025-03-22 15:33:47,171 [INFO] CmdLine:74 -  activations (rw)   :   21,504 B (21.00 KiB) (1 segment) *                                               
2025-03-22 15:33:47,172 [INFO] CmdLine:74 -  ram (total)        :   21,504 B (21.00 KiB) = 21,504 + 0 + 0                                            
2025-03-22 15:33:47,172 [INFO] CmdLine:74 -  --------------------------------------------------------------------------------------------------------
2025-03-22 15:33:47,173 [INFO] CmdLine:74 -  (*) 'input'/'output' buffers can be used from the activations buffer
2025-03-22 15:33:47,183 [INFO] CmdLine:74 - Computing AI RT data/code size (target=stm32f7)..
2025-03-22 15:33:50,021 [INFO] CmdLine:74 -  Model name - transfer_learning_ptbdb_freeze
2025-03-22 15:33:50,021 [INFO] CmdLine:74 -  ------ -------------------------------------------------- ------------------ ----------------- ----------- -----------------------------
2025-03-22 15:33:50,022 [INFO] CmdLine:74 -  m_id   layer (original)                                   oshape             param/size               macc                  connected to
2025-03-22 15:33:50,023 [INFO] CmdLine:74 -  ------ -------------------------------------------------- ------------------ ----------------- ----------- -----------------------------
2025-03-22 15:33:50,023 [INFO] CmdLine:74 -  0      input_13 (InputLayer)                              [b:1,h:187,c:1]
2025-03-22 15:33:50,024 [INFO] CmdLine:74 -  ------ -------------------------------------------------- ------------------ ----------------- ----------- -----------------------------
2025-03-22 15:33:50,024 [INFO] CmdLine:74 -  1      conv1d_65_conv2d (Conv1D)                          [b:1,h:183,c:16]   96/384                 14,656                      input_13
2025-03-22 15:33:50,025 [INFO] CmdLine:74 -         conv1d_65 (Conv1D)                                 [b:1,h:183,c:16]                           2,928              conv1d_65_conv2d
2025-03-22 15:33:50,025 [INFO] CmdLine:74 -  ------ -------------------------------------------------- ------------------ ----------------- ----------- -----------------------------
2025-03-22 15:33:50,026 [INFO] CmdLine:74 -  2      conv1d_66_conv2d (Conv1D)                          [b:1,h:179,c:16]   1,296/5,184           229,136                     conv1d_65
2025-03-22 15:33:50,026 [INFO] CmdLine:74 -         conv1d_66 (Conv1D)                                 [b:1,h:179,c:16]                           2,864              conv1d_66_conv2d
2025-03-22 15:33:50,026 [INFO] CmdLine:74 -  ------ -------------------------------------------------- ------------------ ----------------- ----------- -----------------------------
2025-03-22 15:33:50,026 [INFO] CmdLine:74 -  3      max_pooling1d_25 (MaxPooling1D)                    [b:1,h:89,c:16]                            2,848                     conv1d_66
2025-03-22 15:33:50,027 [INFO] CmdLine:74 -  ------ -------------------------------------------------- ------------------ ----------------- ----------- -----------------------------
2025-03-22 15:33:50,027 [INFO] CmdLine:74 -  5      conv1d_67_conv2d (Conv1D)                          [b:1,h:87,c:32]    1,568/6,272           133,664              max_pooling1d_25
2025-03-22 15:33:50,027 [INFO] CmdLine:74 -         conv1d_67 (Conv1D)                                 [b:1,h:87,c:32]                            2,784              conv1d_67_conv2d
2025-03-22 15:33:50,028 [INFO] CmdLine:74 -  ------ -------------------------------------------------- ------------------ ----------------- ----------- -----------------------------
2025-03-22 15:33:50,028 [INFO] CmdLine:74 -  6      conv1d_68_conv2d (Conv1D)                          [b:1,h:85,c:32]    3,104/12,416          261,152                     conv1d_67
2025-03-22 15:33:50,029 [INFO] CmdLine:74 -         conv1d_68 (Conv1D)                                 [b:1,h:85,c:32]                            2,720              conv1d_68_conv2d
2025-03-22 15:33:50,029 [INFO] CmdLine:74 -  ------ -------------------------------------------------- ------------------ ----------------- ----------- -----------------------------
2025-03-22 15:33:50,030 [INFO] CmdLine:74 -  7      max_pooling1d_26 (MaxPooling1D)                    [b:1,h:42,c:32]                            2,688                     conv1d_68
2025-03-22 15:33:50,031 [INFO] CmdLine:74 -  ------ -------------------------------------------------- ------------------ ----------------- ----------- -----------------------------
2025-03-22 15:33:50,031 [INFO] CmdLine:74 -  9      conv1d_69_conv2d (Conv1D)                          [b:1,h:40,c:32]    3,104/12,416          122,912              max_pooling1d_26
2025-03-22 15:33:50,031 [INFO] CmdLine:74 -         conv1d_69 (Conv1D)                                 [b:1,h:40,c:32]                            1,280              conv1d_69_conv2d
2025-03-22 15:33:50,032 [INFO] CmdLine:74 -  ------ -------------------------------------------------- ------------------ ----------------- ----------- -----------------------------
2025-03-22 15:33:50,032 [INFO] CmdLine:74 -  10     conv1d_70_conv2d (Conv1D)                          [b:1,h:38,c:32]    3,104/12,416          116,768                     conv1d_69
2025-03-22 15:33:50,032 [INFO] CmdLine:74 -         conv1d_70 (Conv1D)                                 [b:1,h:38,c:32]                            1,216              conv1d_70_conv2d
2025-03-22 15:33:50,033 [INFO] CmdLine:74 -  ------ -------------------------------------------------- ------------------ ----------------- ----------- -----------------------------
2025-03-22 15:33:50,033 [INFO] CmdLine:74 -  11     max_pooling1d_27 (MaxPooling1D)                    [b:1,h:19,c:32]                            1,216                     conv1d_70
2025-03-22 15:33:50,033 [INFO] CmdLine:74 -  ------ -------------------------------------------------- ------------------ ----------------- ----------- -----------------------------
2025-03-22 15:33:50,034 [INFO] CmdLine:74 -  13     conv1d_71_conv2d (Conv1D)                          [b:1,h:17,c:256]   24,832/99,328         418,048              max_pooling1d_27
2025-03-22 15:33:50,034 [INFO] CmdLine:74 -         conv1d_71 (Conv1D)                                 [b:1,h:17,c:256]                           4,352              conv1d_71_conv2d
2025-03-22 15:33:50,034 [INFO] CmdLine:74 -  ------ -------------------------------------------------- ------------------ ----------------- ----------- -----------------------------
2025-03-22 15:33:50,035 [INFO] CmdLine:74 -  14     conv1d_72_conv2d (Conv1D)                          [b:1,h:15,c:256]   196,864/787,456     2,949,376                     conv1d_71
2025-03-22 15:33:50,035 [INFO] CmdLine:74 -         conv1d_72 (Conv1D)                                 [b:1,h:15,c:256]                           3,840              conv1d_72_conv2d
2025-03-22 15:33:50,035 [INFO] CmdLine:74 -  ------ -------------------------------------------------- ------------------ ----------------- ----------- -----------------------------
2025-03-22 15:33:50,036 [INFO] CmdLine:74 -  15     global_max_pooling1d_9_pool (GlobalMaxPooling1D)   [b:1,h:1,c:256]                            3,840                     conv1d_72
2025-03-22 15:33:50,036 [INFO] CmdLine:74 -         global_max_pooling1d_9 (GlobalMaxPooling1D)        [b:1,c:256]                                        global_max_pooling1d_9_pool
2025-03-22 15:33:50,037 [INFO] CmdLine:74 -  ------ -------------------------------------------------- ------------------ ----------------- ----------- -----------------------------
2025-03-22 15:33:50,037 [INFO] CmdLine:74 -  17     dense_1_dense (Dense)                              [b:1,c:64]         16,448/65,792          16,448        global_max_pooling1d_9
2025-03-22 15:33:50,038 [INFO] CmdLine:74 -         dense_1 (Dense)                                    [b:1,c:64]                                    64                 dense_1_dense
2025-03-22 15:33:50,038 [INFO] CmdLine:74 -  ------ -------------------------------------------------- ------------------ ----------------- ----------- -----------------------------
2025-03-22 15:33:50,038 [INFO] CmdLine:74 -  18     dense_2_dense (Dense)                              [b:1,c:64]         4,160/16,640            4,160                       dense_1
2025-03-22 15:33:50,039 [INFO] CmdLine:74 -         dense_2 (Dense)                                    [b:1,c:64]                                    64                 dense_2_dense
2025-03-22 15:33:50,039 [INFO] CmdLine:74 -  ------ -------------------------------------------------- ------------------ ----------------- ----------- -----------------------------
2025-03-22 15:33:50,039 [INFO] CmdLine:74 -  19     dense_3_ptbdb_dense (Dense)                        [b:1,c:1]          65/260                     65                       dense_2
2025-03-22 15:33:50,040 [INFO] CmdLine:74 -         dense_3_ptbdb (Dense)                              [b:1,c:1]                                     10           dense_3_ptbdb_dense
2025-03-22 15:33:50,040 [INFO] CmdLine:74 -  ------ -------------------------------------------------- ------------------ ----------------- ----------- -----------------------------
2025-03-22 15:33:50,040 [INFO] CmdLine:74 -  model: macc=4,299,099 weights=1,018,564 activations=-- io=--
2025-03-22 15:33:50,041 [INFO] CmdLine:74 -  Number of operations per c-layer
2025-03-22 15:33:50,041 [INFO] CmdLine:74 -  ------- ------ ------------------------------------ ----------- --------------
2025-03-22 15:33:50,041 [INFO] CmdLine:74 -  c_id    m_id   name (type)                                  #op           type
2025-03-22 15:33:50,041 [INFO] CmdLine:74 -  ------- ------ ------------------------------------ ----------- --------------
2025-03-22 15:33:50,042 [INFO] CmdLine:74 -  0       1      conv1d_65_conv2d (Conv2D)                 14,656   smul_f32_f32
2025-03-22 15:33:50,042 [INFO] CmdLine:74 -  1       1      conv1d_65 (Nonlinearity)                   2,928     op_f32_f32
2025-03-22 15:33:50,042 [INFO] CmdLine:74 -  2       3      conv1d_66_conv2d (Conv2D)                234,848   smul_f32_f32
2025-03-22 15:33:50,042 [INFO] CmdLine:74 -  3       5      conv1d_67_conv2d (Conv2D)                133,664   smul_f32_f32
2025-03-22 15:33:50,043 [INFO] CmdLine:74 -  4       5      conv1d_67 (Nonlinearity)                   2,784     op_f32_f32
2025-03-22 15:33:50,043 [INFO] CmdLine:74 -  5       7      conv1d_68_conv2d (Conv2D)                266,560   smul_f32_f32
2025-03-22 15:33:50,043 [INFO] CmdLine:74 -  6       9      conv1d_69_conv2d (Conv2D)                122,912   smul_f32_f32
2025-03-22 15:33:50,043 [INFO] CmdLine:74 -  7       9      conv1d_69 (Nonlinearity)                   1,280     op_f32_f32
2025-03-22 15:33:50,044 [INFO] CmdLine:74 -  8       11     conv1d_70_conv2d (Conv2D)                119,200   smul_f32_f32
2025-03-22 15:33:50,044 [INFO] CmdLine:74 -  9       13     conv1d_71_conv2d (Conv2D)                418,048   smul_f32_f32
2025-03-22 15:33:50,044 [INFO] CmdLine:74 -  10      13     conv1d_71 (Nonlinearity)                   4,352     op_f32_f32
2025-03-22 15:33:50,045 [INFO] CmdLine:74 -  11      14     conv1d_72_conv2d (Conv2D)              2,949,376   smul_f32_f32
2025-03-22 15:33:50,045 [INFO] CmdLine:74 -  12      14     conv1d_72 (Nonlinearity)                   3,840     op_f32_f32
2025-03-22 15:33:50,045 [INFO] CmdLine:74 -  13      15     global_max_pooling1d_9_pool (Pool)         3,840   smul_f32_f32
2025-03-22 15:33:50,046 [INFO] CmdLine:74 -  14      17     dense_1_dense (Dense)                     16,448   smul_f32_f32
2025-03-22 15:33:50,046 [INFO] CmdLine:74 -  15      17     dense_1 (Nonlinearity)                        64     op_f32_f32
2025-03-22 15:33:50,047 [INFO] CmdLine:74 -  16      18     dense_2_dense (Dense)                      4,160   smul_f32_f32
2025-03-22 15:33:50,048 [INFO] CmdLine:74 -  17      18     dense_2 (Nonlinearity)                        64     op_f32_f32
2025-03-22 15:33:50,048 [INFO] CmdLine:74 -  18      19     dense_3_ptbdb_dense (Dense)                   65   smul_f32_f32
2025-03-22 15:33:50,048 [INFO] CmdLine:74 -  19      19     dense_3_ptbdb (Nonlinearity)                  10     op_f32_f32
2025-03-22 15:33:50,048 [INFO] CmdLine:74 -  ------- ------ ------------------------------------ ----------- --------------
2025-03-22 15:33:50,049 [INFO] CmdLine:74 -  total                                                 4,299,099
2025-03-22 15:33:50,049 [INFO] CmdLine:74 -  Number of operation types
2025-03-22 15:33:50,049 [INFO] CmdLine:74 -  ---------------- ----------- -----------
2025-03-22 15:33:50,050 [INFO] CmdLine:74 -  operation type             #           %
2025-03-22 15:33:50,050 [INFO] CmdLine:74 -  ---------------- ----------- -----------
2025-03-22 15:33:50,050 [INFO] CmdLine:74 -  smul_f32_f32       4,283,777       99.6%
2025-03-22 15:33:50,050 [INFO] CmdLine:74 -  op_f32_f32            15,322        0.4%
2025-03-22 15:33:50,051 [INFO] CmdLine:74 -  Complexity report (model)
2025-03-22 15:33:50,051 [INFO] CmdLine:74 -  ------ ----------------------------- ------------------------- ------------------------- ----------
2025-03-22 15:33:50,051 [INFO] CmdLine:74 -  m_id   name                          c_macc                    c_rom                     c_id
2025-03-22 15:33:50,052 [INFO] CmdLine:74 -  ------ ----------------------------- ------------------------- ------------------------- ----------
2025-03-22 15:33:50,052 [INFO] CmdLine:74 -  1      conv1d_65_conv2d              |                  0.4%   |                  0.0%   [0, 1]
2025-03-22 15:33:50,052 [INFO] CmdLine:74 -  3      max_pooling1d_25              ||                 5.5%   |                  0.5%   [2]
2025-03-22 15:33:50,053 [INFO] CmdLine:74 -  5      conv1d_67_conv2d              |                  3.2%   |                  0.6%   [3, 4]
2025-03-22 15:33:50,053 [INFO] CmdLine:74 -  7      max_pooling1d_26              ||                 6.2%   |                  1.2%   [5]
2025-03-22 15:33:50,054 [INFO] CmdLine:74 -  9      conv1d_69_conv2d              |                  2.9%   |                  1.2%   [6, 7]
2025-03-22 15:33:50,054 [INFO] CmdLine:74 -  11     max_pooling1d_27              |                  2.8%   |                  1.2%   [8]
2025-03-22 15:33:50,054 [INFO] CmdLine:74 -  13     conv1d_71_conv2d              |||                9.8%   ||                 9.8%   [9, 10]
2025-03-22 15:33:50,054 [INFO] CmdLine:74 -  14     conv1d_72_conv2d              ||||||||||||||||  68.7%   ||||||||||||||||  77.4%   [11, 12]
2025-03-22 15:33:50,055 [INFO] CmdLine:74 -  15     global_max_pooling1d_9_pool   |                  0.1%   |                  0.0%   [13]
2025-03-22 15:33:50,055 [INFO] CmdLine:74 -  17     dense_1_dense                 |                  0.4%   ||                 6.5%   [14, 15]
2025-03-22 15:33:50,055 [INFO] CmdLine:74 -  18     dense_2_dense                 |                  0.1%   |                  1.6%   [16, 17]
2025-03-22 15:33:50,056 [INFO] CmdLine:74 -  19     dense_3_ptbdb_dense           |                  0.0%   |                  0.0%   [18, 19]
2025-03-22 15:33:50,056 [INFO] CmdLine:74 -  ------ ----------------------------- ------------------------- ------------------------- ----------
2025-03-22 15:33:50,056 [INFO] CmdLine:74 -  macc=4,299,099 weights=1,017,092 act=21,504 ram_io=0
2025-03-22 15:33:50,056 [INFO] CmdLine:74 -  Requested memory size by section - "stm32f7" target
2025-03-22 15:33:50,057 [INFO] CmdLine:74 -  ------------------------------ -------- ----------- ------- --------
2025-03-22 15:33:50,057 [INFO] CmdLine:74 -  module                             text      rodata    data      bss
2025-03-22 15:33:50,058 [INFO] CmdLine:74 -  ------------------------------ -------- ----------- ------- --------
2025-03-22 15:33:50,059 [INFO] CmdLine:74 -  NetworkRuntime1000_CM7_GCC.a     13,884           0       0        0
2025-03-22 15:33:50,059 [INFO] CmdLine:74 -  network.o                         1,132         160   6,272      388
2025-03-22 15:33:50,059 [INFO] CmdLine:74 -  network_data.o                       48          16      88        0
2025-03-22 15:33:50,059 [INFO] CmdLine:74 -  lib (toolchain)*                    614          24       0        0
2025-03-22 15:33:50,059 [INFO] CmdLine:74 -  ------------------------------ -------- ----------- ------- --------
2025-03-22 15:33:50,060 [INFO] CmdLine:74 -  RT total**                       15,678         200   6,360      388
2025-03-22 15:33:50,060 [INFO] CmdLine:74 -  ------------------------------ -------- ----------- ------- --------
2025-03-22 15:33:50,060 [INFO] CmdLine:74 -  weights                               0   1,017,096       0        0
2025-03-22 15:33:50,060 [INFO] CmdLine:74 -  activations                           0           0       0   21,504
2025-03-22 15:33:50,060 [INFO] CmdLine:74 -  io                                    0           0       0        0
2025-03-22 15:33:50,060 [INFO] CmdLine:74 -  ------------------------------ -------- ----------- ------- --------
2025-03-22 15:33:50,061 [INFO] CmdLine:74 -  TOTAL                            15,678   1,017,296   6,360   21,892
2025-03-22 15:33:50,061 [INFO] CmdLine:74 -  ------------------------------ -------- ----------- ------- --------
2025-03-22 15:33:50,061 [INFO] CmdLine:74 -  *  toolchain objects (libm/libgcc*)
2025-03-22 15:33:50,061 [INFO] CmdLine:74 -  ** RT AI runtime objects (kernels+infrastructure)
2025-03-22 15:33:50,061 [INFO] CmdLine:74 -   Summary - "stm32f7" target
2025-03-22 15:33:50,062 [INFO] CmdLine:74 -   --------------------------------------------------
2025-03-22 15:33:50,062 [INFO] CmdLine:74 -                FLASH (ro)     %*   RAM (rw)       %
2025-03-22 15:33:50,062 [INFO] CmdLine:74 -   --------------------------------------------------
2025-03-22 15:33:50,062 [INFO] CmdLine:74 -   RT total         22,238   2.1%      6,748   23.9%
2025-03-22 15:33:50,062 [INFO] CmdLine:74 -   --------------------------------------------------
2025-03-22 15:33:50,063 [INFO] CmdLine:74 -   TOTAL         1,039,334            28,252
2025-03-22 15:33:50,064 [INFO] CmdLine:74 -   --------------------------------------------------
2025-03-22 15:33:50,064 [INFO] CmdLine:74 -   *  rt/total
2025-03-22 15:33:50,064 [INFO] CmdLine:74 - Creating txt report file C:\Users\OS\.stm32cubemx\network_output\network_analyze_report.txt
2025-03-22 15:33:50,182 [INFO] CmdLine:74 - elapsed time (analyze): 40.284s
2025-03-22 15:33:50,641 [INFO] CmdLine:142 - stedgeai exit with status: 0
2025-03-22 15:33:50,665 [INFO] AIModelDetailledView:2707 - Analyze complete on AI model
2025-03-22 15:33:50,670 [INFO] AIModelDetailledView:2372 - Analysis status: done
2025-03-22 15:33:50,680 [ERROR] LogOutputStream:75 - [STDERR_REDIRECT] Exception in thread "AWT-EventQueue-0" java.lang.ClassCastException: class javax.swing.SwingUtilities$SharedOwnerFrame cannot be cast to class com.st.microxplorer.maingui.MainFrame (javax.swing.SwingUtilities$SharedOwnerFrame is in module java.desktop of loader 'bootstrap'; com.st.microxplorer.maingui.MainFrame is in unnamed module of loader org.eclipse.osgi.internal.loader.EquinoxClassLoader @2c678c7b)
2025-03-22 15:33:50,684 [ERROR] LogOutputStream:75 - [STDERR_REDIRECT] 	at com.st.microxplorer.plugins.ip.ai.model.AIAdvancedSettingsData.saveSettings(AIAdvancedSettingsData.java:655)
2025-03-22 15:33:50,686 [ERROR] LogOutputStream:75 - [STDERR_REDIRECT] 	at com.st.microxplorer.plugins.ip.ai.model.AIAdvancedSettingsData.cmdSaveSettings(AIAdvancedSettingsData.java:527)
2025-03-22 15:33:50,687 [ERROR] LogOutputStream:75 - [STDERR_REDIRECT] 	at com.st.microxplorer.plugins.ip.ai.gui.AIModelDetailledView.saveData(AIModelDetailledView.java:501)
2025-03-22 15:33:50,689 [ERROR] LogOutputStream:75 - [STDERR_REDIRECT] 	at com.st.microxplorer.plugins.ip.ai.gui.AIMainUI.saveModelDataNeededForGeneration(AIMainUI.java:912)
2025-03-22 15:33:50,691 [ERROR] LogOutputStream:75 - [STDERR_REDIRECT] 	at com.st.microxplorer.plugins.ip.ai.gui.AITopWindow.saveModelsData(AITopWindow.java:239)
2025-03-22 15:33:50,692 [ERROR] LogOutputStream:75 - [STDERR_REDIRECT] 	at com.st.microxplorer.plugins.ip.ai.AI.propertyChange(AI.java:1618)
2025-03-22 15:33:50,694 [ERROR] LogOutputStream:75 - [STDERR_REDIRECT] 	at java.desktop/java.beans.PropertyChangeSupport.fire(PropertyChangeSupport.java:343)
2025-03-22 15:33:50,695 [ERROR] LogOutputStream:75 - [STDERR_REDIRECT] 	at java.desktop/java.beans.PropertyChangeSupport.firePropertyChange(PropertyChangeSupport.java:335)
2025-03-22 15:33:50,698 [ERROR] LogOutputStream:75 - [STDERR_REDIRECT] 	at java.desktop/java.beans.PropertyChangeSupport.firePropertyChange(PropertyChangeSupport.java:268)
2025-03-22 15:33:50,701 [ERROR] LogOutputStream:75 - [STDERR_REDIRECT] 	at com.st.microxplorer.util.MXPropertyChangeSupport.firePropertyChange(MXPropertyChangeSupport.java:54)
2025-03-22 15:33:50,702 [ERROR] LogOutputStream:75 - [STDERR_REDIRECT] 	at com.st.microxplorer.mxsystem.MxSystem.completeSaveConfig(MxSystem.java:844)
2025-03-22 15:33:50,704 [ERROR] LogOutputStream:75 - [STDERR_REDIRECT] 	at com.st.microxplorer.plugins.filemanager.engine.SaveFileManager.saveConfiguration(SaveFileManager.java:125)
2025-03-22 15:33:50,706 [ERROR] LogOutputStream:75 - [STDERR_REDIRECT] 	at com.st.microxplorer.plugins.filemanager.engine.MainFileManager.userSaveConfig(MainFileManager.java:470)
2025-03-22 15:33:50,707 [ERROR] LogOutputStream:75 - [STDERR_REDIRECT] 	at com.st.microxplorer.plugins.filemanager.FileManagerView.getSpecificTask(FileManagerView.java:262)
2025-03-22 15:33:50,708 [ERROR] LogOutputStream:75 - [STDERR_REDIRECT] 	at com.st.stm32cube.common.mx.editor.CubeMxEditor$9.run(CubeMxEditor.java:690)
2025-03-22 15:33:50,710 [ERROR] LogOutputStream:75 - [STDERR_REDIRECT] 	at com.st.stm32cube.common.mx.oss.core.awtswtbridge.AwtEnvironment$2.run(AwtEnvironment.java:166)
2025-03-22 15:33:50,712 [ERROR] LogOutputStream:75 - [STDERR_REDIRECT] 	at java.desktop/java.awt.event.InvocationEvent.dispatch(InvocationEvent.java:318)
2025-03-22 15:33:50,713 [ERROR] LogOutputStream:75 - [STDERR_REDIRECT] 	at java.desktop/java.awt.EventQueue.dispatchEventImpl(EventQueue.java:773)
2025-03-22 15:33:50,715 [ERROR] LogOutputStream:75 - [STDERR_REDIRECT] 	at java.desktop/java.awt.EventQueue$4.run(EventQueue.java:720)
2025-03-22 15:33:50,716 [ERROR] LogOutputStream:75 - [STDERR_REDIRECT] 	at java.desktop/java.awt.EventQueue$4.run(EventQueue.java:714)
2025-03-22 15:33:50,717 [ERROR] LogOutputStream:75 - [STDERR_REDIRECT] 	at java.base/java.security.AccessController.doPrivileged(AccessController.java:399)
2025-03-22 15:33:50,719 [ERROR] LogOutputStream:75 - [STDERR_REDIRECT] 	at java.base/java.security.ProtectionDomain$JavaSecurityAccessImpl.doIntersectionPrivilege(ProtectionDomain.java:86)
2025-03-22 15:33:50,720 [ERROR] LogOutputStream:75 - [STDERR_REDIRECT] 	at java.desktop/java.awt.EventQueue.dispatchEvent(EventQueue.java:742)
2025-03-22 15:33:50,721 [ERROR] LogOutputStream:75 - [STDERR_REDIRECT] 	at java.desktop/java.awt.EventDispatchThread.pumpOneEventForFilters(EventDispatchThread.java:203)
2025-03-22 15:33:50,722 [ERROR] LogOutputStream:75 - [STDERR_REDIRECT] 	at java.desktop/java.awt.EventDispatchThread.pumpEventsForFilter(EventDispatchThread.java:124)
2025-03-22 15:33:50,724 [ERROR] LogOutputStream:75 - [STDERR_REDIRECT] 	at java.desktop/java.awt.EventDispatchThread.pumpEventsForHierarchy(EventDispatchThread.java:113)
2025-03-22 15:33:50,725 [ERROR] LogOutputStream:75 - [STDERR_REDIRECT] 	at java.desktop/java.awt.EventDispatchThread.pumpEvents(EventDispatchThread.java:109)
2025-03-22 15:33:50,727 [ERROR] LogOutputStream:75 - [STDERR_REDIRECT] 	at java.desktop/java.awt.EventDispatchThread.pumpEvents(EventDispatchThread.java:101)
2025-03-22 15:33:50,728 [ERROR] LogOutputStream:75 - [STDERR_REDIRECT] 	at java.desktop/java.awt.EventDispatchThread.run(EventDispatchThread.java:90)
2025-03-22 15:33:53,992 [ERROR] LogOutputStream:75 - [STDERR_REDIRECT] 
