2025-04-06 17:30:19,825 [INFO] Activator:176 - 


2025-04-06 17:30:19,832 [INFO] Activator:177 - !SESSION log4j initialized
2025-04-06 17:30:32,629 [INFO] LogOutputStream:77 - [STDOUT_REDIRECT] 
2025-04-06 17:30:35,034 [INFO] ApplicationProperties:184 - Using Application install path: C:\ST\STM32CubeIDE_1.16.0\STM32CubeIDE\plugins\com.st.stm32cube.common.mx_6.12.0.202406281431
2025-04-06 17:30:35,063 [INFO] DbMcusXml:78 - Set database path to: C:\ST\STM32CubeIDE_1.16.0\STM32CubeIDE\plugins\com.st.stm32cube.common.mx_6.12.0.202406281431\\db\/mcu/
2025-04-06 17:30:35,063 [INFO] ApiDb:274 - Set plugin database path to: C:\ST\STM32CubeIDE_1.16.0\STM32CubeIDE\plugins\com.st.stm32cube.common.mx_6.12.0.202406281431\\db\/plugins/boardmanager/
2025-04-06 17:30:35,064 [WARN] ApiDb:259 - Overriding images path with different value:  => C:\ST\STM32CubeIDE_1.16.0\STM32CubeIDE\plugins\com.st.stm32cube.common.mx_6.12.0.202406281431\\db\/plugins/mcufinder/images/
2025-04-06 17:30:35,083 [INFO] ApiDb:250 - Set database path to: C:\Users\OS\.stmcufinder\plugins\mcufinder//mcu/
2025-04-06 17:30:35,084 [INFO] DbMcusAds:125 - Set database path to: C:\Users\OS\.stmcufinder\plugins\mcufinder//mcu/
2025-04-06 17:30:36,088 [INFO] CrossReferenceDbSqlite:203 - Set database path to: C:\Users\OS\.stmcufinder\plugins\mcufinder//mcu/cs/
2025-04-06 17:30:36,356 [INFO] RulesReader:64 - Compatibility file has been processed (297 Rules)
2025-04-06 17:30:36,455 [INFO] DbMcusXml:78 - Set database path to: C:\ST\STM32CubeIDE_1.16.0\STM32CubeIDE\plugins\com.st.stm32cube.common.mx_6.12.0.202406281431\\db\/mcu/
2025-04-06 17:30:36,455 [INFO] ApiDb:274 - Set plugin database path to: C:\ST\STM32CubeIDE_1.16.0\STM32CubeIDE\plugins\com.st.stm32cube.common.mx_6.12.0.202406281431\\db\/plugins/boardmanager/
2025-04-06 17:30:36,455 [INFO] ApiDb:261 - Set plugin images path to: C:\ST\STM32CubeIDE_1.16.0\STM32CubeIDE\plugins\com.st.stm32cube.common.mx_6.12.0.202406281431\\db\/plugins/mcufinder/images/
2025-04-06 17:30:36,455 [WARN] DbFile:41 - Overriding database path with different value: C:\Users\OS\.stmcufinder\plugins\mcufinder/ => C:\Users\OS\.stmcufinder\plugins\mcufinder
2025-04-06 17:30:36,455 [INFO] ApiDb:250 - Set database path to: C:\Users\OS\.stmcufinder\plugins\mcufinder//mcu/
2025-04-06 17:30:36,455 [WARN] DbFile:41 - Overriding database path with different value: C:\Users\OS\.stmcufinder\plugins\mcufinder/ => C:\Users\OS\.stmcufinder\plugins\mcufinder
2025-04-06 17:30:36,455 [INFO] DbMcusAds:125 - Set database path to: C:\Users\OS\.stmcufinder\plugins\mcufinder//mcu/
2025-04-06 17:30:36,455 [WARN] DbFile:41 - Overriding database path with different value: C:\Users\OS\.stmcufinder\plugins\mcufinder/ => C:\Users\OS\.stmcufinder\plugins\mcufinder
2025-04-06 17:30:36,455 [WARN] DbFile:41 - Overriding database path with different value: C:\Users\OS\.stmcufinder\plugins\mcufinder/ => C:\Users\OS\.stmcufinder\plugins\mcufinder
2025-04-06 17:30:37,094 [INFO] CrossReferenceDbSqlite:203 - Set database path to: C:\Users\OS\.stmcufinder\plugins\mcufinder//mcu/cs/
2025-04-06 17:30:37,267 [INFO] MainPanel:268 - HeapMemory: 268435456
2025-04-06 17:30:37,371 [INFO] DbMcusXml:78 - Set database path to: C:\ST\STM32CubeIDE_1.16.0\STM32CubeIDE\plugins\com.st.stm32cube.common.mx_6.12.0.202406281431\\db\/mcu/
2025-04-06 17:30:37,372 [INFO] ApiDb:274 - Set plugin database path to: C:\ST\STM32CubeIDE_1.16.0\STM32CubeIDE\plugins\com.st.stm32cube.common.mx_6.12.0.202406281431\\db\/plugins/boardmanager/
2025-04-06 17:30:37,372 [INFO] ApiDb:261 - Set plugin images path to: C:\ST\STM32CubeIDE_1.16.0\STM32CubeIDE\plugins\com.st.stm32cube.common.mx_6.12.0.202406281431\\db\/plugins/mcufinder/images/
2025-04-06 17:30:37,372 [WARN] DbFile:41 - Overriding database path with different value: C:\Users\OS\.stmcufinder\plugins\mcufinder/ => C:\Users\OS\.stmcufinder\plugins\mcufinder
2025-04-06 17:30:37,372 [INFO] ApiDb:250 - Set database path to: C:\Users\OS\.stmcufinder\plugins\mcufinder//mcu/
2025-04-06 17:30:37,372 [WARN] DbFile:41 - Overriding database path with different value: C:\Users\OS\.stmcufinder\plugins\mcufinder/ => C:\Users\OS\.stmcufinder\plugins\mcufinder
2025-04-06 17:30:37,372 [INFO] DbMcusAds:125 - Set database path to: C:\Users\OS\.stmcufinder\plugins\mcufinder//mcu/
2025-04-06 17:30:37,372 [WARN] DbFile:41 - Overriding database path with different value: C:\Users\OS\.stmcufinder\plugins\mcufinder/ => C:\Users\OS\.stmcufinder\plugins\mcufinder
2025-04-06 17:30:37,372 [WARN] DbFile:41 - Overriding database path with different value: C:\Users\OS\.stmcufinder\plugins\mcufinder/ => C:\Users\OS\.stmcufinder\plugins\mcufinder
2025-04-06 17:30:38,087 [INFO] CrossReferenceDbSqlite:203 - Set database path to: C:\Users\OS\.stmcufinder\plugins\mcufinder//mcu/cs/
2025-04-06 17:30:38,164 [INFO] ApplicationProperties:184 - Using Application install path: C:\ST\STM32CubeIDE_1.16.0\STM32CubeIDE\plugins\com.st.stm32cube.common.mx_6.12.0.202406281431
2025-04-06 17:30:38,166 [INFO] PluginManage:196 - Search for loadable plugins [exclusion list=, ]
2025-04-06 17:30:38,169 [INFO] PluginManage:310 - Check plugin analytics
2025-04-06 17:30:39,280 [INFO] AnalyticsPlugin:253 - Accepted Software Licenses: STM32CubeMX.6.10.0
2025-04-06 17:30:39,280 [INFO] AnalyticsPlugin:255 - Accepted CMSIS Pack Licenses: STMicroelectronics.X-CUBE-AI.10.0.0
2025-04-06 17:30:39,280 [INFO] AnalyticsPlugin:257 - Accepted Firmware Licenses: FW.F4.1.28.0,FW.F7.1.17.0
2025-04-06 17:30:39,283 [INFO] PluginManage:359 - Loaded plugin analytics (category:tool,tabindex:-1)
2025-04-06 17:30:39,283 [INFO] PluginManage:310 - Check plugin cadmodel
2025-04-06 17:30:39,302 [INFO] CADModel:105 - Init CAD model plugin
2025-04-06 17:30:39,303 [INFO] PluginManage:359 - Loaded plugin cadmodel (category:power,tabindex:5)
2025-04-06 17:30:39,303 [INFO] PluginManage:310 - Check plugin clock
2025-04-06 17:30:39,322 [INFO] PluginManage:359 - Loaded plugin clock (category:base,tabindex:2)
2025-04-06 17:30:39,323 [INFO] PluginManage:310 - Check plugin ddr
2025-04-06 17:30:39,325 [INFO] PluginManage:359 - Loaded plugin ddr (category:tool,tabindex:6)
2025-04-06 17:30:39,325 [INFO] PluginManage:310 - Check plugin filemanager
2025-04-06 17:30:39,458 [INFO] PluginManage:359 - Loaded plugin filemanager (category:base,tabindex:10)
2025-04-06 17:30:39,463 [INFO] PluginManage:310 - Check plugin ipmanager
2025-04-06 17:30:39,470 [INFO] PluginManage:359 - Loaded plugin ipmanager (category:base,tabindex:5)
2025-04-06 17:30:39,470 [INFO] PluginManage:310 - Check plugin lpbam
2025-04-06 17:30:39,490 [INFO] PluginManage:359 - Loaded plugin lpbam (category:base,tabindex:0)
2025-04-06 17:30:39,490 [INFO] PluginManage:310 - Check plugin memorymap
2025-04-06 17:30:39,513 [INFO] PluginManage:359 - Loaded plugin memorymap (category:base,tabindex:4)
2025-04-06 17:30:39,514 [INFO] PluginManage:310 - Check plugin pinoutandconfiguration
2025-04-06 17:30:39,533 [INFO] PluginManage:359 - Loaded plugin pinoutandconfiguration (category:base,tabindex:1)
2025-04-06 17:30:39,533 [INFO] PluginManage:310 - Check plugin pinoutconfig
2025-04-06 17:30:39,644 [WARN] SupportedApi:132 - Cannot load RTOS API schema: s4s-elt-must-match.1: The content of 'definitions' must match (annotation?, (simpleType | complexType)?, (unique | key | keyref)*)). A problem was found starting at: attribute.
2025-04-06 17:30:39,799 [INFO] PluginManage:359 - Loaded plugin pinoutconfig (category:base,tabindex:0)
2025-04-06 17:30:39,799 [INFO] PluginManage:310 - Check plugin power
2025-04-06 17:30:39,821 [INFO] PluginManage:359 - Loaded plugin power (category:power,tabindex:4)
2025-04-06 17:30:39,821 [INFO] PluginManage:310 - Check plugin projectmanager
2025-04-06 17:30:39,836 [INFO] PluginManage:359 - Loaded plugin projectmanager (category:projectmanager,tabindex:4)
2025-04-06 17:30:39,837 [INFO] PluginManage:310 - Check plugin rif
2025-04-06 17:30:39,854 [INFO] PluginManage:359 - Loaded plugin rif (category:base,tabindex:3)
2025-04-06 17:30:39,854 [INFO] PluginManage:310 - Check plugin thirdparty
2025-04-06 17:30:40,204 [INFO] PluginManage:359 - Loaded plugin thirdparty (category:base,tabindex:-1)
2025-04-06 17:30:40,204 [WARN] IntegrityCheckThread:84 - waiting for thirdparty lock release [integrity check]
2025-04-06 17:30:40,204 [INFO] PluginManage:310 - Check plugin tools
2025-04-06 17:30:40,204 [INFO] IntegrityCheckThread:86 - entering critical section [integrity check]
2025-04-06 17:30:40,204 [INFO] ThirdPartyUpdaterWithRetryManager:70 - Updater plugin not ready yet. [1/15]
2025-04-06 17:30:40,245 [INFO] PluginManage:359 - Loaded plugin tools (category:base,tabindex:7)
2025-04-06 17:30:40,245 [INFO] PluginManage:310 - Check plugin tutovideos
2025-04-06 17:30:40,460 [INFO] PluginManage:359 - Loaded plugin tutovideos (category:base,tabindex:-1)
2025-04-06 17:30:40,460 [INFO] PluginManage:310 - Check plugin updater
2025-04-06 17:30:40,479 [INFO] PluginManage:359 - Loaded plugin updater (category:base,tabindex:12)
2025-04-06 17:30:40,479 [INFO] PluginManage:310 - Check plugin userauth
2025-04-06 17:30:40,485 [INFO] UserAuth:113 - Init User Auth plugin
2025-04-06 17:30:40,485 [INFO] PluginManage:359 - Loaded plugin userauth (category:base,tabindex:14)
2025-04-06 17:30:40,486 [INFO] PluginManage:283 - PluginManage : Loaded plugins [18]
2025-04-06 17:30:40,771 [INFO] PinOutPanel:1561 - setPackage(No Configuration,No Configuration)
2025-04-06 17:30:40,904 [INFO] CADModel:165 - CPN selected for project level
2025-04-06 17:30:40,905 [INFO] CADModel:114 - Register for checkConnection events
2025-04-06 17:30:40,981 [INFO] IPUIPlugin:80 - create IPUIPlugin
2025-04-06 17:30:40,981 [INFO] PluginManager:220 - loadIPPluginJar : add adc
2025-04-06 17:30:41,047 [INFO] IPUIPlugin:80 - create IPUIPlugin
2025-04-06 17:30:41,047 [INFO] PluginManager:220 - loadIPPluginJar : add aes
2025-04-06 17:30:41,106 [INFO] IPUIPlugin:80 - create IPUIPlugin
2025-04-06 17:30:41,106 [INFO] PluginManager:220 - loadIPPluginJar : add can
2025-04-06 17:30:41,143 [INFO] IPUIPlugin:80 - create IPUIPlugin
2025-04-06 17:30:41,143 [INFO] PluginManager:220 - loadIPPluginJar : add comp
2025-04-06 17:30:41,214 [INFO] IPUIPlugin:80 - create IPUIPlugin
2025-04-06 17:30:41,214 [INFO] PluginManager:220 - loadIPPluginJar : add cryp
2025-04-06 17:30:41,230 [INFO] IPUIPlugin:80 - create IPUIPlugin
2025-04-06 17:30:41,230 [INFO] PluginManager:220 - loadIPPluginJar : add ddr_ctrl_phy
2025-04-06 17:30:41,275 [INFO] IPUIPlugin:80 - create IPUIPlugin
2025-04-06 17:30:41,275 [INFO] PluginManager:220 - loadIPPluginJar : add dfsdm
2025-04-06 17:30:41,291 [INFO] IPUIPlugin:80 - create IPUIPlugin
2025-04-06 17:30:41,293 [INFO] PluginManager:220 - loadIPPluginJar : add dma
2025-04-06 17:30:41,353 [INFO] IPUIPlugin:80 - create IPUIPlugin
2025-04-06 17:30:41,353 [INFO] PluginManager:220 - loadIPPluginJar : add dma3
2025-04-06 17:30:41,403 [INFO] IPUIPlugin:80 - create IPUIPlugin
2025-04-06 17:30:41,403 [INFO] PluginManager:220 - loadIPPluginJar : add extmemmanager
2025-04-06 17:30:41,438 [INFO] IPUIPlugin:80 - create IPUIPlugin
2025-04-06 17:30:41,438 [INFO] PluginManager:220 - loadIPPluginJar : add fatfs
2025-04-06 17:30:41,492 [INFO] IPUIPlugin:80 - create IPUIPlugin
2025-04-06 17:30:41,492 [INFO] PluginManager:220 - loadIPPluginJar : add fmc
2025-04-06 17:30:41,508 [INFO] IPUIPlugin:80 - create IPUIPlugin
2025-04-06 17:30:41,508 [INFO] PluginManager:220 - loadIPPluginJar : add freertos
2025-04-06 17:30:41,533 [INFO] IPUIPlugin:80 - create IPUIPlugin
2025-04-06 17:30:41,533 [INFO] PluginManager:220 - loadIPPluginJar : add genericplugin
2025-04-06 17:30:41,644 [INFO] IPUIPlugin:80 - create IPUIPlugin
2025-04-06 17:30:41,644 [INFO] PluginManager:220 - loadIPPluginJar : add gfxmmu
2025-04-06 17:30:41,836 [INFO] IPUIPlugin:80 - create IPUIPlugin
2025-04-06 17:30:41,836 [INFO] PluginManager:220 - loadIPPluginJar : add gic
2025-04-06 17:30:41,850 [INFO] IPUIPlugin:80 - create IPUIPlugin
2025-04-06 17:30:41,850 [INFO] PluginManager:220 - loadIPPluginJar : add gpio
2025-04-06 17:30:41,978 [INFO] IPUIPlugin:80 - create IPUIPlugin
2025-04-06 17:30:41,978 [INFO] PluginManager:220 - loadIPPluginJar : add gtzc
2025-04-06 17:30:42,028 [INFO] IPUIPlugin:80 - create IPUIPlugin
2025-04-06 17:30:42,028 [INFO] PluginManager:220 - loadIPPluginJar : add hash
2025-04-06 17:30:42,094 [INFO] IPUIPlugin:80 - create IPUIPlugin
2025-04-06 17:30:42,094 [INFO] PluginManager:220 - loadIPPluginJar : add i2c
2025-04-06 17:30:42,139 [INFO] IPUIPlugin:80 - create IPUIPlugin
2025-04-06 17:30:42,139 [INFO] PluginManager:220 - loadIPPluginJar : add i2s
2025-04-06 17:30:42,200 [INFO] IPUIPlugin:80 - create IPUIPlugin
2025-04-06 17:30:42,201 [INFO] PluginManager:220 - loadIPPluginJar : add i3c
2025-04-06 17:30:42,325 [INFO] IPUIPlugin:80 - create IPUIPlugin
2025-04-06 17:30:42,326 [INFO] PluginManager:220 - loadIPPluginJar : add ipddr
2025-04-06 17:30:42,433 [INFO] IPUIPlugin:80 - create IPUIPlugin
2025-04-06 17:30:42,434 [INFO] PluginManager:220 - loadIPPluginJar : add linkedlist
2025-04-06 17:30:42,474 [INFO] IPUIPlugin:80 - create IPUIPlugin
2025-04-06 17:30:42,475 [INFO] PluginManager:220 - loadIPPluginJar : add lorawan
2025-04-06 17:30:42,518 [INFO] IPUIPlugin:80 - create IPUIPlugin
2025-04-06 17:30:42,518 [INFO] PluginManager:220 - loadIPPluginJar : add ltdc
2025-04-06 17:30:42,533 [INFO] IPUIPlugin:80 - create IPUIPlugin
2025-04-06 17:30:42,533 [INFO] PluginManager:220 - loadIPPluginJar : add mdma
2025-04-06 17:30:42,547 [INFO] IPUIPlugin:80 - create IPUIPlugin
2025-04-06 17:30:42,547 [INFO] PluginManager:220 - loadIPPluginJar : add nvic
2025-04-06 17:30:42,591 [INFO] IPUIPlugin:80 - create IPUIPlugin
2025-04-06 17:30:42,591 [INFO] PluginManager:220 - loadIPPluginJar : add opamp
2025-04-06 17:30:42,665 [INFO] IPUIPlugin:80 - create IPUIPlugin
2025-04-06 17:30:42,665 [INFO] PluginManager:220 - loadIPPluginJar : add openamp
2025-04-06 17:30:42,726 [INFO] IPUIPlugin:80 - create IPUIPlugin
2025-04-06 17:30:42,726 [INFO] PluginManager:220 - loadIPPluginJar : add pdm2pcm
2025-04-06 17:30:42,741 [INFO] IPUIPlugin:80 - create IPUIPlugin
2025-04-06 17:30:42,743 [INFO] PluginManager:220 - loadIPPluginJar : add plateformsettings
2025-04-06 17:30:42,773 [INFO] IPUIPlugin:80 - create IPUIPlugin
2025-04-06 17:30:42,773 [INFO] PluginManager:220 - loadIPPluginJar : add quadspi
2025-04-06 17:30:42,804 [INFO] IPUIPlugin:80 - create IPUIPlugin
2025-04-06 17:30:42,804 [INFO] PluginManager:220 - loadIPPluginJar : add radio
2025-04-06 17:30:42,820 [INFO] IPUIPlugin:80 - create IPUIPlugin
2025-04-06 17:30:42,821 [INFO] PluginManager:220 - loadIPPluginJar : add resmgrutility
2025-04-06 17:30:42,876 [INFO] IPUIPlugin:80 - create IPUIPlugin
2025-04-06 17:30:42,876 [INFO] PluginManager:220 - loadIPPluginJar : add sai
2025-04-06 17:30:42,916 [INFO] IPUIPlugin:80 - create IPUIPlugin
2025-04-06 17:30:42,917 [INFO] PluginManager:220 - loadIPPluginJar : add spi
2025-04-06 17:30:43,016 [INFO] IPUIPlugin:80 - create IPUIPlugin
2025-04-06 17:30:43,016 [INFO] PluginManager:220 - loadIPPluginJar : add stm32_wpan
2025-04-06 17:30:43,054 [INFO] IPUIPlugin:80 - create IPUIPlugin
2025-04-06 17:30:43,054 [INFO] PluginManager:220 - loadIPPluginJar : add tim
2025-04-06 17:30:43,122 [INFO] IPUIPlugin:80 - create IPUIPlugin
2025-04-06 17:30:43,122 [INFO] PluginManager:220 - loadIPPluginJar : add touchsensing
2025-04-06 17:30:43,148 [INFO] IPUIPlugin:80 - create IPUIPlugin
2025-04-06 17:30:43,148 [INFO] PluginManager:220 - loadIPPluginJar : add tracer_emb
2025-04-06 17:30:43,186 [INFO] IPUIPlugin:80 - create IPUIPlugin
2025-04-06 17:30:43,186 [INFO] PluginManager:220 - loadIPPluginJar : add ts
2025-04-06 17:30:43,214 [INFO] IPUIPlugin:80 - create IPUIPlugin
2025-04-06 17:30:43,214 [INFO] PluginManager:220 - loadIPPluginJar : add tsc
2025-04-06 17:30:43,215 [INFO] ThirdPartyUpdaterWithRetryManager:70 - Updater plugin not ready yet. [2/15]
2025-04-06 17:30:43,241 [INFO] IPUIPlugin:80 - create IPUIPlugin
2025-04-06 17:30:43,241 [INFO] PluginManager:220 - loadIPPluginJar : add ucpd
2025-04-06 17:30:43,308 [INFO] IPUIPlugin:80 - create IPUIPlugin
2025-04-06 17:30:43,308 [INFO] PluginManager:220 - loadIPPluginJar : add usart
2025-04-06 17:30:43,357 [INFO] IPUIPlugin:80 - create IPUIPlugin
2025-04-06 17:30:43,363 [INFO] PluginManager:220 - loadIPPluginJar : add usbx
2025-04-06 17:30:43,501 [INFO] CADModel:165 - CPN selected for project level
2025-04-06 17:30:43,502 [INFO] CADModel:114 - Register for checkConnection events
2025-04-06 17:30:43,502 [FATAL] Updater:334 - Updater called before beeing initialized
2025-04-06 17:30:43,502 [ERROR] CADModel:125 - Updater not yet initialized, retry later 
2025-04-06 17:30:43,659 [INFO] CADModel:165 - CPN selected for project level
2025-04-06 17:30:43,659 [INFO] CADModel:114 - Register for checkConnection events
2025-04-06 17:30:43,659 [FATAL] Updater:334 - Updater called before beeing initialized
2025-04-06 17:30:43,659 [ERROR] CADModel:125 - Updater not yet initialized, retry later 
2025-04-06 17:30:43,663 [FATAL] Updater:334 - Updater called before beeing initialized
2025-04-06 17:30:43,776 [FATAL] Updater:334 - Updater called before beeing initialized
2025-04-06 17:30:43,790 [INFO] DbMcusAds:53 - JSON generation date=Tue Dec 17 23:01:15 ICT 2024 (1734451275189)
2025-04-06 17:30:43,790 [FATAL] Updater:334 - Updater called before beeing initialized
2025-04-06 17:30:43,825 [WARN] DetailPanel:346 - Failed to get advertising image, set to default
2025-04-06 17:30:43,898 [FATAL] Updater:334 - Updater called before beeing initialized
2025-04-06 17:30:43,900 [FATAL] Updater:334 - Updater called before beeing initialized
2025-04-06 17:30:43,900 [FATAL] Updater:334 - Updater called before beeing initialized
2025-04-06 17:30:43,900 [WARN] DetailPanel:346 - Failed to get advertising image, set to default
2025-04-06 17:30:43,901 [FATAL] Updater:334 - Updater called before beeing initialized
2025-04-06 17:30:43,990 [ERROR] Updater:1164 - MainUpdater not yet initialized. External WinMGr cannot be set.
2025-04-06 17:30:44,002 [INFO] Updater:1100 - Updater Version found : 6.12.0
2025-04-06 17:30:44,021 [INFO] ApplicationProperties:184 - Using Application install path: C:\ST\STM32CubeIDE_1.16.0\STM32CubeIDE\plugins\com.st.stm32cube.common.mx_6.12.0.202406281431
2025-04-06 17:30:44,549 [INFO] MainUpdater:2873 - connection check result : 10
2025-04-06 17:30:44,550 [INFO] MainUpdater:3567 - Updater definition file requires update
2025-04-06 17:30:44,551 [INFO] MainUpdater:290 - Updater Check For Update Now.
2025-04-06 17:30:44,551 [INFO] MicroXplorer:498 - Change Database Version : DB.6.0.120
2025-04-06 17:30:44,578 [INFO] McuFinderGlobals:63 - Set McuFinder mode to 2 (CubeIDE integrated)
2025-04-06 17:30:44,583 [INFO] UserAuth:417 - Internet connection configuration mode: 1
2025-04-06 17:30:44,614 [INFO] JxBrowserEngine:152 - Initiate JxBrowser Engine with user profile folder
2025-04-06 17:30:44,621 [INFO] ServerAccessManage:473 - Download File updaters.zip
2025-04-06 17:30:44,813 [INFO] FileExtend:240 - Unzip File : updaters.zip
2025-04-06 17:30:44,813 [INFO] FileExtend:255 - Standard Zip Deflate
2025-04-06 17:30:46,228 [WARN] MainUpdater:1194 - Updater busy. Cannot search thirdparties
2025-04-06 17:30:46,229 [INFO] ThirdPartyUpdaterWithRetryManager:96 - Updater plugin is busy. [1/15]
2025-04-06 17:30:46,487 [INFO] ServerAccessManage:473 - Download File PacksControlFlags.xml
2025-04-06 17:30:46,616 [INFO] ServerAccessManage:473 - Download File cubemx.pidx
2025-04-06 17:30:47,474 [INFO] ServerAccessManage:473 - Download File STMicroelectronics.X-CUBE-DPOWER.pdsc
2025-04-06 17:30:48,612 [ERROR] ServerAccessManage:1089 - Problem, file not found on Server
2025-04-06 17:30:48,678 [INFO] WebApp:167 - Instantiating new browser for Auth
2025-04-06 17:30:49,235 [WARN] MainUpdater:1194 - Updater busy. Cannot search thirdparties
2025-04-06 17:30:49,235 [INFO] ThirdPartyUpdaterWithRetryManager:96 - Updater plugin is busy. [2/15]
2025-04-06 17:30:49,282 [ERROR] ServerAccessManage:1089 - Problem, file not found on Server
2025-04-06 17:30:49,699 [INFO] WebApp:448 - Apply proxy settings
2025-04-06 17:30:49,699 [INFO] WebApp:533 - Chromium requires no authentication
2025-04-06 17:30:49,713 [INFO] WebApp:476 - Direct internet connection detected
2025-04-06 17:30:49,771 [INFO] WebApp:869 - Register for checkConnection events
2025-04-06 17:30:49,771 [INFO] WebApp:448 - Apply proxy settings
2025-04-06 17:30:49,771 [INFO] WebApp:533 - Chromium requires no authentication
2025-04-06 17:30:49,773 [INFO] WebApp:476 - Direct internet connection detected
2025-04-06 17:30:49,944 [INFO] WebApp:186 - Connection restablished
2025-04-06 17:30:49,954 [ERROR] ServerAccessManage:1089 - Problem, file not found on Server
2025-04-06 17:30:49,973 [INFO] WebApp:220 - Starting web application
2025-04-06 17:30:49,973 [INFO] WebApp:578 - Web application path used C:\ST\STM32CubeIDE_1.16.0\STM32CubeIDE\plugins\com.st.stm32cube.common.mx_6.12.0.202406281431\db\plugins\mcufinder\reactClient1\index.html
2025-04-06 17:30:50,268 [INFO] UserAuth:417 - Internet connection configuration mode: 1
2025-04-06 17:30:50,970 [ERROR] ServerAccessManage:1089 - Problem, file not found on Server
2025-04-06 17:30:51,680 [ERROR] ServerAccessManage:1089 - Problem, file not found on Server
2025-04-06 17:30:52,252 [WARN] MainUpdater:1194 - Updater busy. Cannot search thirdparties
2025-04-06 17:30:52,252 [INFO] ThirdPartyUpdaterWithRetryManager:96 - Updater plugin is busy. [3/15]
2025-04-06 17:30:52,351 [ERROR] ServerAccessManage:1089 - Problem, file not found on Server
2025-04-06 17:30:52,785 [ERROR] ServerAccessManage:1089 - Problem, file not found on Server
2025-04-06 17:30:53,206 [ERROR] ServerAccessManage:1089 - Problem, file not found on Server
2025-04-06 17:30:54,029 [ERROR] ServerAccessManage:1089 - Problem, file not found on Server
2025-04-06 17:30:54,425 [ERROR] ServerAccessManage:1089 - Problem, file not found on Server
2025-04-06 17:30:55,103 [ERROR] ServerAccessManage:1089 - Problem, file not found on Server
2025-04-06 17:30:55,259 [WARN] MainUpdater:1194 - Updater busy. Cannot search thirdparties
2025-04-06 17:30:55,259 [INFO] ThirdPartyUpdaterWithRetryManager:96 - Updater plugin is busy. [4/15]
2025-04-06 17:30:56,587 [WARN] PackLoader:240 - Cannot read IP mode file for STMicroelectronics.X-CUBE-DPower.1.3.0
2025-04-06 17:30:56,589 [INFO] PopulateThirdPartyThread:66 - Ending populate Thread
2025-04-06 17:30:56,594 [INFO] ThirdParty:1030 - CMSIS Pack Vendor :STMicroelectronics X-CUBE-DPower 1.3.0
2025-04-06 17:30:56,595 [INFO] LoadServerUpdatesThread:375 - End of LoadServerUpdate Thread
2025-04-06 17:30:56,770 [INFO] CheckServerUpdateThread:120 - End of CheckServer Thread
2025-04-06 17:30:58,652 [WARN] PackLoader:240 - Cannot read IP mode file for STMicroelectronics.FP-SNS-MOTENVWB1.1.4.0
2025-04-06 17:30:58,661 [WARN] PackLoader:240 - Cannot read IP mode file for STMicroelectronics.FP-ATR-ASTRA1.2.0.2
2025-04-06 17:30:58,678 [WARN] PackLoader:240 - Cannot read IP mode file for STMicroelectronics.FP-ATR-ASTRA1.2.0.1
2025-04-06 17:30:58,697 [WARN] PackLoader:240 - Cannot read IP mode file for STMicroelectronics.X-CUBE-SMBUS.2.1.0
2025-04-06 17:30:58,721 [WARN] PackLoader:240 - Cannot read IP mode file for STMicroelectronics.X-CUBE-WB05N.1.1.0
2025-04-06 17:30:58,732 [WARN] PackLoader:240 - Cannot read IP mode file for STMicroelectronics.X-CUBE-TOUCHGFX.4.23.0
2025-04-06 17:30:58,752 [WARN] PackLoader:240 - Cannot read IP mode file for STMicroelectronics.X-CUBE-TOUCHGFX.4.23.2
2025-04-06 17:30:58,780 [WARN] PackLoader:240 - Cannot read IP mode file for STMicroelectronics.X-CUBE-AZRTOS-F7.1.1.0
2025-04-06 17:30:58,801 [WARN] PackLoader:240 - Cannot read IP mode file for STMicroelectronics.FP-SNS-MOTENV1.4.3.2
2025-04-06 17:30:58,881 [WARN] PackLoader:240 - Cannot read IP mode file for STMicroelectronics.X-CUBE-MEMS1.11.0.0
2025-04-06 17:30:59,044 [WARN] PackLoader:240 - Cannot read IP mode file for STMicroelectronics.FP-SNS-FLIGHT1.5.0.2
2025-04-06 17:30:59,079 [WARN] PackLoader:240 - Cannot read IP mode file for STMicroelectronics.X-CUBE-DISPLAY.3.0.0
2025-04-06 17:30:59,114 [WARN] PackLoader:240 - Cannot read IP mode file for STMicroelectronics.X-CUBE-BLE1.7.0.0
2025-04-06 17:30:59,137 [WARN] PackLoader:240 - Cannot read IP mode file for STMicroelectronics.X-CUBE-NFC10.1.0.0
2025-04-06 17:30:59,161 [WARN] PackLoader:240 - Cannot read IP mode file for STMicroelectronics.X-CUBE-BLEMGR.4.0.0
2025-04-06 17:30:59,188 [WARN] PackLoader:240 - Cannot read IP mode file for emotas.I-CUBE-CANOPEN.1.3.0
2025-04-06 17:30:59,214 [WARN] PackLoader:240 - Cannot read IP mode file for STMicroelectronics.X-CUBE-BLEMGR.3.1.0
2025-04-06 17:30:59,242 [WARN] PackLoader:240 - Cannot read IP mode file for STMicroelectronics.X-CUBE-AI.10.0.0
2025-04-06 17:30:59,447 [WARN] PackLoader:240 - Cannot read IP mode file for STMicroelectronics.FP-SNS-SMARTAG2.1.2.0
2025-04-06 17:30:59,457 [ERROR] Engine:466 - C:\Users\OS\.stm32cubemx\thirdparties\pdsc\STMicroelectronics.FP-SNS-FLIGHT1.5.1.0.pdsc: PDSC version is not supported
2025-04-06 17:30:59,538 [WARN] PackLoader:240 - Cannot read IP mode file for STMicroelectronics.X-CUBE-MEMS1.11.1.0
2025-04-06 17:30:59,686 [INFO] LogOutputStream:77 - [STDOUT_REDIRECT] 1 : Invalid condition id : UX_CORESTACK_Condition cause : null
2025-04-06 17:30:59,686 [INFO] LogOutputStream:77 - [STDOUT_REDIRECT] 1 : Invalid condition id : UX_CORESTACK_Condition cause : null
2025-04-06 17:30:59,692 [INFO] LogOutputStream:77 - [STDOUT_REDIRECT] 1 : Invalid condition id : UX_CORESTACK_Condition cause : null
2025-04-06 17:30:59,692 [INFO] LogOutputStream:77 - [STDOUT_REDIRECT] 1 : Invalid condition id : UX_CORESTACK_Condition cause : null
2025-04-06 17:30:59,692 [INFO] LogOutputStream:77 - [STDOUT_REDIRECT] 1 : Invalid condition id : UX_CORESTACK_Condition cause : null
2025-04-06 17:30:59,692 [WARN] PackLoader:240 - Cannot read IP mode file for STMicroelectronics.X-CUBE-AZRTOS-WL.2.0.0
2025-04-06 17:30:59,719 [WARN] PackLoader:240 - Cannot read IP mode file for STMicroelectronics.FP-SNS-MOTENV1.5.0.0
2025-04-06 17:30:59,725 [WARN] PackLoader:240 - Cannot read IP mode file for wolfSSL.I-CUBE-wolfMQTT.1.19.0
2025-04-06 17:30:59,745 [WARN] PackLoader:240 - Cannot read IP mode file for WES.I-CUBE-Cesium.1.3.0
2025-04-06 17:30:59,765 [WARN] PackLoader:240 - Cannot read IP mode file for STMicroelectronics.X-CUBE-BLE2.3.3.0
2025-04-06 17:30:59,795 [WARN] PackLoader:240 - Cannot read IP mode file for STMicroelectronics.X-CUBE-NFC9.1.0.0
2025-04-06 17:30:59,826 [WARN] PackLoader:240 - Cannot read IP mode file for STMicroelectronics.X-CUBE-BLE1.7.1.0
2025-04-06 17:30:59,848 [WARN] PackLoader:240 - Cannot read IP mode file for STMicroelectronics.X-CUBE-TCPP.4.1.0
2025-04-06 17:30:59,869 [WARN] PackLoader:240 - Cannot read IP mode file for STMicroelectronics.X-CUBE-ALGOBUILD.1.3.0
2025-04-06 17:30:59,904 [WARN] PackLoader:240 - Cannot read IP mode file for STMicroelectronics.X-CUBE-AZRTOS-G0.1.1.0
2025-04-06 17:30:59,926 [WARN] PackLoader:240 - Cannot read IP mode file for STMicroelectronics.X-CUBE-SAFEA1.1.2.2
2025-04-06 17:30:59,946 [WARN] PackLoader:240 - Cannot read IP mode file for STMicroelectronics.X-CUBE-NFC4.3.0.0
2025-04-06 17:30:59,969 [WARN] PackLoader:240 - Cannot read IP mode file for wolfSSL.I-CUBE-wolfMQTT.1.18.0
2025-04-06 17:30:59,991 [WARN] PackLoader:240 - Cannot read IP mode file for EmbeddedOffice.I-CUBE-FS-RTOS.1.0.1
2025-04-06 17:30:59,991 [ERROR] ConditionMgr:805 - Attr not supported : Dmpu
2025-04-06 17:30:59,992 [ERROR] ConditionMgr:805 - Attr not supported : Dmpu
2025-04-06 17:30:59,992 [ERROR] ConditionMgr:805 - Attr not supported : Dmpu
2025-04-06 17:30:59,992 [ERROR] ConditionMgr:805 - Attr not supported : Dmpu
2025-04-06 17:30:59,992 [ERROR] ConditionMgr:805 - Attr not supported : Dmpu
2025-04-06 17:30:59,992 [ERROR] ConditionMgr:805 - Attr not supported : Dmpu
2025-04-06 17:30:59,992 [ERROR] ConditionMgr:805 - Attr not supported : Dmpu
2025-04-06 17:30:59,992 [ERROR] ConditionMgr:805 - Attr not supported : Dmpu
2025-04-06 17:30:59,992 [ERROR] ConditionMgr:805 - Attr not supported : Dmpu
2025-04-06 17:30:59,992 [ERROR] ConditionMgr:805 - Attr not supported : Dmpu
2025-04-06 17:30:59,992 [ERROR] ConditionMgr:805 - Attr not supported : Dmpu
2025-04-06 17:30:59,992 [ERROR] ConditionMgr:805 - Attr not supported : Dmpu
2025-04-06 17:30:59,992 [ERROR] ConditionMgr:805 - Attr not supported : Dmpu
2025-04-06 17:30:59,992 [ERROR] ConditionMgr:805 - Attr not supported : Dmpu
2025-04-06 17:30:59,992 [ERROR] ConditionMgr:805 - Attr not supported : Dmpu
2025-04-06 17:30:59,992 [ERROR] ConditionMgr:805 - Attr not supported : Dmpu
2025-04-06 17:30:59,992 [ERROR] ConditionMgr:805 - Attr not supported : Dmpu
2025-04-06 17:30:59,992 [ERROR] ConditionMgr:805 - Attr not supported : Dmpu
2025-04-06 17:30:59,992 [ERROR] ConditionMgr:805 - Attr not supported : Dmpu
2025-04-06 17:30:59,992 [ERROR] ConditionMgr:805 - Attr not supported : Dmpu
2025-04-06 17:30:59,993 [ERROR] ConditionMgr:805 - Attr not supported : Dmpu
2025-04-06 17:30:59,993 [ERROR] ConditionMgr:805 - Attr not supported : Dmpu
2025-04-06 17:30:59,993 [ERROR] ConditionMgr:805 - Attr not supported : Dmpu
2025-04-06 17:30:59,993 [ERROR] ConditionMgr:805 - Attr not supported : Dmpu
2025-04-06 17:30:59,993 [ERROR] ConditionMgr:805 - Attr not supported : Dmpu
2025-04-06 17:30:59,993 [ERROR] ConditionMgr:805 - Attr not supported : Dmpu
2025-04-06 17:30:59,993 [ERROR] ConditionMgr:805 - Attr not supported : Dmpu
2025-04-06 17:30:59,993 [ERROR] ConditionMgr:805 - Attr not supported : Dmpu
2025-04-06 17:30:59,993 [ERROR] ConditionMgr:805 - Attr not supported : Dmpu
2025-04-06 17:30:59,993 [ERROR] ConditionMgr:805 - Attr not supported : Dmpu
2025-04-06 17:30:59,993 [ERROR] ConditionMgr:805 - Attr not supported : Dmpu
2025-04-06 17:30:59,993 [ERROR] ConditionMgr:805 - Attr not supported : Dmpu
2025-04-06 17:30:59,993 [ERROR] ConditionMgr:805 - Attr not supported : Dmpu
2025-04-06 17:30:59,993 [ERROR] ConditionMgr:805 - Attr not supported : Dmpu
2025-04-06 17:30:59,993 [ERROR] ConditionMgr:805 - Attr not supported : Dmpu
2025-04-06 17:30:59,993 [ERROR] ConditionMgr:805 - Attr not supported : Dmpu
2025-04-06 17:30:59,993 [ERROR] ConditionMgr:805 - Attr not supported : Dmpu
2025-04-06 17:30:59,994 [ERROR] ConditionMgr:805 - Attr not supported : Dmpu
2025-04-06 17:30:59,994 [ERROR] ConditionMgr:805 - Attr not supported : Dmpu
2025-04-06 17:30:59,994 [ERROR] ConditionMgr:805 - Attr not supported : Dmpu
2025-04-06 17:30:59,994 [ERROR] ConditionMgr:805 - Attr not supported : Dmpu
2025-04-06 17:30:59,994 [ERROR] ConditionMgr:805 - Attr not supported : Dmpu
2025-04-06 17:30:59,994 [ERROR] ConditionMgr:805 - Attr not supported : Dmpu
2025-04-06 17:30:59,994 [ERROR] ConditionMgr:805 - Attr not supported : Dmpu
2025-04-06 17:30:59,994 [ERROR] ConditionMgr:805 - Attr not supported : Dmpu
2025-04-06 17:30:59,994 [ERROR] ConditionMgr:805 - Attr not supported : Dmpu
2025-04-06 17:30:59,994 [ERROR] ConditionMgr:805 - Attr not supported : Dmpu
2025-04-06 17:30:59,994 [ERROR] ConditionMgr:805 - Attr not supported : Dmpu
2025-04-06 17:30:59,995 [ERROR] ConditionMgr:805 - Attr not supported : Dmpu
2025-04-06 17:30:59,995 [ERROR] ConditionMgr:805 - Attr not supported : Dmpu
2025-04-06 17:30:59,995 [ERROR] ConditionMgr:805 - Attr not supported : Dmpu
2025-04-06 17:30:59,995 [ERROR] ConditionMgr:805 - Attr not supported : Dmpu
2025-04-06 17:30:59,995 [ERROR] ConditionMgr:805 - Attr not supported : Dmpu
2025-04-06 17:30:59,995 [ERROR] ConditionMgr:805 - Attr not supported : Dmpu
2025-04-06 17:30:59,995 [ERROR] ConditionMgr:805 - Attr not supported : Dmpu
2025-04-06 17:30:59,995 [ERROR] ConditionMgr:805 - Attr not supported : Dmpu
2025-04-06 17:30:59,995 [ERROR] ConditionMgr:805 - Attr not supported : Dmpu
2025-04-06 17:30:59,995 [ERROR] ConditionMgr:805 - Attr not supported : Dmpu
2025-04-06 17:30:59,995 [ERROR] ConditionMgr:805 - Attr not supported : Dmpu
2025-04-06 17:30:59,995 [ERROR] ConditionMgr:805 - Attr not supported : Dmpu
2025-04-06 17:30:59,995 [ERROR] ConditionMgr:805 - Attr not supported : Dmpu
2025-04-06 17:30:59,996 [ERROR] ConditionMgr:805 - Attr not supported : Dmpu
2025-04-06 17:30:59,996 [ERROR] ConditionMgr:805 - Attr not supported : Dmpu
2025-04-06 17:30:59,996 [ERROR] ConditionMgr:805 - Attr not supported : Dmpu
2025-04-06 17:31:00,015 [ERROR] Engine:466 - C:\Users\OS\.stm32cubemx\thirdparties\pdsc\STMicroelectronics.X-CUBE-TCPP.4.2.0.pdsc: PDSC version is not supported
2025-04-06 17:31:00,036 [WARN] PackLoader:240 - Cannot read IP mode file for RealThread.X-CUBE-RT-Thread_Nano.4.1.1
2025-04-06 17:31:00,041 [WARN] PackLoader:240 - Cannot read IP mode file for STMicroelectronics.FP-ATR-SIGFOX1.3.2.0
2025-04-06 17:31:00,047 [WARN] ConditionMgr:438 - getConditionDescription Invalid condition id : Cortex-A Device cause : null
2025-04-06 17:31:00,106 [WARN] ConditionMgr:1039 - genDependencies : Invalid condition id : Cortex-A Device cause : null
2025-04-06 17:31:00,106 [WARN] ConditionMgr:1039 - genDependencies : Invalid condition id : Cortex-A Device cause : null
2025-04-06 17:31:00,106 [WARN] ConditionMgr:1039 - genDependencies : Invalid condition id : Cortex-A Device cause : null
2025-04-06 17:31:00,131 [WARN] PackLoader:240 - Cannot read IP mode file for STMicroelectronics.X-CUBE-EEPRMA1.5.1.0
2025-04-06 17:31:00,178 [WARN] PackLoader:240 - Cannot read IP mode file for SEGGER.I-CUBE-embOS.1.3.1
2025-04-06 17:31:00,251 [WARN] PackLoader:240 - Cannot read IP mode file for STMicroelectronics.X-CUBE-ALGOBUILD.1.4.0
2025-04-06 17:31:00,275 [WARN] PackLoader:240 - Cannot read IP mode file for STMicroelectronics.X-CUBE-AI.9.1.0
2025-04-06 17:31:00,296 [WARN] PackLoader:240 - Cannot read IP mode file for STMicroelectronics.X-CUBE-GNSS1.6.0.0
2025-04-06 17:31:00,345 [WARN] PackLoader:240 - Cannot read IP mode file for STMicroelectronics.X-CUBE-AZRTOS-F4.1.1.0
2025-04-06 17:31:00,370 [WARN] PackLoader:240 - Cannot read IP mode file for STMicroelectronics.X-CUBE-ISPU.2.1.0
2025-04-06 17:31:00,382 [WARN] PackLoader:240 - Cannot read IP mode file for STMicroelectronics.X-CUBE-FREERTOS.1.2.0
2025-04-06 17:31:00,407 [WARN] PackLoader:240 - Cannot read IP mode file for wolfSSL.I-CUBE-wolfSSL.5.6.6
2025-04-06 17:31:00,442 [WARN] PackLoader:240 - Cannot read IP mode file for STMicroelectronics.X-CUBE-AZRTOS-L5.2.0.0
2025-04-06 17:31:00,463 [WARN] PackLoader:240 - Cannot read IP mode file for STMicroelectronics.X-CUBE-NFC6.3.1.0
2025-04-06 17:31:00,489 [WARN] PackLoader:240 - Cannot read IP mode file for ITTIA_DB.I-CUBE-ITTIADB.8.8.0
2025-04-06 17:31:00,509 [WARN] PackLoader:240 - Cannot read IP mode file for STMicroelectronics.X-CUBE-DPower.1.2.0
2025-04-06 17:31:00,523 [WARN] PackLoader:240 - Cannot read IP mode file for STMicroelectronics.X-CUBE-AI.9.0.0
2025-04-06 17:31:00,539 [WARN] PackLoader:240 - Cannot read IP mode file for STMicroelectronics.X-CUBE-FREERTOS.1.3.0
2025-04-06 17:31:00,556 [WARN] PackLoader:240 - Cannot read IP mode file for STMicroelectronics.X-CUBE-NFC7.1.0.1
2025-04-06 17:31:00,563 [WARN] PackLoader:240 - Cannot read IP mode file for wolfSSL.I-CUBE-wolfTPM.3.2.0
2025-04-06 17:31:00,569 [WARN] PackLoader:240 - Cannot read IP mode file for STMicroelectronics.X-CUBE-DPower.1.3.0
2025-04-06 17:31:00,591 [WARN] PackLoader:240 - Cannot read IP mode file for STMicroelectronics.X-CUBE-AI.8.1.0
2025-04-06 17:31:00,625 [WARN] ConditionMgr:438 - getConditionDescription Invalid condition id : LAN8742 Phy interface Condition cause : null
2025-04-06 17:31:00,626 [WARN] PackLoader:240 - Cannot read IP mode file for STMicroelectronics.X-CUBE-AZRTOS-L4.2.0.0
2025-04-06 17:31:00,626 [WARN] ConditionMgr:1039 - genDependencies : Invalid condition id : LAN8742 Phy interface Condition cause : null
2025-04-06 17:31:00,627 [WARN] ConditionMgr:1039 - genDependencies : Invalid condition id : LAN8742 Phy interface Condition cause : null
2025-04-06 17:31:00,627 [WARN] ConditionMgr:1039 - genDependencies : Invalid condition id : LAN8742 Phy interface Condition cause : null
2025-04-06 17:31:00,647 [WARN] PackLoader:240 - Cannot read IP mode file for STMicroelectronics.X-CUBE-SFXS2LP1.4.0.0
2025-04-06 17:31:00,683 [WARN] PackLoader:240 - Cannot read IP mode file for STMicroelectronics.X-CUBE-AZRTOS-H7.3.3.0
2025-04-06 17:31:00,706 [WARN] PackLoader:240 - Cannot read IP mode file for STMicroelectronics.X-CUBE-IPS.3.0.0
2025-04-06 17:31:00,737 [WARN] ConditionMgr:438 - getConditionDescription Invalid condition id : UX DEVICE CLASS RTOS Condition cause : null
2025-04-06 17:31:00,738 [WARN] ConditionMgr:438 - getConditionDescription Invalid condition id : UX DEVICE CLASS RTOS Condition cause : null
2025-04-06 17:31:00,740 [WARN] PackLoader:240 - Cannot read IP mode file for STMicroelectronics.X-CUBE-AZRTOS-WB.2.0.0
2025-04-06 17:31:00,741 [WARN] ConditionMgr:1039 - genDependencies : Invalid condition id : UX DEVICE CLASS RTOS Condition cause : null
2025-04-06 17:31:00,741 [WARN] ConditionMgr:1039 - genDependencies : Invalid condition id : UX DEVICE CLASS RTOS Condition cause : null
2025-04-06 17:31:00,741 [WARN] ConditionMgr:1039 - genDependencies : Invalid condition id : UX DEVICE CLASS RTOS Condition cause : null
2025-04-06 17:31:00,741 [WARN] ConditionMgr:1039 - genDependencies : Invalid condition id : UX DEVICE CLASS RTOS Condition cause : null
2025-04-06 17:31:00,741 [WARN] ConditionMgr:1039 - genDependencies : Invalid condition id : UX DEVICE CLASS RTOS Condition cause : null
2025-04-06 17:31:00,757 [WARN] PackLoader:240 - Cannot read IP mode file for STMicroelectronics.X-CUBE-GNSS1.7.0.0
2025-04-06 17:31:00,773 [WARN] PackLoader:240 - Cannot read IP mode file for STMicroelectronics.X-CUBE-GNSS1.7.0.1
2025-04-06 17:31:00,794 [WARN] PackLoader:240 - Cannot read IP mode file for STMicroelectronics.X-CUBE-TOUCHGFX.4.25.0
2025-04-06 17:31:00,823 [WARN] PackLoader:240 - Cannot read IP mode file for STMicroelectronics.FP-SNS-STBOX1.2.0.0
2025-04-06 17:31:00,857 [WARN] PackLoader:240 - Cannot read IP mode file for STMicroelectronics.X-CUBE-SUBG2.5.0.0
2025-04-06 17:31:00,893 [WARN] PackLoader:240 - Cannot read IP mode file for STMicroelectronics.X-CUBE-AZRTOS-H7RS.1.1.0
2025-04-06 17:31:00,900 [WARN] PackLoader:240 - Cannot read IP mode file for Cesanta.I-CUBE-Mongoose.7.13.0
2025-04-06 17:31:00,929 [WARN] PackLoader:240 - Cannot read IP mode file for STMicroelectronics.X-CUBE-AZRTOS-G4.2.0.0
2025-04-06 17:31:00,956 [WARN] PackLoader:240 - Cannot read IP mode file for Infineon.AIROC-Wi-Fi-Bluetooth-STM32.1.5.1
2025-04-06 17:31:00,974 [WARN] PackLoader:240 - Cannot read IP mode file for STMicroelectronics.FP-SNS-MOTENVWB1.1.3.1
2025-04-06 17:31:00,993 [WARN] PackLoader:240 - Cannot read IP mode file for STMicroelectronics.X-CUBE-ISPU.2.0.0
2025-04-06 17:31:01,011 [ERROR] Engine:466 - C:\Users\OS\.stm32cubemx\thirdparties\pdsc\STMicroelectronics.X-CUBE-IPS.3.1.0.pdsc: PDSC version is not supported
2025-04-06 17:31:01,026 [WARN] PackLoader:240 - Cannot read IP mode file for STMicroelectronics.X-CUBE-ALS.1.0.2
2025-04-06 17:31:01,086 [WARN] PackLoader:240 - Cannot read IP mode file for STMicroelectronics.X-CUBE-MEMS1.10.0.0
2025-04-06 17:31:01,198 [WARN] PackLoader:240 - Cannot read IP mode file for STMicroelectronics.X-CUBE-FREERTOS.1.1.0
2025-04-06 17:31:01,212 [WARN] PackLoader:240 - Cannot read IP mode file for STMicroelectronics.X-CUBE-TOUCHGFX.4.24.0
2025-04-06 17:31:01,228 [WARN] PackLoader:240 - Cannot read IP mode file for STMicroelectronics.X-CUBE-TOUCHGFX.4.24.2
2025-04-06 17:31:01,242 [WARN] PackLoader:240 - Cannot read IP mode file for STMicroelectronics.X-CUBE-TOUCHGFX.4.24.1
2025-04-06 17:31:01,263 [WARN] PackLoader:240 - Cannot read IP mode file for portGmbH.I-Cube-SoM-uGOAL.1.1.0
2025-04-06 17:31:01,276 [WARN] PackLoader:240 - Cannot read IP mode file for STMicroelectronics.X-CUBE-ALS.1.0.1
2025-04-06 17:31:01,311 [WARN] PackLoader:240 - Cannot read IP mode file for STMicroelectronics.X-CUBE-AZRTOS-H7RS.1.0.0
2025-04-06 17:31:01,332 [WARN] PackLoader:240 - Cannot read IP mode file for STMicroelectronics.FP-ATR-ASTRA1.2.0.0
2025-04-06 17:31:01,365 [WARN] PackLoader:240 - Cannot read IP mode file for STMicroelectronics.X-CUBE-TOF1.3.4.2
2025-04-06 17:31:01,395 [WARN] PackLoader:240 - Cannot read IP mode file for STMicroelectronics.X-CUBE-TOF1.3.4.1
2025-04-06 17:31:01,430 [WARN] PackLoader:240 - Cannot read IP mode file for STMicroelectronics.X-CUBE-AZRTOS-H7.3.2.0
2025-04-06 17:31:01,438 [WARN] PackLoader:240 - Cannot read IP mode file for wolfSSL.I-CUBE-wolfSSH.1.4.17
2025-04-06 17:31:01,439 [INFO] ThirdParty:978 - Integrity check success = true
2025-04-06 17:31:01,439 [INFO] IntegrityCheckThread:100 - exiting critical section [integrity check]
2025-04-06 17:31:01,439 [INFO] IntegrityCheckThread:103 - End integrity checks thread
2025-04-06 17:31:04,077 [INFO] McuFinderGlobals:63 - Set McuFinder mode to 2 (CubeIDE integrated)
2025-04-06 17:31:04,105 [INFO] MainUpdater:2873 - connection check result : 10
2025-04-06 17:31:04,113 [INFO] MainUpdater:2873 - connection check result : 10
2025-04-06 17:31:04,314 [INFO] RulesReader:64 - Compatibility file has been processed (297 Rules)
2025-04-06 17:31:04,328 [INFO] RulesReader:64 - Compatibility file has been processed (297 Rules)
2025-04-06 17:31:04,335 [INFO] MicroXplorer:468 - Change Database Path : 
2025-04-06 17:31:04,335 [INFO] MicroXplorer:498 - Change Database Version : DB.6.0.120
2025-04-06 17:31:04,348 [WARN] ThirdParty:871 - waiting for thirdparty lock release [close project]
2025-04-06 17:31:04,348 [INFO] ThirdParty:873 - entering critical section [close project]
2025-04-06 17:31:04,350 [INFO] ThirdParty:883 - exiting critical section [close project]
2025-04-06 17:31:04,355 [INFO] PinOutPanel:1561 - setPackage(No Configuration,No Configuration)
2025-04-06 17:31:04,364 [INFO] UtilMem:75 - Begin LoadConfig() Used Memory: 184285560 Bytes (269484032)
2025-04-06 17:31:04,367 [INFO] MicroXplorer:468 - Change Database Path : 
2025-04-06 17:31:04,367 [INFO] MicroXplorer:498 - Change Database Version : DB.6.0.120
2025-04-06 17:31:04,368 [INFO] OpenFileManager:332 - Change cursor
2025-04-06 17:31:04,381 [INFO] ThirdPartyDownloadManager:103 - Found SW packSTMicroelectronics.X-CUBE-AI.10.0.0up-to-date on disk
2025-04-06 17:31:04,433 [INFO] Mcu:2032 - Initializing MCU STM32F746NGHx STM32F746NGHx STM32F746NGH6
2025-04-06 17:31:07,674 [INFO] Context:742 - Trying to add GPIOservice into a context  which must be forbidden
2025-04-06 17:31:08,392 [INFO] ApiDbMcu:508 - Load IP Config File for STMicroelectronics.X-CUBE-AI.10.0.0
2025-04-06 17:31:08,766 [INFO] RtosManager:555 - Registered RTOS mode: class=CMSIS, group=RTOS, mode=CMSIS_V1, owner=FREERTOS
2025-04-06 17:31:08,767 [INFO] RtosManager:555 - Registered RTOS mode: class=CMSIS, group=RTOS2, mode=CMSIS_V2, owner=FREERTOS
2025-04-06 17:31:08,767 [INFO] RtosManager:555 - Registered RTOS mode: class=RTOS, group=Core, mode=CMSIS_V1, owner=FREERTOS
2025-04-06 17:31:08,768 [INFO] RtosManager:555 - Registered RTOS mode: class=RTOS, group=Core, mode=CMSIS_V2, owner=FREERTOS
2025-04-06 17:31:08,768 [WARN] ModelIntegratedComponent:184 - Missing modes for component STMicroelectronics:FreeRTOS:0.0.1:STMicroelectronics:RTOS:FreeRTOS:Core:::10.2.0:
2025-04-06 17:31:08,775 [WARN] ModelIntegratedComponent:63 - No mode defined for component null
2025-04-06 17:31:08,775 [WARN] ModelIntegratedComponent:63 - No mode defined for component null
2025-04-06 17:31:08,775 [WARN] ModelIntegratedComponent:63 - No mode defined for component null
2025-04-06 17:31:08,775 [WARN] ModelIntegratedComponent:63 - No mode defined for component null
2025-04-06 17:31:08,775 [WARN] ModelIntegratedComponent:63 - No mode defined for component null
2025-04-06 17:31:08,775 [WARN] ModelIntegratedComponent:63 - No mode defined for component null
2025-04-06 17:31:08,775 [WARN] ModelIntegratedComponent:63 - No mode defined for component null
2025-04-06 17:31:08,776 [WARN] ModelIntegratedComponent:63 - No mode defined for component null
2025-04-06 17:31:08,776 [WARN] ModelIntegratedComponent:63 - No mode defined for component null
2025-04-06 17:31:08,776 [WARN] ModelIntegratedComponent:63 - No mode defined for component null
2025-04-06 17:31:08,776 [WARN] ModelIntegratedComponent:63 - No mode defined for component null
2025-04-06 17:31:08,776 [WARN] ModelIntegratedComponent:63 - No mode defined for component null
2025-04-06 17:31:08,776 [WARN] ModelIntegratedComponent:63 - No mode defined for component null
2025-04-06 17:31:08,777 [WARN] ModelIntegratedComponent:63 - No mode defined for component null
2025-04-06 17:31:08,777 [WARN] ModelIntegratedComponent:63 - No mode defined for component null
2025-04-06 17:31:08,778 [WARN] ModelIntegratedComponent:63 - No mode defined for component null
2025-04-06 17:31:08,778 [WARN] ModelIntegratedComponent:63 - No mode defined for component null
2025-04-06 17:31:08,778 [WARN] ModelIntegratedComponent:63 - No mode defined for component null
2025-04-06 17:31:08,778 [WARN] ModelIntegratedComponent:63 - No mode defined for component null
2025-04-06 17:31:08,779 [WARN] ModelIntegratedComponent:63 - No mode defined for component null
2025-04-06 17:31:08,779 [WARN] ModelIntegratedComponent:63 - No mode defined for component null
2025-04-06 17:31:08,779 [WARN] ModelIntegratedComponent:63 - No mode defined for component null
2025-04-06 17:31:08,779 [WARN] ModelIntegratedComponent:63 - No mode defined for component null
2025-04-06 17:31:08,779 [WARN] ModelIntegratedComponent:63 - No mode defined for component null
2025-04-06 17:31:08,779 [WARN] ModelIntegratedComponent:63 - No mode defined for component null
2025-04-06 17:31:08,779 [WARN] ModelIntegratedComponent:63 - No mode defined for component null
2025-04-06 17:31:08,779 [WARN] ModelIntegratedComponent:63 - No mode defined for component null
2025-04-06 17:31:08,779 [WARN] ModelIntegratedComponent:63 - No mode defined for component null
2025-04-06 17:31:08,780 [WARN] ModelIntegratedComponent:63 - No mode defined for component null
2025-04-06 17:31:08,780 [WARN] ModelIntegratedComponent:63 - No mode defined for component null
2025-04-06 17:31:08,780 [WARN] ModelIntegratedComponent:63 - No mode defined for component null
2025-04-06 17:31:08,780 [WARN] ModelIntegratedComponent:63 - No mode defined for component null
2025-04-06 17:31:08,780 [WARN] ModelIntegratedComponent:63 - No mode defined for component null
2025-04-06 17:31:08,780 [WARN] ModelIntegratedComponent:63 - No mode defined for component null
2025-04-06 17:31:08,780 [WARN] ModelIntegratedComponent:63 - No mode defined for component null
2025-04-06 17:31:08,781 [WARN] ModelPack:524 - Component already loaded: STMicroelectronics:HAL Drivers:0.0.0:STMicroelectronics:Device:STMicro_Driver:XSPI:HAL::0.0.1:HAL_XSPI
2025-04-06 17:31:09,095 [INFO] IPUIPlugin:80 - create IPUIPlugin
2025-04-06 17:31:09,154 [INFO] PluginManager:220 - loadIPPluginJar : add ai.10.0.0
2025-04-06 17:31:10,123 [INFO] Middleware:617 - instanceName : STMicroelectronics.X-CUBE-AI.10.0.0 bspName : COM Port check condition success for : !SEMDeviceJjApplicationJjApplicationTemplate
2025-04-06 17:31:10,123 [INFO] Middleware:617 - instanceName : STMicroelectronics.X-CUBE-AI.10.0.0 bspName : COM Port check condition success for : !SEMDeviceJjApplicationJjApplicationTemplate
2025-04-06 17:31:10,123 [INFO] Middleware:617 - instanceName : STMicroelectronics.X-CUBE-AI.10.0.0 bspName : COM Port check condition success for : !SEMDeviceJjApplicationJjApplicationTemplate
2025-04-06 17:31:10,195 [INFO] ThirdPartyModel:298 - Start build external matchings
2025-04-06 17:31:13,584 [INFO] ThirdPartyModel:316 - End build external matchings
2025-04-06 17:31:13,689 [INFO] ImportTextPane:205 - (OptionalMessage_ERROR) IP (RCC) : Invalid parameter (FamilyName)
2025-04-06 17:31:13,689 [INFO] ImportTextPane:205 - (OptionalMessage_ERROR) IP (RCC) : Parameter (LCDTFToutputFreq_Value) has invalid value (96000000)
2025-04-06 17:31:13,690 [INFO] ImportTextPane:205 - (OptionalMessage_ERROR) IP (RCC) : Invalid parameter (PLLMUL)
2025-04-06 17:31:13,691 [INFO] ImportTextPane:205 - (OptionalMessage_ERROR) IP (RCC) : Parameter (PLLP) has invalid value (2)
2025-04-06 17:31:13,691 [INFO] ImportTextPane:205 - (OptionalMessage_ERROR) IP (RCC) : Invalid parameter (PRESCALERUSB)
2025-04-06 17:31:13,691 [INFO] ImportTextPane:205 - (OptionalMessage_ERROR) IP (RCC) : Parameter (SDMMCFreq_Value) has invalid value (216000000)
2025-04-06 17:31:13,691 [INFO] ImportTextPane:205 - (OptionalMessage_ERROR) IP (RCC) : Invalid parameter (SYSCLKSourceVirtual)
2025-04-06 17:31:13,721 [INFO] ImportTextPane:205 - (OptionalMessage_ERROR) IP (STMicroelectronics.X-CUBE-AI.10.0.0) : Parameter (ModelName) has Id (c11b3522642c75eed0c13020aaece17b16782c5a381a7873b59b3e4f04ea4c08) currently not set
2025-04-06 17:31:13,721 [INFO] ImportTextPane:205 - (OptionalMessage_ERROR) IP (STMicroelectronics.X-CUBE-AI.10.0.0) : Parameter (ModelKind) has Id (c11b3522642c75eed0c13020aaece17b16782c5a381a7873b59b3e4f04ea4c08) currently not set
2025-04-06 17:31:13,722 [INFO] ImportTextPane:205 - (OptionalMessage_ERROR) IP (STMicroelectronics.X-CUBE-AI.10.0.0) : Parameter (ModelCompression) has Id (c11b3522642c75eed0c13020aaece17b16782c5a381a7873b59b3e4f04ea4c08) currently not set
2025-04-06 17:31:13,722 [INFO] ImportTextPane:205 - (OptionalMessage_ERROR) IP (STMicroelectronics.X-CUBE-AI.10.0.0) : Parameter (ModelType) has Id (c11b3522642c75eed0c13020aaece17b16782c5a381a7873b59b3e4f04ea4c08) currently not set
2025-04-06 17:31:13,722 [INFO] ImportTextPane:205 - (OptionalMessage_ERROR) IP (STMicroelectronics.X-CUBE-AI.10.0.0) : Invalid parameter (LatestDirectoryUsed)
2025-04-06 17:31:13,722 [INFO] ImportTextPane:205 - (OptionalMessage_ERROR) IP (STMicroelectronics.X-CUBE-AI.10.0.0) : Parameter (ModelName) has Id (fa3792fcf65903fb6a173b49f1cf7a96553e78f8217c20469db5eba39f1602ea) currently not set
2025-04-06 17:31:13,723 [INFO] ImportTextPane:205 - (OptionalMessage_ERROR) IP (STMicroelectronics.X-CUBE-AI.10.0.0) : Parameter (ModelMacc) has Id (c11b3522642c75eed0c13020aaece17b16782c5a381a7873b59b3e4f04ea4c08) currently not set
2025-04-06 17:31:13,723 [INFO] ImportTextPane:205 - (OptionalMessage_ERROR) IP (STMicroelectronics.X-CUBE-AI.10.0.0) : Parameter (ModelActualCompression) has Id (c11b3522642c75eed0c13020aaece17b16782c5a381a7873b59b3e4f04ea4c08) currently not set
2025-04-06 17:31:13,723 [INFO] ImportTextPane:205 - (OptionalMessage_ERROR) IP (STMicroelectronics.X-CUBE-AI.10.0.0) : Parameter (ModelFlashOccupation) has Id (c11b3522642c75eed0c13020aaece17b16782c5a381a7873b59b3e4f04ea4c08) currently not set
2025-04-06 17:31:13,723 [INFO] ImportTextPane:205 - (OptionalMessage_ERROR) IP (STMicroelectronics.X-CUBE-AI.10.0.0) : Parameter (ModelRamOccupation) has Id (c11b3522642c75eed0c13020aaece17b16782c5a381a7873b59b3e4f04ea4c08) currently not set
2025-04-06 17:31:13,723 [INFO] ImportTextPane:205 - (OptionalMessage_ERROR) IP (STMicroelectronics.X-CUBE-AI.10.0.0) : Parameter (ModelStructureFile) has Id (c11b3522642c75eed0c13020aaece17b16782c5a381a7873b59b3e4f04ea4c08) currently not set
2025-04-06 17:31:14,814 [INFO] ApiDb:581 - Connected to CubeFinder SQLite database (C:\Users\OS\.stmcufinder\plugins\mcufinder\mcu\cube-finder-db.db)
2025-04-06 17:31:14,954 [INFO] ApiDb:668 - CubeFinder database Data Model version=2.1
2025-04-06 17:31:14,954 [INFO] ApiDb:669 - CubeFinder database Configuration version=3.0.39
2025-04-06 17:31:14,955 [INFO] ApiDb:670 - CubeFinder database generation date=2025-02-07 (1738919966)
2025-04-06 17:31:14,955 [INFO] ApiDb:671 - CubeFinder database FW Pack versions=[FP-ATR-ASTRA1_V2.0.0, FP-SNS-FLIGHT1_V5.0.2, FP-SNS-MOTENV1_V5.0.0, FP-SNS-MOTENVWB1_V1.4.0, FP-SNS-SMARTAG2_V1.2.0, FP-SNS-STBOX1_V2.0.0, STM32Cube_FW_C0_V1.3.0, STM32Cube_FW_F4_V1.28.1, STM32Cube_FW_F7_V1.17.2, STM32Cube_FW_G0_V1.6.2, STM32Cube_FW_G4_V1.6.1, STM32Cube_FW_H5_V1.4.0, STM32Cube_FW_H7RS_V1.1.0, STM32Cube_FW_H7_V1.12.0, STM32Cube_FW_L0_V1.12.2, STM32Cube_FW_L4_V1.18.1, STM32Cube_FW_L5_V1.5.1, STM32Cube_FW_N6_V1.0.0, STM32Cube_FW_U0_V1.2.0, STM32Cube_FW_U3_V1.0.0, STM32Cube_FW_U5_V1.7.0, STM32Cube_FW_WB0_V1.1.0, STM32Cube_FW_WBA_V1.5.0, STM32Cube_FW_WB_V1.21.0, STM32Cube_FW_WL3_V1.0.0, STM32Cube_FW_WL_V1.3.0, X-CUBE-ALGOBUILD_V1.4.0, X-CUBE-ALS_V1.0.2, X-CUBE-AZRTOS-F4_V1.1.0, X-CUBE-AZRTOS-F7_V1.1.0, X-CUBE-AZRTOS-G0_V1.1.0, X-CUBE-AZRTOS-G4_V2.0.0, X-CUBE-AZRTOS-H7RS_V1.0.0, X-CUBE-AZRTOS-H7_V3.3.0, X-CUBE-AZRTOS-L4_V2.0.0, X-CUBE-AZRTOS-L5_V2.0.0, X-CUBE-AZRTOS-WB_V2.0.0, X-CUBE-AZRTOS-WL_V2.0.0, X-CUBE-BLE1_V7.0.0, X-CUBE-BLE2_V3.3.0, X-CUBE-BLEMGR_V4.0.0, X-CUBE-EEPRMA1_V5.1.0, X-CUBE-FREERTOS_V1.2.0, X-CUBE-GNSS1_V6.0.0, X-CUBE-MEMS1_V11.1.0, X-CUBE-NFC4_V3.0.0, X-CUBE-NFC7_V1.0.1, X-CUBE-SFXS2LP1_V4.0.0, X-CUBE-SUBG2_V5.0.0, X-CUBE-TOF1_V3.4.2]
2025-04-06 17:31:15,113 [INFO] DbBoardsSqlite:226 - include board P-NUCLEO-WB55-NUCLEO as a kit item of type 'Nucleo-64'
2025-04-06 17:31:15,113 [INFO] DbBoardsSqlite:226 - include board P-NUCLEO-WB55-USBDONGLE as a kit item of type 'Nucleo USB Dongle'
2025-04-06 17:31:15,114 [INFO] DbBoardsSqlite:226 - include board STEVAL-IDP005V1 as a kit item of type 'Evaluation Board'
2025-04-06 17:31:15,115 [INFO] DbBoardsSqlite:226 - include board STEVAL-IDP005V2 as a kit item of type 'Evaluation Board'
2025-04-06 17:31:15,584 [INFO] ApiDb:240 - Found 646 in-development CPN: [B-G473E-ZEST1S, B-WB1M-WPAN1, B-WL5M-SUBG1, NUCLEO-C031C6, NUCLEO-C071RB, NUCLEO-H503RB, NUCLEO-H533RE, NUCLEO-H563ZI, NUCLEO-H7S3L8, NUCLEO-U031R8, NUCLEO-U083RC, NUCLEO-U545RE-Q, NUCLEO-U5A5ZJ-Q, NUCLEO-WB05KZ, NUCLEO-WB07CC, NUCLEO-WB09KE, NUCLEO-WBA52CG, NUCLEO-WBA55CG, STEVAL-PROTEUS1, STEVAL-SMARTAG2, STEVAL-STWINBX1, STM320518-EVAL, STM32C0116-DK, STM32C011D6Y3TR, STM32C011D6Y6TR, STM32C011F4P3, STM32C011F4P6, STM32C011F4U3, STM32C011F4U6TR, STM32C011F6P3, STM32C011F6P6, STM32C011F6U3, STM32C011F6U6TR, STM32C011J4M3, STM32C011J4M6, STM32C011J6M3, STM32C011J6M6, STM32C0316-DK, STM32C031C4T3, STM32C031C4T6, STM32C031C4U3, STM32C031C4U6, STM32C031C6T3, STM32C031C6T6, STM32C031C6U3, STM32C031C6U6, STM32C031F4P3, STM32C031F4P6, STM32C031F6P3, STM32C031F6P6, STM32C031G4U3, STM32C031G4U6, STM32C031G6U3, STM32C031G6U6, STM32C031K4T3, STM32C031K4T6, STM32C031K4U3, STM32C031K4U6, STM32C031K6T3, STM32C031K6T6, STM32C031K6U3, STM32C031K6U6, STM32C071C8T6, STM32C071C8T6N, STM32C071C8U6, STM32C071C8U6N, STM32C071CBT6, STM32C071CBT6N, STM32C071CBU6, STM32C071CBU6N, STM32C071F8P6, STM32C071F8P6N, STM32C071FBP6, STM32C071FBP6N, STM32C071FBY6TR, STM32C071G8U6, STM32C071G8U6N, STM32C071GBU6, STM32C071GBU6N, STM32C071K8T6, STM32C071K8T6N, STM32C071K8U6, STM32C071K8U6N, STM32C071KBT6, STM32C071KBT6N, STM32C071KBU6, STM32C071KBU6N, STM32C071R8T6, STM32C071R8T6N, STM32C071RBI6N, STM32C071RBT6, STM32C071RBT6N, STM32G071K8TXN, STM32G071K8UXN, STM32G081GBU6N, STM32G081KBT6N, STM32G081KBUXN, STM32G0B1CCT6N, STM32G0B1KCT6, STM32G0B1NEY6TR, STM32G0B1RCT6N, STM32G0C1CCT6, STM32G0C1CCT6N, STM32G0C1CCU6N, STM32G0C1CET6N, STM32G0C1CEU6N, STM32G0C1KCT6, STM32G0C1NEY6TR, STM32G0C1RCI6N, STM32G0C1RCT6N, STM32G0C1REI6N, STM32G0C1RET6N, STM32G0C1VCI6, STM32G0C1VEI6, STM32G411C6T3, STM32G411C6T6, STM32G411C6U3, STM32G411C6U6, STM32G411C8T3, STM32G411C8T6, STM32G411C8U3, STM32G411C8U6, STM32G411CBT3, STM32G411CBT6, STM32G411CBU3, STM32G411CBU6, STM32G411K6T3, STM32G411K6T6, STM32G411K6U3, STM32G411K6U6, STM32G411K8T3, STM32G411K8T6, STM32G411K8U3, STM32G411K8U6, STM32G411KBT3, STM32G411KBT6, STM32G411KBU3, STM32G411KBU6, STM32G411M6T3, STM32G411M6T6, STM32G411M8T3, STM32G411M8T6, STM32G411MBT3, STM32G411MBT6, STM32G411R6T3, STM32G411R6T6, STM32G411R8T3, STM32G411R8T6, STM32G411RBT3, STM32G411RBT6, STM32G414CBT3, STM32G414CBT6, STM32G414CBU3, STM32G414CBU6, STM32G414CCT3, STM32G414CCT6, STM32G414CCU3, STM32G414CCU6, STM32G414MBT3, STM32G414MBT6, STM32G414MCT3, STM32G414MCT6, STM32G414RBT3, STM32G414RBT6, STM32G414RCT3, STM32G414RCT6, STM32G414VBT3, STM32G414VBT6, STM32G414VCT3, STM32G414VCT6, STM32G431CBT3Z, STM32G431RBT3Z, STM32G471CCT6, STM32G471CCU6, STM32G471CET3, STM32G471CET6, STM32G471CEU3, STM32G471CEU6, STM32G471MCT6, STM32G471MET3, STM32G471MET6, STM32G471MEY6TR, STM32G471QCT6, STM32G471QET3, STM32G471RCT6, STM32G471RET3, STM32G471RET6, STM32G471VCH6, STM32G471VCI6, STM32G471VCT6, STM32G471VEH3, STM32G471VEH6, STM32G471VEI3, STM32G471VEI6, STM32G471VET3, STM32G471VET6, STM32G473QET3Z, STM32G473RET3Z, STM32G474CCT6, STM32G491RET3Z, STM32H503CBT6, STM32H503CBU6, STM32H503EBY6TR, STM32H503KBU6, STM32H503RBT6, STM32H523CCT6, STM32H523CCU6, STM32H523CET6, STM32H523CEU6, STM32H523HEY6TR, STM32H523RCT6, STM32H523RET6, STM32H523VCI6, STM32H523VCT6, STM32H523VEI6, STM32H523VET6, STM32H523ZCJ6, STM32H523ZCT6, STM32H523ZEJ6, STM32H523ZET6, STM32H533CET6, STM32H533CEU6, STM32H533HEY6TR, STM32H533RET6, STM32H533VEI6, STM32H533VET6, STM32H533ZEJ6, STM32H533ZET6, STM32H562AGI6, STM32H562AII6, STM32H562IGK6, STM32H562IGT6, STM32H562IIK6, STM32H562IIT6, STM32H562RGT6, STM32H562RGV6, STM32H562RIT6, STM32H562RIV6, STM32H562VGT6, STM32H562VIT6, STM32H562ZGT6, STM32H562ZIT6, STM32H563AGI6, STM32H563AII3Q, STM32H563AII6, STM32H563IGK6, STM32H563IGT6, STM32H563IIK3Q, STM32H563IIK6, STM32H563IIT3Q, STM32H563IIT6, STM32H563MIY3QTR, STM32H563RGT6, STM32H563RGV6, STM32H563RIT6, STM32H563RIV6, STM32H563VGT6, STM32H563VIT3Q, STM32H563VIT6, STM32H563ZGT6, STM32H563ZIT3Q, STM32H563ZIT6, STM32H573AII3Q, STM32H573AII6, STM32H573I-DK, STM32H573IIK3Q, STM32H573IIK6, STM32H573IIT3Q, STM32H573IIT6, STM32H573MIY3QTR, STM32H573RIT6, STM32H573RIV6, STM32H573VIT3Q, STM32H573VIT6, STM32H573ZIT3Q, STM32H573ZIT6, STM32H7R3A8I6, STM32H7R3I8K6, STM32H7R3I8T6, STM32H7R3L8H6, STM32H7R3L8H6H, STM32H7R3R8V6, STM32H7R3V8H6, STM32H7R3V8T6, STM32H7R3V8Y6TR, STM32H7R3Z8J6, STM32H7R3Z8T6, STM32H7R7A8I6, STM32H7R7I8K6, STM32H7R7I8T6, STM32H7R7L8H6, STM32H7R7L8H6H, STM32H7R7Z8J6, STM32H7S3A8I6, STM32H7S3I8K6, STM32H7S3I8T6, STM32H7S3L8H6, STM32H7S3L8H6H, STM32H7S3R8V6, STM32H7S3V8H6, STM32H7S3V8T6, STM32H7S3V8Y6TR, STM32H7S3Z8J6, STM32H7S3Z8T6, STM32H7S78-DK, STM32H7S7A8I6, STM32H7S7I8K6, STM32H7S7I8T6, STM32H7S7L8H6, STM32H7S7L8H6H, STM32H7S7Z8J6, STM32L4R5QGI6STR, STM32MP131AAE3, STM32MP131AAF3, STM32MP131AAG3, STM32MP131CAE3, STM32MP131CAF3, STM32MP131CAG3, STM32MP131DAE7, STM32MP131DAF7, STM32MP131DAG7, STM32MP131FAE7, STM32MP131FAF7, STM32MP131FAG7, STM32MP133AAE3, STM32MP133AAF3, STM32MP133AAG3, STM32MP133CAE3, STM32MP133CAF3, STM32MP133CAG3, STM32MP133DAE7, STM32MP133DAF7, STM32MP133DAG7, STM32MP133FAE7, STM32MP133FAF7, STM32MP133FAG7, STM32MP135AAE3, STM32MP135AAF3, STM32MP135AAG3, STM32MP135CAE3, STM32MP135CAF3, STM32MP135CAG3, STM32MP135DAE7, STM32MP135DAF7, STM32MP135DAG7, STM32MP135F-DK, STM32MP135FAE7, STM32MP135FAF7, STM32MP135FAF7T, STM32MP135FAF7U, STM32MP135FAG7, STM32MP251AAI3, STM32MP251AAK3, STM32MP251AAL3, STM32MP251CAI3, STM32MP251CAK3, STM32MP251CAL3, STM32MP251DAI3, STM32MP251DAK3, STM32MP251DAL3, STM32MP251FAI3, STM32MP251FAK3, STM32MP251FAL3, STM32MP253AAI3, STM32MP253AAK3, STM32MP253AAL3, STM32MP253CAI3, STM32MP253CAK3, STM32MP253CAL3, STM32MP253DAI3, STM32MP253DAK3, STM32MP253DAL3, STM32MP253FAI3, STM32MP253FAK3, STM32MP253FAL3, STM32MP255AAI3, STM32MP255AAK3, STM32MP255AAL3, STM32MP255CAI3, STM32MP255CAK3, STM32MP255CAL3, STM32MP255DAI3, STM32MP255DAK3, STM32MP255DAL3, STM32MP255FAI3, STM32MP255FAK3, STM32MP255FAL3, STM32MP257AAI3, STM32MP257AAK3, STM32MP257AAL3, STM32MP257CAI3, STM32MP257CAK3, STM32MP257CAL3, STM32MP257DAI3, STM32MP257DAK3, STM32MP257DAL3, STM32MP257F-DK, STM32MP257F-EV1, STM32MP257FAI3, STM32MP257FAK3, STM32MP257FAL3, STM32U031C6T6, STM32U031C6U6, STM32U031C8T6, STM32U031C8U6, STM32U031F4P6, STM32U031F6P6, STM32U031F8P6, STM32U031G6Y6TR, STM32U031G8Y6TR, STM32U031K4U6, STM32U031K6U6, STM32U031K8U6, STM32U031R6I6, STM32U031R6T6, STM32U031R8I6, STM32U031R8T6, STM32U073C8T6, STM32U073C8U6, STM32U073CBT6, STM32U073CBU6, STM32U073CCT6, STM32U073CCU6, STM32U073H8Y6TR, STM32U073HBY6TR, STM32U073HCY6TR, STM32U073K8U6, STM32U073KBU6, STM32U073KCU6, STM32U073M8I6, STM32U073M8T6, STM32U073MBI6, STM32U073MBT6, STM32U073MCI6, STM32U073MCT6, STM32U073R8I6, STM32U073R8T6, STM32U073RBI6, STM32U073RBT6, STM32U073RCI6, STM32U073RCT6, STM32U083C-DK, STM32U083CCT6, STM32U083CCU6, STM32U083HCY6TR, STM32U083KCU6, STM32U083MCI6, STM32U083MCT6, STM32U083RCI6, STM32U083RCT6, STM32U535CBT6, STM32U535CBT6Q, STM32U535CBU6, STM32U535CBU6Q, STM32U535CCT6, STM32U535CCT6Q, STM32U535CCU6, STM32U535CCU6Q, STM32U535CET6, STM32U535CET6Q, STM32U535CEU6, STM32U535CEU6Q, STM32U535JEY6QTR, STM32U535NCY6QTR, STM32U535NEY6QTR, STM32U535RBI6, STM32U535RBI6Q, STM32U535RBT6, STM32U535RBT6Q, STM32U535RCI6, STM32U535RCI6Q, STM32U535RCT6, STM32U535RCT6Q, STM32U535REI6, STM32U535REI6Q, STM32U535RET6, STM32U535RET6Q, STM32U535VCI6, STM32U535VCI6Q, STM32U535VCT6, STM32U535VCT6Q, STM32U535VEI6, STM32U535VEI6Q, STM32U535VET6, STM32U535VET6Q, STM32U545CET6, STM32U545CET6Q, STM32U545CEU6, STM32U545CEU6Q, STM32U545JEY6QTR, STM32U545NEY6QTR, STM32U545REI6, STM32U545REI6Q, STM32U545RET6, STM32U545RET6Q, STM32U545VEI6, STM32U545VEI6Q, STM32U545VET6, STM32U545VET6Q, STM32U595AIH6, STM32U595AIH6Q, STM32U595AJH6, STM32U595AJH6Q, STM32U595QII6, STM32U595QII6Q, STM32U595QJI6, STM32U595QJI6Q, STM32U595RIT6, STM32U595RIT6Q, STM32U595RJT6, STM32U595RJT6Q, STM32U595VIT6, STM32U595VIT6Q, STM32U595VJT6, STM32U595VJT6Q, STM32U595ZIT6, STM32U595ZIT6Q, STM32U595ZIY6QTR, STM32U595ZJT6, STM32U595ZJT6Q, STM32U595ZJY6QTR, STM32U599BJY6QTR, STM32U599NIH6Q, STM32U599NJH6Q, STM32U599VIT6Q, STM32U599VJT6, STM32U599VJT6Q, STM32U599ZIT6Q, STM32U599ZIY6QTR, STM32U599ZJT6Q, STM32U599ZJY6QTR, STM32U5A5AJH6, STM32U5A5AJH6Q, STM32U5A5QII3Q , STM32U5A5QJI6, STM32U5A5QJI6Q, STM32U5A5RJT6, STM32U5A5RJT6Q, STM32U5A5VJT6, STM32U5A5VJT6Q, STM32U5A5ZJT6, STM32U5A5ZJT6Q, STM32U5A5ZJY6QTR, STM32U5A9BJY6QTR, STM32U5A9J-DK, STM32U5A9NJH6Q, STM32U5A9VJT6Q, STM32U5A9ZJT6Q, STM32U5A9ZJY6QTR, STM32U5F7VIT6, STM32U5F7VIT6Q, STM32U5F7VJT6, STM32U5F7VJT6Q, STM32U5F9BJY6QTR, STM32U5F9NJH6Q, STM32U5F9VIT6Q, STM32U5F9VJT6Q, STM32U5F9ZIJ6QTR, STM32U5F9ZIT6Q, STM32U5F9ZJJ6QTR, STM32U5F9ZJT6Q, STM32U5G7VJT6, STM32U5G7VJT6Q, STM32U5G9BJY6QTR, STM32U5G9J-DK1, STM32U5G9J-DK2, STM32U5G9NJH6Q, STM32U5G9VJT6Q, STM32U5G9ZJJ6QTR, STM32U5G9ZJT6Q, STM32WB05KZV6TR, STM32WB05KZV7TR, STM32WB05TZF6TR, STM32WB05TZF7TR, STM32WB06CCF6TR, STM32WB06CCF7TR, STM32WB06CCV6TR, STM32WB06CCV7TR, STM32WB06KCV6TR, STM32WB06KCV7TR, STM32WB07CCF6TR, STM32WB07CCF7TR, STM32WB07CCV6TR, STM32WB07CCV7TR, STM32WB07KCV6TR, STM32WB07KCV7TR, STM32WB09KEV6TR, STM32WB09KEV7TR, STM32WB09TEF6TR, STM32WB09TEF7TR, STM32WB1MMCH6, STM32WBA50KGU6, STM32WBA50KGU6TR, STM32WBA52CEU6, STM32WBA52CEU6TR, STM32WBA52CEU7, STM32WBA52CEU7TR, STM32WBA52CGU6, STM32WBA52CGU6TR, STM32WBA52CGU6U, STM32WBA52CGU7, STM32WBA52CGU7TR, STM32WBA52KEU6, STM32WBA52KEU6TR, STM32WBA52KGU6, STM32WBA52KGU6TR, STM32WBA54CEU6, STM32WBA54CEU6TR, STM32WBA54CEU7, STM32WBA54CEU7TR, STM32WBA54CGU6, STM32WBA54CGU6TR, STM32WBA54CGU7, STM32WBA54CGU7TR, STM32WBA54KEU6, STM32WBA54KEU6TR, STM32WBA54KEU7, STM32WBA54KEU7TR, STM32WBA54KGU6, STM32WBA54KGU6TR, STM32WBA54KGU7, STM32WBA54KGU7TR, STM32WBA55CEU6, STM32WBA55CEU6TR, STM32WBA55CEU7, STM32WBA55CEU7TR, STM32WBA55CGU6, STM32WBA55CGU6TR, STM32WBA55CGU6U, STM32WBA55CGU7, STM32WBA55CGU7TR, STM32WBA55G-DK1, STM32WBA55HEF6, STM32WBA55HEF7, STM32WBA55HGF6, STM32WBA55HGF7, STM32WBA55UEI6, STM32WBA55UEI6TR, STM32WBA55UEI7, STM32WBA55UEI7TR, STM32WBA55UGI6, STM32WBA55UGI6TR, STM32WBA55UGI7, STM32WBA55UGI7TR, STM32WL5MOCH6, STM32WL5MOCH6TR]
2025-04-06 17:31:15,587 [INFO] ApiDb:668 - CubeFinder database Data Model version=2.1
2025-04-06 17:31:15,588 [INFO] ApiDb:669 - CubeFinder database Configuration version=3.0.39
2025-04-06 17:31:15,588 [INFO] ApiDb:670 - CubeFinder database generation date=2025-02-07 (1738919966)
2025-04-06 17:31:15,588 [INFO] ApiDb:671 - CubeFinder database FW Pack versions=[FP-ATR-ASTRA1_V2.0.0, FP-SNS-FLIGHT1_V5.0.2, FP-SNS-MOTENV1_V5.0.0, FP-SNS-MOTENVWB1_V1.4.0, FP-SNS-SMARTAG2_V1.2.0, FP-SNS-STBOX1_V2.0.0, STM32Cube_FW_C0_V1.3.0, STM32Cube_FW_F4_V1.28.1, STM32Cube_FW_F7_V1.17.2, STM32Cube_FW_G0_V1.6.2, STM32Cube_FW_G4_V1.6.1, STM32Cube_FW_H5_V1.4.0, STM32Cube_FW_H7RS_V1.1.0, STM32Cube_FW_H7_V1.12.0, STM32Cube_FW_L0_V1.12.2, STM32Cube_FW_L4_V1.18.1, STM32Cube_FW_L5_V1.5.1, STM32Cube_FW_N6_V1.0.0, STM32Cube_FW_U0_V1.2.0, STM32Cube_FW_U3_V1.0.0, STM32Cube_FW_U5_V1.7.0, STM32Cube_FW_WB0_V1.1.0, STM32Cube_FW_WBA_V1.5.0, STM32Cube_FW_WB_V1.21.0, STM32Cube_FW_WL3_V1.0.0, STM32Cube_FW_WL_V1.3.0, X-CUBE-ALGOBUILD_V1.4.0, X-CUBE-ALS_V1.0.2, X-CUBE-AZRTOS-F4_V1.1.0, X-CUBE-AZRTOS-F7_V1.1.0, X-CUBE-AZRTOS-G0_V1.1.0, X-CUBE-AZRTOS-G4_V2.0.0, X-CUBE-AZRTOS-H7RS_V1.0.0, X-CUBE-AZRTOS-H7_V3.3.0, X-CUBE-AZRTOS-L4_V2.0.0, X-CUBE-AZRTOS-L5_V2.0.0, X-CUBE-AZRTOS-WB_V2.0.0, X-CUBE-AZRTOS-WL_V2.0.0, X-CUBE-BLE1_V7.0.0, X-CUBE-BLE2_V3.3.0, X-CUBE-BLEMGR_V4.0.0, X-CUBE-EEPRMA1_V5.1.0, X-CUBE-FREERTOS_V1.2.0, X-CUBE-GNSS1_V6.0.0, X-CUBE-MEMS1_V11.1.0, X-CUBE-NFC4_V3.0.0, X-CUBE-NFC7_V1.0.1, X-CUBE-SFXS2LP1_V4.0.0, X-CUBE-SUBG2_V5.0.0, X-CUBE-TOF1_V3.4.2]
2025-04-06 17:31:18,147 [INFO] ApiDb:240 - Found 646 in-development CPN: [B-G473E-ZEST1S, B-WB1M-WPAN1, B-WL5M-SUBG1, NUCLEO-C031C6, NUCLEO-C071RB, NUCLEO-H503RB, NUCLEO-H533RE, NUCLEO-H563ZI, NUCLEO-H7S3L8, NUCLEO-U031R8, NUCLEO-U083RC, NUCLEO-U545RE-Q, NUCLEO-U5A5ZJ-Q, NUCLEO-WB05KZ, NUCLEO-WB07CC, NUCLEO-WB09KE, NUCLEO-WBA52CG, NUCLEO-WBA55CG, STEVAL-PROTEUS1, STEVAL-SMARTAG2, STEVAL-STWINBX1, STM320518-EVAL, STM32C0116-DK, STM32C011D6Y3TR, STM32C011D6Y6TR, STM32C011F4P3, STM32C011F4P6, STM32C011F4U3, STM32C011F4U6TR, STM32C011F6P3, STM32C011F6P6, STM32C011F6U3, STM32C011F6U6TR, STM32C011J4M3, STM32C011J4M6, STM32C011J6M3, STM32C011J6M6, STM32C0316-DK, STM32C031C4T3, STM32C031C4T6, STM32C031C4U3, STM32C031C4U6, STM32C031C6T3, STM32C031C6T6, STM32C031C6U3, STM32C031C6U6, STM32C031F4P3, STM32C031F4P6, STM32C031F6P3, STM32C031F6P6, STM32C031G4U3, STM32C031G4U6, STM32C031G6U3, STM32C031G6U6, STM32C031K4T3, STM32C031K4T6, STM32C031K4U3, STM32C031K4U6, STM32C031K6T3, STM32C031K6T6, STM32C031K6U3, STM32C031K6U6, STM32C071C8T6, STM32C071C8T6N, STM32C071C8U6, STM32C071C8U6N, STM32C071CBT6, STM32C071CBT6N, STM32C071CBU6, STM32C071CBU6N, STM32C071F8P6, STM32C071F8P6N, STM32C071FBP6, STM32C071FBP6N, STM32C071FBY6TR, STM32C071G8U6, STM32C071G8U6N, STM32C071GBU6, STM32C071GBU6N, STM32C071K8T6, STM32C071K8T6N, STM32C071K8U6, STM32C071K8U6N, STM32C071KBT6, STM32C071KBT6N, STM32C071KBU6, STM32C071KBU6N, STM32C071R8T6, STM32C071R8T6N, STM32C071RBI6N, STM32C071RBT6, STM32C071RBT6N, STM32G071K8TXN, STM32G071K8UXN, STM32G081GBU6N, STM32G081KBT6N, STM32G081KBUXN, STM32G0B1CCT6N, STM32G0B1KCT6, STM32G0B1NEY6TR, STM32G0B1RCT6N, STM32G0C1CCT6, STM32G0C1CCT6N, STM32G0C1CCU6N, STM32G0C1CET6N, STM32G0C1CEU6N, STM32G0C1KCT6, STM32G0C1NEY6TR, STM32G0C1RCI6N, STM32G0C1RCT6N, STM32G0C1REI6N, STM32G0C1RET6N, STM32G0C1VCI6, STM32G0C1VEI6, STM32G411C6T3, STM32G411C6T6, STM32G411C6U3, STM32G411C6U6, STM32G411C8T3, STM32G411C8T6, STM32G411C8U3, STM32G411C8U6, STM32G411CBT3, STM32G411CBT6, STM32G411CBU3, STM32G411CBU6, STM32G411K6T3, STM32G411K6T6, STM32G411K6U3, STM32G411K6U6, STM32G411K8T3, STM32G411K8T6, STM32G411K8U3, STM32G411K8U6, STM32G411KBT3, STM32G411KBT6, STM32G411KBU3, STM32G411KBU6, STM32G411M6T3, STM32G411M6T6, STM32G411M8T3, STM32G411M8T6, STM32G411MBT3, STM32G411MBT6, STM32G411R6T3, STM32G411R6T6, STM32G411R8T3, STM32G411R8T6, STM32G411RBT3, STM32G411RBT6, STM32G414CBT3, STM32G414CBT6, STM32G414CBU3, STM32G414CBU6, STM32G414CCT3, STM32G414CCT6, STM32G414CCU3, STM32G414CCU6, STM32G414MBT3, STM32G414MBT6, STM32G414MCT3, STM32G414MCT6, STM32G414RBT3, STM32G414RBT6, STM32G414RCT3, STM32G414RCT6, STM32G414VBT3, STM32G414VBT6, STM32G414VCT3, STM32G414VCT6, STM32G431CBT3Z, STM32G431RBT3Z, STM32G471CCT6, STM32G471CCU6, STM32G471CET3, STM32G471CET6, STM32G471CEU3, STM32G471CEU6, STM32G471MCT6, STM32G471MET3, STM32G471MET6, STM32G471MEY6TR, STM32G471QCT6, STM32G471QET3, STM32G471RCT6, STM32G471RET3, STM32G471RET6, STM32G471VCH6, STM32G471VCI6, STM32G471VCT6, STM32G471VEH3, STM32G471VEH6, STM32G471VEI3, STM32G471VEI6, STM32G471VET3, STM32G471VET6, STM32G473QET3Z, STM32G473RET3Z, STM32G474CCT6, STM32G491RET3Z, STM32H503CBT6, STM32H503CBU6, STM32H503EBY6TR, STM32H503KBU6, STM32H503RBT6, STM32H523CCT6, STM32H523CCU6, STM32H523CET6, STM32H523CEU6, STM32H523HEY6TR, STM32H523RCT6, STM32H523RET6, STM32H523VCI6, STM32H523VCT6, STM32H523VEI6, STM32H523VET6, STM32H523ZCJ6, STM32H523ZCT6, STM32H523ZEJ6, STM32H523ZET6, STM32H533CET6, STM32H533CEU6, STM32H533HEY6TR, STM32H533RET6, STM32H533VEI6, STM32H533VET6, STM32H533ZEJ6, STM32H533ZET6, STM32H562AGI6, STM32H562AII6, STM32H562IGK6, STM32H562IGT6, STM32H562IIK6, STM32H562IIT6, STM32H562RGT6, STM32H562RGV6, STM32H562RIT6, STM32H562RIV6, STM32H562VGT6, STM32H562VIT6, STM32H562ZGT6, STM32H562ZIT6, STM32H563AGI6, STM32H563AII3Q, STM32H563AII6, STM32H563IGK6, STM32H563IGT6, STM32H563IIK3Q, STM32H563IIK6, STM32H563IIT3Q, STM32H563IIT6, STM32H563MIY3QTR, STM32H563RGT6, STM32H563RGV6, STM32H563RIT6, STM32H563RIV6, STM32H563VGT6, STM32H563VIT3Q, STM32H563VIT6, STM32H563ZGT6, STM32H563ZIT3Q, STM32H563ZIT6, STM32H573AII3Q, STM32H573AII6, STM32H573I-DK, STM32H573IIK3Q, STM32H573IIK6, STM32H573IIT3Q, STM32H573IIT6, STM32H573MIY3QTR, STM32H573RIT6, STM32H573RIV6, STM32H573VIT3Q, STM32H573VIT6, STM32H573ZIT3Q, STM32H573ZIT6, STM32H7R3A8I6, STM32H7R3I8K6, STM32H7R3I8T6, STM32H7R3L8H6, STM32H7R3L8H6H, STM32H7R3R8V6, STM32H7R3V8H6, STM32H7R3V8T6, STM32H7R3V8Y6TR, STM32H7R3Z8J6, STM32H7R3Z8T6, STM32H7R7A8I6, STM32H7R7I8K6, STM32H7R7I8T6, STM32H7R7L8H6, STM32H7R7L8H6H, STM32H7R7Z8J6, STM32H7S3A8I6, STM32H7S3I8K6, STM32H7S3I8T6, STM32H7S3L8H6, STM32H7S3L8H6H, STM32H7S3R8V6, STM32H7S3V8H6, STM32H7S3V8T6, STM32H7S3V8Y6TR, STM32H7S3Z8J6, STM32H7S3Z8T6, STM32H7S78-DK, STM32H7S7A8I6, STM32H7S7I8K6, STM32H7S7I8T6, STM32H7S7L8H6, STM32H7S7L8H6H, STM32H7S7Z8J6, STM32L4R5QGI6STR, STM32MP131AAE3, STM32MP131AAF3, STM32MP131AAG3, STM32MP131CAE3, STM32MP131CAF3, STM32MP131CAG3, STM32MP131DAE7, STM32MP131DAF7, STM32MP131DAG7, STM32MP131FAE7, STM32MP131FAF7, STM32MP131FAG7, STM32MP133AAE3, STM32MP133AAF3, STM32MP133AAG3, STM32MP133CAE3, STM32MP133CAF3, STM32MP133CAG3, STM32MP133DAE7, STM32MP133DAF7, STM32MP133DAG7, STM32MP133FAE7, STM32MP133FAF7, STM32MP133FAG7, STM32MP135AAE3, STM32MP135AAF3, STM32MP135AAG3, STM32MP135CAE3, STM32MP135CAF3, STM32MP135CAG3, STM32MP135DAE7, STM32MP135DAF7, STM32MP135DAG7, STM32MP135F-DK, STM32MP135FAE7, STM32MP135FAF7, STM32MP135FAF7T, STM32MP135FAF7U, STM32MP135FAG7, STM32MP251AAI3, STM32MP251AAK3, STM32MP251AAL3, STM32MP251CAI3, STM32MP251CAK3, STM32MP251CAL3, STM32MP251DAI3, STM32MP251DAK3, STM32MP251DAL3, STM32MP251FAI3, STM32MP251FAK3, STM32MP251FAL3, STM32MP253AAI3, STM32MP253AAK3, STM32MP253AAL3, STM32MP253CAI3, STM32MP253CAK3, STM32MP253CAL3, STM32MP253DAI3, STM32MP253DAK3, STM32MP253DAL3, STM32MP253FAI3, STM32MP253FAK3, STM32MP253FAL3, STM32MP255AAI3, STM32MP255AAK3, STM32MP255AAL3, STM32MP255CAI3, STM32MP255CAK3, STM32MP255CAL3, STM32MP255DAI3, STM32MP255DAK3, STM32MP255DAL3, STM32MP255FAI3, STM32MP255FAK3, STM32MP255FAL3, STM32MP257AAI3, STM32MP257AAK3, STM32MP257AAL3, STM32MP257CAI3, STM32MP257CAK3, STM32MP257CAL3, STM32MP257DAI3, STM32MP257DAK3, STM32MP257DAL3, STM32MP257F-DK, STM32MP257F-EV1, STM32MP257FAI3, STM32MP257FAK3, STM32MP257FAL3, STM32U031C6T6, STM32U031C6U6, STM32U031C8T6, STM32U031C8U6, STM32U031F4P6, STM32U031F6P6, STM32U031F8P6, STM32U031G6Y6TR, STM32U031G8Y6TR, STM32U031K4U6, STM32U031K6U6, STM32U031K8U6, STM32U031R6I6, STM32U031R6T6, STM32U031R8I6, STM32U031R8T6, STM32U073C8T6, STM32U073C8U6, STM32U073CBT6, STM32U073CBU6, STM32U073CCT6, STM32U073CCU6, STM32U073H8Y6TR, STM32U073HBY6TR, STM32U073HCY6TR, STM32U073K8U6, STM32U073KBU6, STM32U073KCU6, STM32U073M8I6, STM32U073M8T6, STM32U073MBI6, STM32U073MBT6, STM32U073MCI6, STM32U073MCT6, STM32U073R8I6, STM32U073R8T6, STM32U073RBI6, STM32U073RBT6, STM32U073RCI6, STM32U073RCT6, STM32U083C-DK, STM32U083CCT6, STM32U083CCU6, STM32U083HCY6TR, STM32U083KCU6, STM32U083MCI6, STM32U083MCT6, STM32U083RCI6, STM32U083RCT6, STM32U535CBT6, STM32U535CBT6Q, STM32U535CBU6, STM32U535CBU6Q, STM32U535CCT6, STM32U535CCT6Q, STM32U535CCU6, STM32U535CCU6Q, STM32U535CET6, STM32U535CET6Q, STM32U535CEU6, STM32U535CEU6Q, STM32U535JEY6QTR, STM32U535NCY6QTR, STM32U535NEY6QTR, STM32U535RBI6, STM32U535RBI6Q, STM32U535RBT6, STM32U535RBT6Q, STM32U535RCI6, STM32U535RCI6Q, STM32U535RCT6, STM32U535RCT6Q, STM32U535REI6, STM32U535REI6Q, STM32U535RET6, STM32U535RET6Q, STM32U535VCI6, STM32U535VCI6Q, STM32U535VCT6, STM32U535VCT6Q, STM32U535VEI6, STM32U535VEI6Q, STM32U535VET6, STM32U535VET6Q, STM32U545CET6, STM32U545CET6Q, STM32U545CEU6, STM32U545CEU6Q, STM32U545JEY6QTR, STM32U545NEY6QTR, STM32U545REI6, STM32U545REI6Q, STM32U545RET6, STM32U545RET6Q, STM32U545VEI6, STM32U545VEI6Q, STM32U545VET6, STM32U545VET6Q, STM32U595AIH6, STM32U595AIH6Q, STM32U595AJH6, STM32U595AJH6Q, STM32U595QII6, STM32U595QII6Q, STM32U595QJI6, STM32U595QJI6Q, STM32U595RIT6, STM32U595RIT6Q, STM32U595RJT6, STM32U595RJT6Q, STM32U595VIT6, STM32U595VIT6Q, STM32U595VJT6, STM32U595VJT6Q, STM32U595ZIT6, STM32U595ZIT6Q, STM32U595ZIY6QTR, STM32U595ZJT6, STM32U595ZJT6Q, STM32U595ZJY6QTR, STM32U599BJY6QTR, STM32U599NIH6Q, STM32U599NJH6Q, STM32U599VIT6Q, STM32U599VJT6, STM32U599VJT6Q, STM32U599ZIT6Q, STM32U599ZIY6QTR, STM32U599ZJT6Q, STM32U599ZJY6QTR, STM32U5A5AJH6, STM32U5A5AJH6Q, STM32U5A5QII3Q , STM32U5A5QJI6, STM32U5A5QJI6Q, STM32U5A5RJT6, STM32U5A5RJT6Q, STM32U5A5VJT6, STM32U5A5VJT6Q, STM32U5A5ZJT6, STM32U5A5ZJT6Q, STM32U5A5ZJY6QTR, STM32U5A9BJY6QTR, STM32U5A9J-DK, STM32U5A9NJH6Q, STM32U5A9VJT6Q, STM32U5A9ZJT6Q, STM32U5A9ZJY6QTR, STM32U5F7VIT6, STM32U5F7VIT6Q, STM32U5F7VJT6, STM32U5F7VJT6Q, STM32U5F9BJY6QTR, STM32U5F9NJH6Q, STM32U5F9VIT6Q, STM32U5F9VJT6Q, STM32U5F9ZIJ6QTR, STM32U5F9ZIT6Q, STM32U5F9ZJJ6QTR, STM32U5F9ZJT6Q, STM32U5G7VJT6, STM32U5G7VJT6Q, STM32U5G9BJY6QTR, STM32U5G9J-DK1, STM32U5G9J-DK2, STM32U5G9NJH6Q, STM32U5G9VJT6Q, STM32U5G9ZJJ6QTR, STM32U5G9ZJT6Q, STM32WB05KZV6TR, STM32WB05KZV7TR, STM32WB05TZF6TR, STM32WB05TZF7TR, STM32WB06CCF6TR, STM32WB06CCF7TR, STM32WB06CCV6TR, STM32WB06CCV7TR, STM32WB06KCV6TR, STM32WB06KCV7TR, STM32WB07CCF6TR, STM32WB07CCF7TR, STM32WB07CCV6TR, STM32WB07CCV7TR, STM32WB07KCV6TR, STM32WB07KCV7TR, STM32WB09KEV6TR, STM32WB09KEV7TR, STM32WB09TEF6TR, STM32WB09TEF7TR, STM32WB1MMCH6, STM32WBA50KGU6, STM32WBA50KGU6TR, STM32WBA52CEU6, STM32WBA52CEU6TR, STM32WBA52CEU7, STM32WBA52CEU7TR, STM32WBA52CGU6, STM32WBA52CGU6TR, STM32WBA52CGU6U, STM32WBA52CGU7, STM32WBA52CGU7TR, STM32WBA52KEU6, STM32WBA52KEU6TR, STM32WBA52KGU6, STM32WBA52KGU6TR, STM32WBA54CEU6, STM32WBA54CEU6TR, STM32WBA54CEU7, STM32WBA54CEU7TR, STM32WBA54CGU6, STM32WBA54CGU6TR, STM32WBA54CGU7, STM32WBA54CGU7TR, STM32WBA54KEU6, STM32WBA54KEU6TR, STM32WBA54KEU7, STM32WBA54KEU7TR, STM32WBA54KGU6, STM32WBA54KGU6TR, STM32WBA54KGU7, STM32WBA54KGU7TR, STM32WBA55CEU6, STM32WBA55CEU6TR, STM32WBA55CEU7, STM32WBA55CEU7TR, STM32WBA55CGU6, STM32WBA55CGU6TR, STM32WBA55CGU6U, STM32WBA55CGU7, STM32WBA55CGU7TR, STM32WBA55G-DK1, STM32WBA55HEF6, STM32WBA55HEF7, STM32WBA55HGF6, STM32WBA55HGF7, STM32WBA55UEI6, STM32WBA55UEI6TR, STM32WBA55UEI7, STM32WBA55UEI7TR, STM32WBA55UGI6, STM32WBA55UGI6TR, STM32WBA55UGI7, STM32WBA55UGI7TR, STM32WL5MOCH6, STM32WL5MOCH6TR]
2025-04-06 17:31:18,160 [INFO] DbMcus:218 - Found 4440 MCUs, 4440 are supported
2025-04-06 17:31:18,169 [INFO] ApiDb:423 - Load user favorites file C:\Users\OS/.stm32cubeide/favorites.mcus.txt: 1 item(s)
2025-04-06 17:31:18,169 [INFO] ApiDb:427 - User favorites MCUs=[STM32F407VGT6]
2025-04-06 17:31:18,169 [INFO] DbMcus:224 - Set 1 / 1 favorites MCUs
2025-04-06 17:31:18,884 [INFO] BoardInfo:889 - No configuration file found for board NUCLEO-N657X0-Q
2025-04-06 17:31:18,885 [INFO] DbBoards:161 - Board is not supported: NUCLEO-N657X0-Q
2025-04-06 17:31:18,906 [INFO] BoardInfo:889 - No configuration file found for board NUCLEO-WL33CC1
2025-04-06 17:31:18,906 [INFO] DbBoards:161 - Board is not supported: NUCLEO-WL33CC1
2025-04-06 17:31:18,908 [INFO] BoardInfo:889 - No configuration file found for board NUCLEO-WL33CC2
2025-04-06 17:31:18,908 [INFO] DbBoards:161 - Board is not supported: NUCLEO-WL33CC2
2025-04-06 17:31:18,916 [INFO] BoardInfo:889 - No configuration file found for board P-NUCLEO-WB55
2025-04-06 17:31:18,917 [INFO] DbBoards:161 - Kit is not supported: P-NUCLEO-WB55
2025-04-06 17:31:18,923 [INFO] BoardInfo:889 - No configuration file found for board STEVAL-BFA001V1B
2025-04-06 17:31:18,923 [INFO] DbBoards:161 - Kit is not supported: STEVAL-BFA001V1B
2025-04-06 17:31:18,924 [INFO] BoardInfo:889 - No configuration file found for board STEVAL-BFA001V2B
2025-04-06 17:31:18,925 [INFO] DbBoards:161 - Kit is not supported: STEVAL-BFA001V2B
2025-04-06 17:31:19,110 [INFO] BoardInfo:889 - No configuration file found for board STM32N6570-DK
2025-04-06 17:31:19,111 [INFO] DbBoards:161 - Board is not supported: STM32N6570-DK
2025-04-06 17:31:19,129 [INFO] DbBoards:168 - Found 205 boards, 198 are supported
2025-04-06 17:31:19,129 [INFO] DbBoards:169 - Found 205 boards, 25 of them is supported for  Bsp
2025-04-06 17:31:19,153 [INFO] ApiDb:423 - Load user favorites file C:\Users\OS/.stm32cubeide/favorites.boards.txt: 1 item(s)
2025-04-06 17:31:19,153 [INFO] ApiDb:427 - User favorites Boards=[STM32F407G-DISC1]
2025-04-06 17:31:19,154 [INFO] DbBoards:198 - Set 1 / 1 favorites Boards
2025-04-06 17:31:19,207 [INFO] UtilMem:75 - End LoadConfig() Used Memory: 249970520 Bytes (473956352)
2025-04-06 17:31:19,442 [WARN] ThirdParty:833 - waiting for thirdparty lock release [change project]
2025-04-06 17:31:19,443 [INFO] ThirdParty:835 - entering critical section [change project]
2025-04-06 17:31:19,443 [INFO] ThirdParty:1030 - CMSIS Pack Vendor :STMicroelectronics USBPD 4.1
2025-04-06 17:31:19,443 [INFO] ThirdParty:1030 - CMSIS Pack Vendor :STMicroelectronics X-CUBE-GNSS1 6.0.0
2025-04-06 17:31:19,443 [INFO] ThirdParty:1030 - CMSIS Pack Vendor :STMicroelectronics USB_HOST 2.0.0
2025-04-06 17:31:19,443 [INFO] ThirdParty:1030 - CMSIS Pack Vendor :STMicroelectronics FP-SNS-MOTENVWB1 1.4.0
2025-04-06 17:31:19,443 [INFO] ThirdParty:1030 - CMSIS Pack Vendor :STMicroelectronics X-CUBE-AZRTOS-F4 1.1.0
2025-04-06 17:31:19,443 [INFO] ThirdParty:1030 - CMSIS Pack Vendor :STMicroelectronics LIBJPEG 8.0.0
2025-04-06 17:31:19,443 [INFO] ThirdParty:1030 - CMSIS Pack Vendor :STMicroelectronics FP-ATR-ASTRA1 2.0.2
2025-04-06 17:31:19,443 [INFO] ThirdParty:1030 - CMSIS Pack Vendor :STMicroelectronics FP-ATR-ASTRA1 2.0.1
2025-04-06 17:31:19,443 [INFO] ThirdParty:1030 - CMSIS Pack Vendor :STMicroelectronics X-CUBE-SMBUS 2.1.0
2025-04-06 17:31:19,443 [INFO] ThirdParty:1030 - CMSIS Pack Vendor :STMicroelectronics X-CUBE-WB05N 1.1.0
2025-04-06 17:31:19,443 [INFO] ThirdParty:1030 - CMSIS Pack Vendor :STMicroelectronics X-CUBE-ISPU 2.1.0
2025-04-06 17:31:19,443 [INFO] ThirdParty:1030 - CMSIS Pack Vendor :STMicroelectronics X-CUBE-FREERTOS 1.2.0
2025-04-06 17:31:19,443 [INFO] ThirdParty:1030 - CMSIS Pack Vendor :wolfSSL I-CUBE-wolfSSL 5.6.6
2025-04-06 17:31:19,443 [INFO] ThirdParty:1030 - CMSIS Pack Vendor :STMicroelectronics X-CUBE-TOUCHGFX 4.23.0
2025-04-06 17:31:19,443 [INFO] ThirdParty:1030 - CMSIS Pack Vendor :STMicroelectronics X-CUBE-TOUCHGFX 4.23.2
2025-04-06 17:31:19,443 [INFO] ThirdParty:1030 - CMSIS Pack Vendor :STMicroelectronics X-CUBE-AZRTOS-F7 1.1.0
2025-04-06 17:31:19,443 [INFO] ThirdParty:1030 - CMSIS Pack Vendor :STMicroelectronics X-CUBE-AZRTOS-L5 2.0.0
2025-04-06 17:31:19,443 [INFO] ThirdParty:1030 - CMSIS Pack Vendor :STMicroelectronics USB_DEVICE 2.0.0
2025-04-06 17:31:19,444 [INFO] ThirdParty:1030 - CMSIS Pack Vendor :STMicroelectronics X-CUBE-NFC6 3.1.0
2025-04-06 17:31:19,444 [INFO] ThirdParty:1030 - CMSIS Pack Vendor :ITTIA_DB I-CUBE-ITTIADB 8.8.0
2025-04-06 17:31:19,444 [INFO] ThirdParty:1030 - CMSIS Pack Vendor :STMicroelectronics FP-SNS-MOTENV1 4.3.2
2025-04-06 17:31:19,444 [INFO] ThirdParty:1030 - CMSIS Pack Vendor :STMicroelectronics X-CUBE-MEMS1 11.0.0
2025-04-06 17:31:19,444 [INFO] ThirdParty:1030 - CMSIS Pack Vendor :STMicroelectronics FreeRTOS 0.0.1
2025-04-06 17:31:19,444 [INFO] ThirdParty:1030 - CMSIS Pack Vendor :STMicroelectronics X-CUBE-DPower 1.2.0
2025-04-06 17:31:19,444 [INFO] ThirdParty:1030 - CMSIS Pack Vendor :STMicroelectronics FP-SNS-FLIGHT1 5.0.2
2025-04-06 17:31:19,444 [INFO] ThirdParty:1030 - CMSIS Pack Vendor :STMicroelectronics X-CUBE-AI 9.0.0
2025-04-06 17:31:19,444 [INFO] ThirdParty:1030 - CMSIS Pack Vendor :STMicroelectronics PDM2PCM 3.3.0
2025-04-06 17:31:19,444 [INFO] ThirdParty:1030 - CMSIS Pack Vendor :STMicroelectronics X-CUBE-DISPLAY 3.0.0
2025-04-06 17:31:19,444 [INFO] ThirdParty:1030 - CMSIS Pack Vendor :STMicroelectronics X-CUBE-BLE1 7.0.0
2025-04-06 17:31:19,444 [INFO] ThirdParty:1030 - CMSIS Pack Vendor :STMicroelectronics X-CUBE-NFC10 1.0.0
2025-04-06 17:31:19,444 [INFO] ThirdParty:1030 - CMSIS Pack Vendor :STMicroelectronics X-CUBE-BLEMGR 4.0.0
2025-04-06 17:31:19,444 [INFO] ThirdParty:1030 - CMSIS Pack Vendor :STMicroelectronics HAL Drivers 0.0.0
2025-04-06 17:31:19,444 [INFO] ThirdParty:1030 - CMSIS Pack Vendor :emotas I-CUBE-CANOPEN 1.3.0
2025-04-06 17:31:19,444 [INFO] ThirdParty:1030 - CMSIS Pack Vendor :STMicroelectronics X-CUBE-FREERTOS 1.3.0
2025-04-06 17:31:19,445 [INFO] ThirdParty:1030 - CMSIS Pack Vendor :STMicroelectronics X-CUBE-NFC7 1.0.1
2025-04-06 17:31:19,445 [INFO] ThirdParty:1030 - CMSIS Pack Vendor :STMicroelectronics MBEDTLS 2.14.1
2025-04-06 17:31:19,445 [INFO] ThirdParty:1030 - CMSIS Pack Vendor :wolfSSL I-CUBE-wolfTPM 3.2.0
2025-04-06 17:31:19,445 [INFO] ThirdParty:1030 - CMSIS Pack Vendor :STMicroelectronics X-CUBE-BLEMGR 3.1.0
2025-04-06 17:31:19,445 [INFO] ThirdParty:1030 - CMSIS Pack Vendor :STMicroelectronics X-CUBE-AI 10.0.0
2025-04-06 17:31:19,445 [INFO] ThirdParty:1030 - CMSIS Pack Vendor :STMicroelectronics FP-SNS-SMARTAG2 1.2.0
2025-04-06 17:31:19,445 [INFO] ThirdParty:1030 - CMSIS Pack Vendor :STMicroelectronics X-CUBE-MEMS1 11.1.0
2025-04-06 17:31:19,445 [INFO] ThirdParty:1030 - CMSIS Pack Vendor :STMicroelectronics X-CUBE-AZRTOS-WL 2.0.0
2025-04-06 17:31:19,445 [INFO] ThirdParty:1030 - CMSIS Pack Vendor :STMicroelectronics X-CUBE-DPower 1.3.0
2025-04-06 17:31:19,445 [INFO] ThirdParty:1030 - CMSIS Pack Vendor :STMicroelectronics FP-SNS-MOTENV1 5.0.0
2025-04-06 17:31:19,445 [INFO] ThirdParty:1030 - CMSIS Pack Vendor :STMicroelectronics USB_DEVICE 1.0.0
2025-04-06 17:31:19,445 [INFO] ThirdParty:1030 - CMSIS Pack Vendor :STMicroelectronics X-CUBE-AI 8.1.0
2025-04-06 17:31:19,445 [INFO] ThirdParty:1030 - CMSIS Pack Vendor :wolfSSL I-CUBE-wolfMQTT 1.19.0
2025-04-06 17:31:19,446 [INFO] ThirdParty:1030 - CMSIS Pack Vendor :STMicroelectronics X-CUBE-AZRTOS-L4 2.0.0
2025-04-06 17:31:19,446 [INFO] ThirdParty:1030 - CMSIS Pack Vendor :STMicroelectronics ThreadX 0.0.2
2025-04-06 17:31:19,446 [INFO] ThirdParty:1030 - CMSIS Pack Vendor :WES I-CUBE-Cesium 1.3.0
2025-04-06 17:31:19,447 [INFO] ThirdParty:1030 - CMSIS Pack Vendor :STMicroelectronics lwIP 2.1.2
2025-04-06 17:31:19,447 [INFO] ThirdParty:1030 - CMSIS Pack Vendor :STMicroelectronics X-CUBE-SFXS2LP1 4.0.0
2025-04-06 17:31:19,447 [INFO] ThirdParty:1030 - CMSIS Pack Vendor :STMicroelectronics X-CUBE-BLE2 3.3.0
2025-04-06 17:31:19,447 [INFO] ThirdParty:1030 - CMSIS Pack Vendor :STMicroelectronics PDM2PCM 3.2.0
2025-04-06 17:31:19,447 [INFO] ThirdParty:1030 - CMSIS Pack Vendor :STMicroelectronics X-CUBE-AZRTOS-H7 3.3.0
2025-04-06 17:31:19,447 [INFO] ThirdParty:1030 - CMSIS Pack Vendor :STMicroelectronics X-CUBE-NFC9 1.0.0
2025-04-06 17:31:19,447 [INFO] ThirdParty:1030 - CMSIS Pack Vendor :STMicroelectronics X-CUBE-BLE1 7.1.0
2025-04-06 17:31:19,447 [INFO] ThirdParty:1030 - CMSIS Pack Vendor :STMicroelectronics USB_DEVICE 3.0.0
2025-04-06 17:31:19,447 [INFO] ThirdParty:1030 - CMSIS Pack Vendor :STMicroelectronics X-CUBE-TCPP 4.1.0
2025-04-06 17:31:19,447 [INFO] ThirdParty:1030 - CMSIS Pack Vendor :STMicroelectronics X-CUBE-IPS 3.0.0
2025-04-06 17:31:19,447 [INFO] ThirdParty:1030 - CMSIS Pack Vendor :STMicroelectronics X-CUBE-AZRTOS-WB 2.0.0
2025-04-06 17:31:19,448 [INFO] ThirdParty:1030 - CMSIS Pack Vendor :STMicroelectronics X-CUBE-GNSS1 7.0.0
2025-04-06 17:31:19,448 [INFO] ThirdParty:1030 - CMSIS Pack Vendor :STMicroelectronics X-CUBE-GNSS1 7.0.1
2025-04-06 17:31:19,448 [INFO] ThirdParty:1030 - CMSIS Pack Vendor :STMicroelectronics X-CUBE-TOUCHGFX 4.25.0
2025-04-06 17:31:19,448 [INFO] ThirdParty:1030 - CMSIS Pack Vendor :STMicroelectronics FP-SNS-STBOX1 2.0.0
2025-04-06 17:31:19,448 [INFO] ThirdParty:1030 - CMSIS Pack Vendor :STMicroelectronics X-CUBE-ALGOBUILD 1.3.0
2025-04-06 17:31:19,448 [INFO] ThirdParty:1030 - CMSIS Pack Vendor :STMicroelectronics X-CUBE-AZRTOS-G0 1.1.0
2025-04-06 17:31:19,448 [INFO] ThirdParty:1030 - CMSIS Pack Vendor :STMicroelectronics X-CUBE-SAFEA1 1.2.2
2025-04-06 17:31:19,449 [INFO] ThirdParty:1030 - CMSIS Pack Vendor :STMicroelectronics X-CUBE-NFC4 3.0.0
2025-04-06 17:31:19,449 [INFO] ThirdParty:1030 - CMSIS Pack Vendor :STMicroelectronics X-CUBE-SUBG2 5.0.0
2025-04-06 17:31:19,449 [INFO] ThirdParty:1030 - CMSIS Pack Vendor :STMicroelectronics X-CUBE-AZRTOS-H7RS 1.1.0
2025-04-06 17:31:19,451 [INFO] ThirdParty:1030 - CMSIS Pack Vendor :STMicroelectronics STM32_WPAN 1.0.0
2025-04-06 17:31:19,460 [INFO] ThirdParty:1030 - CMSIS Pack Vendor :wolfSSL I-CUBE-wolfMQTT 1.18.0
2025-04-06 17:31:19,460 [INFO] ThirdParty:1030 - CMSIS Pack Vendor :EmbeddedOffice I-CUBE-FS-RTOS 1.0.1
2025-04-06 17:31:19,460 [INFO] ThirdParty:1030 - CMSIS Pack Vendor :STMicroelectronics lwIP 2.0.3
2025-04-06 17:31:19,460 [INFO] ThirdParty:1030 - CMSIS Pack Vendor :Cesanta I-CUBE-Mongoose 7.13.0
2025-04-06 17:31:19,460 [INFO] ThirdParty:1030 - CMSIS Pack Vendor :STMicroelectronics USB_HOST 1.0.0
2025-04-06 17:31:19,460 [INFO] ThirdParty:1030 - CMSIS Pack Vendor :STMicroelectronics X-CUBE-AZRTOS-G4 2.0.0
2025-04-06 17:31:19,460 [INFO] ThirdParty:1030 - CMSIS Pack Vendor :STMicroelectronics PDM2PCM 3.1.0
2025-04-06 17:31:19,460 [INFO] ThirdParty:1030 - CMSIS Pack Vendor :Infineon AIROC-Wi-Fi-Bluetooth-STM32 1.5.1
2025-04-06 17:31:19,460 [INFO] ThirdParty:1030 - CMSIS Pack Vendor :RealThread X-CUBE-RT-Thread_Nano 4.1.1
2025-04-06 17:31:19,460 [INFO] ThirdParty:1030 - CMSIS Pack Vendor :STMicroelectronics FP-SNS-MOTENVWB1 1.3.1
2025-04-06 17:31:19,460 [INFO] ThirdParty:1030 - CMSIS Pack Vendor :STMicroelectronics FP-ATR-SIGFOX1 3.2.0
2025-04-06 17:31:19,460 [INFO] ThirdParty:1030 - CMSIS Pack Vendor :quantropi X-CUBE-qispace-sdk-base 1.9.3
2025-04-06 17:31:19,460 [INFO] ThirdParty:1030 - CMSIS Pack Vendor :STMicroelectronics X-CUBE-ISPU 2.0.0
2025-04-06 17:31:19,460 [INFO] ThirdParty:1030 - CMSIS Pack Vendor :STMicroelectronics X-CUBE-EEPRMA1 5.1.0
2025-04-06 17:31:19,460 [INFO] ThirdParty:1030 - CMSIS Pack Vendor :STMicroelectronics MBEDTLS 2.16.2
2025-04-06 17:31:19,460 [INFO] ThirdParty:1030 - CMSIS Pack Vendor :STMicroelectronics X-CUBE-ALS 1.0.2
2025-04-06 17:31:19,461 [INFO] ThirdParty:1030 - CMSIS Pack Vendor :STMicroelectronics X-CUBE-MEMS1 10.0.0
2025-04-06 17:31:19,461 [INFO] ThirdParty:1030 - CMSIS Pack Vendor :STMicroelectronics X-CUBE-FREERTOS 1.1.0
2025-04-06 17:31:19,461 [INFO] ThirdParty:1030 - CMSIS Pack Vendor :STMicroelectronics X-CUBE-TOUCHGFX 4.24.0
2025-04-06 17:31:19,461 [INFO] ThirdParty:1030 - CMSIS Pack Vendor :STMicroelectronics X-CUBE-TOUCHGFX 4.24.2
2025-04-06 17:31:19,461 [INFO] ThirdParty:1030 - CMSIS Pack Vendor :STMicroelectronics X-CUBE-TOUCHGFX 4.24.1
2025-04-06 17:31:19,461 [INFO] ThirdParty:1030 - CMSIS Pack Vendor :portGmbH I-Cube-SoM-uGOAL 1.1.0
2025-04-06 17:31:19,461 [INFO] ThirdParty:1030 - CMSIS Pack Vendor :STMicroelectronics X-CUBE-ALS 1.0.1
2025-04-06 17:31:19,461 [INFO] ThirdParty:1030 - CMSIS Pack Vendor :STMicroelectronics ThreadX 1.0.0
2025-04-06 17:31:19,461 [INFO] ThirdParty:1030 - CMSIS Pack Vendor :SEGGER I-CUBE-embOS 1.3.1
2025-04-06 17:31:19,461 [INFO] ThirdParty:1030 - CMSIS Pack Vendor :STMicroelectronics X-CUBE-ALGOBUILD 1.4.0
2025-04-06 17:31:19,461 [INFO] ThirdParty:1030 - CMSIS Pack Vendor :STMicroelectronics X-CUBE-AZRTOS-H7RS 1.0.0
2025-04-06 17:31:19,461 [INFO] ThirdParty:1030 - CMSIS Pack Vendor :STMicroelectronics FP-ATR-ASTRA1 2.0.0
2025-04-06 17:31:19,461 [INFO] ThirdParty:1030 - CMSIS Pack Vendor :STMicroelectronics X-CUBE-TOF1 3.4.2
2025-04-06 17:31:19,461 [INFO] ThirdParty:1030 - CMSIS Pack Vendor :STMicroelectronics X-CUBE-AI 9.1.0
2025-04-06 17:31:19,461 [INFO] ThirdParty:1030 - CMSIS Pack Vendor :STMicroelectronics X-CUBE-TOF1 3.4.1
2025-04-06 17:31:19,461 [INFO] ThirdParty:1030 - CMSIS Pack Vendor :STMicroelectronics X-CUBE-AZRTOS-H7 3.2.0
2025-04-06 17:31:19,461 [INFO] ThirdParty:1030 - CMSIS Pack Vendor :wolfSSL I-CUBE-wolfSSH 1.4.17
2025-04-06 17:31:19,461 [INFO] ThirdParty:841 - exiting critical section [change project]
2025-04-06 17:31:19,913 [INFO] PinOutPanel:1561 - setPackage(No Configuration,No Configuration)
2025-04-06 17:31:19,915 [INFO] PinOutPanel:1561 - setPackage(STM32F746NGHx,TFBGA216)
2025-04-06 17:31:21,097 [INFO] UtilMem:75 - Before build in PCC Used Memory: 274409352 Bytes (486539264)
2025-04-06 17:31:22,271 [INFO] UtilMem:75 - After build in PCC Used Memory: 284996656 Bytes (486539264)
2025-04-06 17:31:22,271 [INFO] Middleware:617 - instanceName : STMicroelectronics.X-CUBE-AI.10.0.0 bspName : COM Port check condition success for : !SEMDeviceJjApplicationJjApplicationTemplate
2025-04-06 17:31:22,271 [INFO] Middleware:617 - instanceName : STMicroelectronics.X-CUBE-AI.10.0.0 bspName : COM Port check condition success for : !SEMDeviceJjApplicationJjApplicationTemplate
2025-04-06 17:31:22,271 [INFO] Middleware:617 - instanceName : STMicroelectronics.X-CUBE-AI.10.0.0 bspName : COM Port check condition success for : !SEMDeviceJjApplicationJjApplicationTemplate
2025-04-06 17:31:22,327 [INFO] IPUIPlugin:80 - create IPUIPlugin
2025-04-06 17:31:22,327 [INFO] IPUIPlugin:80 - create IPUIPlugin
2025-04-06 17:31:22,327 [INFO] IPUIPlugin:80 - create IPUIPlugin
2025-04-06 17:31:22,328 [INFO] IPUIPlugin:80 - create IPUIPlugin
2025-04-06 17:31:22,328 [INFO] IPUIPlugin:80 - create IPUIPlugin
2025-04-06 17:31:22,328 [INFO] IPUIPlugin:80 - create IPUIPlugin
2025-04-06 17:31:22,328 [INFO] IPUIPlugin:80 - create IPUIPlugin
2025-04-06 17:31:22,329 [INFO] IPUIPlugin:80 - create IPUIPlugin
2025-04-06 17:31:22,329 [INFO] IPUIPlugin:80 - create IPUIPlugin
2025-04-06 17:31:22,329 [INFO] IPUIPlugin:80 - create IPUIPlugin
2025-04-06 17:31:22,331 [INFO] IPUIPlugin:80 - create IPUIPlugin
2025-04-06 17:31:22,335 [INFO] IPUIPlugin:80 - create IPUIPlugin
2025-04-06 17:31:22,335 [INFO] IPUIPlugin:80 - create IPUIPlugin
2025-04-06 17:31:22,335 [INFO] IPUIPlugin:80 - create IPUIPlugin
2025-04-06 17:31:22,336 [INFO] IPUIPlugin:80 - create IPUIPlugin
2025-04-06 17:31:22,336 [INFO] IPUIPlugin:80 - create IPUIPlugin
2025-04-06 17:31:22,336 [INFO] IPUIPlugin:80 - create IPUIPlugin
2025-04-06 17:31:22,337 [INFO] IPUIPlugin:80 - create IPUIPlugin
2025-04-06 17:31:22,337 [INFO] IPUIPlugin:80 - create IPUIPlugin
2025-04-06 17:31:22,337 [INFO] IPUIPlugin:80 - create IPUIPlugin
2025-04-06 17:31:22,337 [INFO] IPUIPlugin:80 - create IPUIPlugin
2025-04-06 17:31:22,337 [INFO] IPUIPlugin:80 - create IPUIPlugin
2025-04-06 17:31:22,338 [INFO] IPUIPlugin:80 - create IPUIPlugin
2025-04-06 17:31:22,338 [INFO] IPUIPlugin:80 - create IPUIPlugin
2025-04-06 17:31:22,338 [INFO] IPUIPlugin:80 - create IPUIPlugin
2025-04-06 17:31:22,338 [INFO] IPUIPlugin:80 - create IPUIPlugin
2025-04-06 17:31:22,339 [INFO] IPUIPlugin:80 - create IPUIPlugin
2025-04-06 17:31:22,339 [INFO] IPUIPlugin:80 - create IPUIPlugin
2025-04-06 17:31:22,340 [INFO] IPUIPlugin:80 - create IPUIPlugin
2025-04-06 17:31:22,340 [INFO] IPUIPlugin:80 - create IPUIPlugin
2025-04-06 17:31:22,340 [INFO] IPUIPlugin:80 - create IPUIPlugin
2025-04-06 17:31:22,341 [INFO] IPUIPlugin:80 - create IPUIPlugin
2025-04-06 17:31:22,341 [INFO] IPUIPlugin:80 - create IPUIPlugin
2025-04-06 17:31:22,342 [INFO] IPUIPlugin:80 - create IPUIPlugin
2025-04-06 17:31:22,343 [INFO] IPUIPlugin:80 - create IPUIPlugin
2025-04-06 17:31:22,344 [INFO] IPUIPlugin:80 - create IPUIPlugin
2025-04-06 17:31:22,344 [INFO] IPUIPlugin:80 - create IPUIPlugin
2025-04-06 17:31:22,345 [INFO] IPUIPlugin:80 - create IPUIPlugin
2025-04-06 17:31:22,345 [INFO] IPUIPlugin:80 - create IPUIPlugin
2025-04-06 17:31:22,345 [INFO] IPUIPlugin:80 - create IPUIPlugin
2025-04-06 17:31:22,346 [INFO] IPUIPlugin:80 - create IPUIPlugin
2025-04-06 17:31:22,346 [INFO] IPUIPlugin:80 - create IPUIPlugin
2025-04-06 17:31:22,346 [INFO] IPUIPlugin:80 - create IPUIPlugin
2025-04-06 17:31:22,347 [INFO] IPUIPlugin:80 - create IPUIPlugin
2025-04-06 17:31:22,347 [INFO] IPUIPlugin:80 - create IPUIPlugin
2025-04-06 17:31:22,348 [INFO] IPUIPlugin:80 - create IPUIPlugin
2025-04-06 17:31:22,349 [INFO] IPUIPlugin:80 - create IPUIPlugin
2025-04-06 17:31:22,351 [INFO] IPUIPlugin:80 - create IPUIPlugin
2025-04-06 17:31:22,351 [INFO] IPUIPlugin:80 - create IPUIPlugin
2025-04-06 17:31:22,351 [INFO] IPUIPlugin:80 - create IPUIPlugin
2025-04-06 17:31:22,352 [INFO] IPUIPlugin:80 - create IPUIPlugin
2025-04-06 17:31:22,352 [INFO] IPUIPlugin:80 - create IPUIPlugin
2025-04-06 17:31:22,353 [INFO] IPUIPlugin:80 - create IPUIPlugin
2025-04-06 17:31:22,353 [INFO] IPUIPlugin:80 - create IPUIPlugin
2025-04-06 17:31:22,353 [INFO] IPUIPlugin:80 - create IPUIPlugin
2025-04-06 17:31:22,354 [INFO] IPUIPlugin:80 - create IPUIPlugin
2025-04-06 17:31:22,354 [INFO] IPUIPlugin:80 - create IPUIPlugin
2025-04-06 17:31:22,355 [INFO] IPUIPlugin:80 - create IPUIPlugin
2025-04-06 17:31:22,355 [INFO] IPUIPlugin:80 - create IPUIPlugin
2025-04-06 17:31:22,356 [INFO] IPUIPlugin:80 - create IPUIPlugin
2025-04-06 17:31:22,356 [INFO] IPUIPlugin:80 - create IPUIPlugin
2025-04-06 17:31:22,357 [INFO] IPUIPlugin:80 - create IPUIPlugin
2025-04-06 17:31:22,358 [INFO] IPUIPlugin:80 - create IPUIPlugin
2025-04-06 17:31:22,359 [INFO] IPUIPlugin:80 - create IPUIPlugin
2025-04-06 17:31:22,363 [INFO] IPUIPlugin:80 - create IPUIPlugin
2025-04-06 17:31:22,365 [INFO] IPUIPlugin:80 - create IPUIPlugin
2025-04-06 17:31:22,369 [INFO] IPUIPlugin:80 - create IPUIPlugin
2025-04-06 17:31:22,370 [INFO] IPUIPlugin:80 - create IPUIPlugin
2025-04-06 17:31:22,372 [INFO] IPUIPlugin:80 - create IPUIPlugin
2025-04-06 17:31:22,375 [INFO] IPUIPlugin:80 - create IPUIPlugin
2025-04-06 17:31:22,377 [INFO] IPUIPlugin:80 - create IPUIPlugin
2025-04-06 17:31:22,378 [INFO] IPUIPlugin:80 - create IPUIPlugin
2025-04-06 17:31:22,379 [INFO] IPUIPlugin:80 - create IPUIPlugin
2025-04-06 17:31:22,380 [INFO] IPUIPlugin:80 - create IPUIPlugin
2025-04-06 17:31:22,381 [INFO] IPUIPlugin:80 - create IPUIPlugin
2025-04-06 17:31:22,401 [INFO] AI:968 - onDisable adding AI com.st.microxplorer.plugins.ip.ai.AI@425c41cd on STMicroelectronics.X-CUBE-AI.10.0.0
2025-04-06 17:31:22,483 [INFO] ApiDbMcu:508 - Load IP Config File for PDM2PCM
2025-04-06 17:31:22,765 [INFO] CADModel:165 - CPN selected for project levelSTM32F746NGH6
2025-04-06 17:31:22,766 [INFO] CADModel:114 - Register for checkConnection events
2025-04-06 17:31:22,812 [INFO] OpenFileManager:363 - Restore cursor
2025-04-06 17:31:23,439 [INFO] AIMainUI:1270 - Restoring parameters from IP...
2025-04-06 17:31:23,439 [INFO] AIMainUI:1393 - No old model detected
2025-04-06 17:31:23,495 [ERROR] N6Profiles:77 - java.io.FileNotFoundException: C:\Users\OS\STM32Cube\Repository\Packs\STMicroelectronics\X-CUBE-AI\10.0.0\scripts\N6_scripts\user_neuralart.json (The system cannot find the path specified)
2025-04-06 17:31:23,518 [INFO] AInterface:114 - AInterface using toolDir: C:/Users/OS/STM32Cube/Repository/Packs/STMicroelectronics/X-CUBE-AI/10.0.0/Utilities/windows
2025-04-06 17:31:23,524 [INFO] AIModelDetailledView:2372 - Analysis status: -
2025-04-06 17:31:23,525 [INFO] AIModelDetailledView:930 - Selected model: Keras
2025-04-06 17:31:23,671 [INFO] Middleware:617 - instanceName : STMicroelectronics.X-CUBE-AI.10.0.0 bspName : COM Port check condition success for : !SEMDeviceJjApplicationJjApplicationTemplate
2025-04-06 17:31:23,671 [INFO] Middleware:617 - instanceName : STMicroelectronics.X-CUBE-AI.10.0.0 bspName : COM Port check condition success for : !SEMDeviceJjApplicationJjApplicationTemplate
2025-04-06 17:31:23,671 [INFO] Middleware:617 - instanceName : STMicroelectronics.X-CUBE-AI.10.0.0 bspName : COM Port check condition success for : !SEMDeviceJjApplicationJjApplicationTemplate
2025-04-06 17:31:23,671 [INFO] Middleware:617 - instanceName : STMicroelectronics.X-CUBE-AI.10.0.0 bspName : COM Port check condition success for : !SEMDeviceJjApplicationJjApplicationTemplate
2025-04-06 17:31:23,671 [INFO] Middleware:617 - instanceName : STMicroelectronics.X-CUBE-AI.10.0.0 bspName : COM Port check condition success for : !SEMDeviceJjApplicationJjApplicationTemplate
2025-04-06 17:31:23,673 [INFO] Middleware:617 - instanceName : STMicroelectronics.X-CUBE-AI.10.0.0 bspName : COM Port check condition success for : !SEMDeviceJjApplicationJjApplicationTemplate
2025-04-06 17:31:23,701 [INFO] Middleware:617 - instanceName : STMicroelectronics.X-CUBE-AI.10.0.0 bspName : COM Port check condition success for : !SEMDeviceJjApplicationJjApplicationTemplate
2025-04-06 17:31:23,701 [INFO] Middleware:617 - instanceName : STMicroelectronics.X-CUBE-AI.10.0.0 bspName : COM Port check condition success for : !SEMDeviceJjApplicationJjApplicationTemplate
2025-04-06 17:31:23,701 [INFO] Middleware:617 - instanceName : STMicroelectronics.X-CUBE-AI.10.0.0 bspName : COM Port check condition success for : !SEMDeviceJjApplicationJjApplicationTemplate
2025-04-06 17:31:23,701 [INFO] Middleware:617 - instanceName : STMicroelectronics.X-CUBE-AI.10.0.0 bspName : COM Port check condition success for : !SEMDeviceJjApplicationJjApplicationTemplate
2025-04-06 17:31:23,701 [INFO] Middleware:617 - instanceName : STMicroelectronics.X-CUBE-AI.10.0.0 bspName : COM Port check condition success for : !SEMDeviceJjApplicationJjApplicationTemplate
2025-04-06 17:31:23,701 [INFO] Middleware:617 - instanceName : STMicroelectronics.X-CUBE-AI.10.0.0 bspName : COM Port check condition success for : !SEMDeviceJjApplicationJjApplicationTemplate
2025-04-06 17:31:23,763 [INFO] Middleware:617 - instanceName : STMicroelectronics.X-CUBE-AI.10.0.0 bspName : COM Port check condition success for : !SEMDeviceJjApplicationJjApplicationTemplate
2025-04-06 17:31:23,763 [INFO] Middleware:617 - instanceName : STMicroelectronics.X-CUBE-AI.10.0.0 bspName : COM Port check condition success for : !SEMDeviceJjApplicationJjApplicationTemplate
2025-04-06 17:31:23,763 [INFO] Middleware:617 - instanceName : STMicroelectronics.X-CUBE-AI.10.0.0 bspName : COM Port check condition success for : !SEMDeviceJjApplicationJjApplicationTemplate
2025-04-06 17:31:23,763 [INFO] Middleware:617 - instanceName : STMicroelectronics.X-CUBE-AI.10.0.0 bspName : COM Port check condition success for : !SEMDeviceJjApplicationJjApplicationTemplate
2025-04-06 17:31:23,763 [INFO] Middleware:617 - instanceName : STMicroelectronics.X-CUBE-AI.10.0.0 bspName : COM Port check condition success for : !SEMDeviceJjApplicationJjApplicationTemplate
2025-04-06 17:31:23,763 [INFO] Middleware:617 - instanceName : STMicroelectronics.X-CUBE-AI.10.0.0 bspName : COM Port check condition success for : !SEMDeviceJjApplicationJjApplicationTemplate
2025-04-06 17:31:23,763 [INFO] AIModelDetailledView:2372 - Analysis status: done
2025-04-06 17:31:44,267 [INFO] AI:951 - getUI adding AI com.st.microxplorer.plugins.ip.ai.AI@425c41cd on STMicroelectronics.X-CUBE-AI.10.0.0
2025-04-06 17:31:44,267 [INFO] Middleware:617 - instanceName : STMicroelectronics.X-CUBE-AI.10.0.0 bspName : COM Port check condition success for : !SEMDeviceJjApplicationJjApplicationTemplate
2025-04-06 17:31:44,267 [INFO] Middleware:617 - instanceName : STMicroelectronics.X-CUBE-AI.10.0.0 bspName : COM Port check condition success for : !SEMDeviceJjApplicationJjApplicationTemplate
2025-04-06 17:31:44,267 [INFO] Middleware:617 - instanceName : STMicroelectronics.X-CUBE-AI.10.0.0 bspName : COM Port check condition success for : !SEMDeviceJjApplicationJjApplicationTemplate
2025-04-06 17:32:13,854 [INFO] Middleware:617 - instanceName : STMicroelectronics.X-CUBE-AI.10.0.0 bspName : COM Port check condition success for : !SEMDeviceJjApplicationJjApplicationTemplate
2025-04-06 17:32:13,854 [INFO] Middleware:617 - instanceName : STMicroelectronics.X-CUBE-AI.10.0.0 bspName : COM Port check condition success for : !SEMDeviceJjApplicationJjApplicationTemplate
2025-04-06 17:32:13,854 [INFO] Middleware:617 - instanceName : STMicroelectronics.X-CUBE-AI.10.0.0 bspName : COM Port check condition success for : !SEMDeviceJjApplicationJjApplicationTemplate
2025-04-06 17:32:13,854 [INFO] Middleware:617 - instanceName : STMicroelectronics.X-CUBE-AI.10.0.0 bspName : COM Port check condition success for : !SEMDeviceJjApplicationJjApplicationTemplate
2025-04-06 17:32:13,854 [INFO] Middleware:617 - instanceName : STMicroelectronics.X-CUBE-AI.10.0.0 bspName : COM Port check condition success for : !SEMDeviceJjApplicationJjApplicationTemplate
2025-04-06 17:32:13,854 [INFO] Middleware:617 - instanceName : STMicroelectronics.X-CUBE-AI.10.0.0 bspName : COM Port check condition success for : !SEMDeviceJjApplicationJjApplicationTemplate
2025-04-06 17:32:13,944 [INFO] AIModelDetailledView:2372 - Analysis status: -
2025-04-06 17:32:17,152 [INFO] AInterface:254 - ModelName:network; files:[D:\transfer_learning_ptbdb_full.h5]; type:Keras; compression:None
2025-04-06 17:32:17,156 [INFO] AInterface:519 - workspaceTempDir: C:/Users/OS/AppData/Local/Temp/mxAI_workspace314201188775005581348345253906121
2025-04-06 17:32:17,158 [INFO] AInterface:1132 - Setting Env: C:/Users/OS/STM32Cube/Repository/Packs/STMicroelectronics/X-CUBE-AI/10.0.0/Utilities/windows
2025-04-06 17:32:17,284 [INFO] STM32CubeIDEBuilder:265 - Looking for gnu-tools-for-stm32 tools/bin/arm-none-eabi-gcc.exe in C:\ST\STM32CubeIDE_1.16.0\STM32CubeIDE
2025-04-06 17:32:17,387 [INFO] STM32CubeIDEBuilder:294 - checking C:\ST\STM32CubeIDE_1.16.0\STM32CubeIDE\plugins\com.st.stm32cube.ide.mcu.externaltools.gnu-tools-for-stm32.13.3.rel1.win32_1.0.0.202411081344\tools\bin\arm-none-eabi-gcc.exe
2025-04-06 17:32:17,388 [INFO] STM32CubeIDEBuilder:297 - ret=C:\ST\STM32CubeIDE_1.16.0\STM32CubeIDE\plugins\com.st.stm32cube.ide.mcu.externaltools.gnu-tools-for-stm32.13.3.rel1.win32_1.0.0.202411081344\tools\bin\arm-none-eabi-gcc.exe
2025-04-06 17:32:17,388 [INFO] STM32CubeIDEBuilder:311 - returning C:\ST\STM32CubeIDE_1.16.0\STM32CubeIDE\plugins\com.st.stm32cube.ide.mcu.externaltools.gnu-tools-for-stm32.13.3.rel1.win32_1.0.0.202411081344\tools\bin\arm-none-eabi-gcc.exe
2025-04-06 17:32:17,389 [INFO] AInterface:1189 - Custom PATH variable: C:/Users/OS/STM32Cube/Repository/Packs/STMicroelectronics/X-CUBE-AI/10.0.0/Utilities/windows;C:/Users/OS/STM32Cube/Repository/Packs/STMicroelectronics/X-CUBE-AI/10.0.0/Utilities/windows/mingw64/bin;C:/Users/OS/STM32Cube/Repository/Packs/STMicroelectronics/X-CUBE-AI/10.0.0/Utilities/windows/mingw64/libexec/gcc/x86_64-w64-mingw32/7.3.0;;C:\ST\STM32CubeIDE_1.16.0\STM32CubeIDE\plugins\com.st.stm32cube.ide.mcu.externaltools.gnu-tools-for-stm32.13.3.rel1.win32_1.0.0.202411081344\tools\bin
2025-04-06 17:32:17,392 [INFO] CmdLine:109 - Command: C:/Users/OS/STM32Cube/Repository/Packs/STMicroelectronics/X-CUBE-AI/10.0.0/Utilities/windows/stedgeai.exe analyze --target stm32f7 --name network -m D:/transfer_learning_ptbdb_full.h5 --compression none --verbosity 1 --workspace C:/Users/OS/AppData/Local/Temp/mxAI_workspace314201188775005581348345253906121 --output C:/Users/OS/.stm32cubemx/network_output
2025-04-06 17:32:17,394 [INFO] AIModelDetailledView:2372 - Analysis status: pending
2025-04-06 17:32:30,523 [INFO] CmdLine:74 - ST Edge AI Core v2.0.0-20049
2025-04-06 17:33:40,970 [INFO] CmdLine:74 - Creating c (debug) info json file C:\Users\OS\AppData\Local\Temp\mxAI_workspace314201188775005581348345253906121\network_c_info.json
2025-04-06 17:33:41,038 [INFO] CmdLine:74 -  
2025-04-06 17:33:41,039 [INFO] CmdLine:74 -  Exec/report summary (analyze)
2025-04-06 17:33:41,039 [INFO] CmdLine:74 -  --------------------------------------------------------------------------------------------------------
2025-04-06 17:33:41,039 [INFO] CmdLine:74 -  model file         :   D:\transfer_learning_ptbdb_full.h5                                               
2025-04-06 17:33:41,040 [INFO] CmdLine:74 -  type               :   keras                                                                            
2025-04-06 17:33:41,042 [INFO] CmdLine:74 -  c_name             :   network                                                                          
2025-04-06 17:33:41,042 [INFO] CmdLine:74 -  compression        :   none                                                                             
2025-04-06 17:33:41,042 [INFO] CmdLine:74 -  options            :   allocate-inputs, allocate-outputs                                                
2025-04-06 17:33:41,043 [INFO] CmdLine:74 -  optimization       :   balanced                                                                         
2025-04-06 17:33:41,045 [INFO] CmdLine:74 -  target/series      :   stm32f7                                                                          
2025-04-06 17:33:41,046 [INFO] CmdLine:74 -  workspace dir      :   C:\Users\OS\AppData\Local\Temp\mxAI_workspace314201188775005581348345253906121   
2025-04-06 17:33:41,046 [INFO] CmdLine:74 -  output dir         :   C:\Users\OS\.stm32cubemx\network_output                                          
2025-04-06 17:33:41,046 [INFO] CmdLine:74 -  model_fmt          :   float                                                                            
2025-04-06 17:33:41,047 [INFO] CmdLine:74 -  model_name         :   transfer_learning_ptbdb_full                                                     
2025-04-06 17:33:41,047 [INFO] CmdLine:74 -  model_hash         :   0xc10c3545c4f064811f7f88ffae13cb41                                               
2025-04-06 17:33:41,048 [INFO] CmdLine:74 -  params #           :   254,641 items (994.69 KiB)                                                       
2025-04-06 17:33:41,048 [INFO] CmdLine:74 -  --------------------------------------------------------------------------------------------------------
2025-04-06 17:33:41,048 [INFO] CmdLine:74 -  input 1/1          :   'input_3', f32(1x187x1), 748 Bytes, activations                                  
2025-04-06 17:33:41,049 [INFO] CmdLine:74 -  output 1/1         :   'dense_3_ptbdb', f32(1x1), 4 Bytes, activations                                  
2025-04-06 17:33:41,049 [INFO] CmdLine:74 -  macc               :   4,299,099                                                                        
2025-04-06 17:33:41,050 [INFO] CmdLine:74 -  weights (ro)       :   1,018,564 B (994.69 KiB) (1 segment)                                             
2025-04-06 17:33:41,050 [INFO] CmdLine:74 -  activations (rw)   :   21,504 B (21.00 KiB) (1 segment) *                                               
2025-04-06 17:33:41,050 [INFO] CmdLine:74 -  ram (total)        :   21,504 B (21.00 KiB) = 21,504 + 0 + 0                                            
2025-04-06 17:33:41,051 [INFO] CmdLine:74 -  --------------------------------------------------------------------------------------------------------
2025-04-06 17:33:41,051 [INFO] CmdLine:74 -  (*) 'input'/'output' buffers can be used from the activations buffer
2025-04-06 17:33:41,082 [INFO] CmdLine:74 - Computing AI RT data/code size (target=stm32f7)..
2025-04-06 17:33:45,007 [INFO] CmdLine:74 -  Model name - transfer_learning_ptbdb_full
2025-04-06 17:33:45,009 [INFO] CmdLine:74 -  ------ -------------------------------------------------- ------------------ ----------------- ----------- -----------------------------
2025-04-06 17:33:45,010 [INFO] CmdLine:74 -  m_id   layer (original)                                   oshape             param/size               macc                  connected to
2025-04-06 17:33:45,011 [INFO] CmdLine:74 -  ------ -------------------------------------------------- ------------------ ----------------- ----------- -----------------------------
2025-04-06 17:33:45,012 [INFO] CmdLine:74 -  0      input_3 (InputLayer)                               [b:1,h:187,c:1]
2025-04-06 17:33:45,014 [INFO] CmdLine:74 -  ------ -------------------------------------------------- ------------------ ----------------- ----------- -----------------------------
2025-04-06 17:33:45,015 [INFO] CmdLine:74 -  1      conv1d_16_conv2d (Conv1D)                          [b:1,h:183,c:16]   96/384                 14,656                       input_3
2025-04-06 17:33:45,016 [INFO] CmdLine:74 -         conv1d_16 (Conv1D)                                 [b:1,h:183,c:16]                           2,928              conv1d_16_conv2d
2025-04-06 17:33:45,017 [INFO] CmdLine:74 -  ------ -------------------------------------------------- ------------------ ----------------- ----------- -----------------------------
2025-04-06 17:33:45,018 [INFO] CmdLine:74 -  2      conv1d_17_conv2d (Conv1D)                          [b:1,h:179,c:16]   1,296/5,184           229,136                     conv1d_16
2025-04-06 17:33:45,019 [INFO] CmdLine:74 -         conv1d_17 (Conv1D)                                 [b:1,h:179,c:16]                           2,864              conv1d_17_conv2d
2025-04-06 17:33:45,019 [INFO] CmdLine:74 -  ------ -------------------------------------------------- ------------------ ----------------- ----------- -----------------------------
2025-04-06 17:33:45,020 [INFO] CmdLine:74 -  3      max_pooling1d_6 (MaxPooling1D)                     [b:1,h:89,c:16]                            2,848                     conv1d_17
2025-04-06 17:33:45,020 [INFO] CmdLine:74 -  ------ -------------------------------------------------- ------------------ ----------------- ----------- -----------------------------
2025-04-06 17:33:45,020 [INFO] CmdLine:74 -  5      conv1d_18_conv2d (Conv1D)                          [b:1,h:87,c:32]    1,568/6,272           133,664               max_pooling1d_6
2025-04-06 17:33:45,022 [INFO] CmdLine:74 -         conv1d_18 (Conv1D)                                 [b:1,h:87,c:32]                            2,784              conv1d_18_conv2d
2025-04-06 17:33:45,022 [INFO] CmdLine:74 -  ------ -------------------------------------------------- ------------------ ----------------- ----------- -----------------------------
2025-04-06 17:33:45,023 [INFO] CmdLine:74 -  6      conv1d_19_conv2d (Conv1D)                          [b:1,h:85,c:32]    3,104/12,416          261,152                     conv1d_18
2025-04-06 17:33:45,023 [INFO] CmdLine:74 -         conv1d_19 (Conv1D)                                 [b:1,h:85,c:32]                            2,720              conv1d_19_conv2d
2025-04-06 17:33:45,023 [INFO] CmdLine:74 -  ------ -------------------------------------------------- ------------------ ----------------- ----------- -----------------------------
2025-04-06 17:33:45,024 [INFO] CmdLine:74 -  7      max_pooling1d_7 (MaxPooling1D)                     [b:1,h:42,c:32]                            2,688                     conv1d_19
2025-04-06 17:33:45,024 [INFO] CmdLine:74 -  ------ -------------------------------------------------- ------------------ ----------------- ----------- -----------------------------
2025-04-06 17:33:45,025 [INFO] CmdLine:74 -  9      conv1d_20_conv2d (Conv1D)                          [b:1,h:40,c:32]    3,104/12,416          122,912               max_pooling1d_7
2025-04-06 17:33:45,026 [INFO] CmdLine:74 -         conv1d_20 (Conv1D)                                 [b:1,h:40,c:32]                            1,280              conv1d_20_conv2d
2025-04-06 17:33:45,027 [INFO] CmdLine:74 -  ------ -------------------------------------------------- ------------------ ----------------- ----------- -----------------------------
2025-04-06 17:33:45,028 [INFO] CmdLine:74 -  10     conv1d_21_conv2d (Conv1D)                          [b:1,h:38,c:32]    3,104/12,416          116,768                     conv1d_20
2025-04-06 17:33:45,029 [INFO] CmdLine:74 -         conv1d_21 (Conv1D)                                 [b:1,h:38,c:32]                            1,216              conv1d_21_conv2d
2025-04-06 17:33:45,029 [INFO] CmdLine:74 -  ------ -------------------------------------------------- ------------------ ----------------- ----------- -----------------------------
2025-04-06 17:33:45,030 [INFO] CmdLine:74 -  11     max_pooling1d_8 (MaxPooling1D)                     [b:1,h:19,c:32]                            1,216                     conv1d_21
2025-04-06 17:33:45,030 [INFO] CmdLine:74 -  ------ -------------------------------------------------- ------------------ ----------------- ----------- -----------------------------
2025-04-06 17:33:45,032 [INFO] CmdLine:74 -  13     conv1d_22_conv2d (Conv1D)                          [b:1,h:17,c:256]   24,832/99,328         418,048               max_pooling1d_8
2025-04-06 17:33:45,032 [INFO] CmdLine:74 -         conv1d_22 (Conv1D)                                 [b:1,h:17,c:256]                           4,352              conv1d_22_conv2d
2025-04-06 17:33:45,033 [INFO] CmdLine:74 -  ------ -------------------------------------------------- ------------------ ----------------- ----------- -----------------------------
2025-04-06 17:33:45,033 [INFO] CmdLine:74 -  14     conv1d_23_conv2d (Conv1D)                          [b:1,h:15,c:256]   196,864/787,456     2,949,376                     conv1d_22
2025-04-06 17:33:45,034 [INFO] CmdLine:74 -         conv1d_23 (Conv1D)                                 [b:1,h:15,c:256]                           3,840              conv1d_23_conv2d
2025-04-06 17:33:45,035 [INFO] CmdLine:74 -  ------ -------------------------------------------------- ------------------ ----------------- ----------- -----------------------------
2025-04-06 17:33:45,035 [INFO] CmdLine:74 -  15     global_max_pooling1d_2_pool (GlobalMaxPooling1D)   [b:1,h:1,c:256]                            3,840                     conv1d_23
2025-04-06 17:33:45,036 [INFO] CmdLine:74 -         global_max_pooling1d_2 (GlobalMaxPooling1D)        [b:1,c:256]                                        global_max_pooling1d_2_pool
2025-04-06 17:33:45,036 [INFO] CmdLine:74 -  ------ -------------------------------------------------- ------------------ ----------------- ----------- -----------------------------
2025-04-06 17:33:45,037 [INFO] CmdLine:74 -  17     dense_1_dense (Dense)                              [b:1,c:64]         16,448/65,792          16,448        global_max_pooling1d_2
2025-04-06 17:33:45,037 [INFO] CmdLine:74 -         dense_1 (Dense)                                    [b:1,c:64]                                    64                 dense_1_dense
2025-04-06 17:33:45,038 [INFO] CmdLine:74 -  ------ -------------------------------------------------- ------------------ ----------------- ----------- -----------------------------
2025-04-06 17:33:45,039 [INFO] CmdLine:74 -  18     dense_2_dense (Dense)                              [b:1,c:64]         4,160/16,640            4,160                       dense_1
2025-04-06 17:33:45,039 [INFO] CmdLine:74 -         dense_2 (Dense)                                    [b:1,c:64]                                    64                 dense_2_dense
2025-04-06 17:33:45,040 [INFO] CmdLine:74 -  ------ -------------------------------------------------- ------------------ ----------------- ----------- -----------------------------
2025-04-06 17:33:45,041 [INFO] CmdLine:74 -  19     dense_3_ptbdb_dense (Dense)                        [b:1,c:1]          65/260                     65                       dense_2
2025-04-06 17:33:45,041 [INFO] CmdLine:74 -         dense_3_ptbdb (Dense)                              [b:1,c:1]                                     10           dense_3_ptbdb_dense
2025-04-06 17:33:45,042 [INFO] CmdLine:74 -  ------ -------------------------------------------------- ------------------ ----------------- ----------- -----------------------------
2025-04-06 17:33:45,043 [INFO] CmdLine:74 -  model: macc=4,299,099 weights=1,018,564 activations=-- io=--
2025-04-06 17:33:45,044 [INFO] CmdLine:74 -  Number of operations per c-layer
2025-04-06 17:33:45,045 [INFO] CmdLine:74 -  ------- ------ ------------------------------------ ----------- --------------
2025-04-06 17:33:45,045 [INFO] CmdLine:74 -  c_id    m_id   name (type)                                  #op           type
2025-04-06 17:33:45,045 [INFO] CmdLine:74 -  ------- ------ ------------------------------------ ----------- --------------
2025-04-06 17:33:45,046 [INFO] CmdLine:74 -  0       1      conv1d_16_conv2d (Conv2D)                 14,656   smul_f32_f32
2025-04-06 17:33:45,046 [INFO] CmdLine:74 -  1       1      conv1d_16 (Nonlinearity)                   2,928     op_f32_f32
2025-04-06 17:33:45,046 [INFO] CmdLine:74 -  2       3      conv1d_17_conv2d (Conv2D)                234,848   smul_f32_f32
2025-04-06 17:33:45,047 [INFO] CmdLine:74 -  3       5      conv1d_18_conv2d (Conv2D)                133,664   smul_f32_f32
2025-04-06 17:33:45,047 [INFO] CmdLine:74 -  4       5      conv1d_18 (Nonlinearity)                   2,784     op_f32_f32
2025-04-06 17:33:45,047 [INFO] CmdLine:74 -  5       7      conv1d_19_conv2d (Conv2D)                266,560   smul_f32_f32
2025-04-06 17:33:45,048 [INFO] CmdLine:74 -  6       9      conv1d_20_conv2d (Conv2D)                122,912   smul_f32_f32
2025-04-06 17:33:45,048 [INFO] CmdLine:74 -  7       9      conv1d_20 (Nonlinearity)                   1,280     op_f32_f32
2025-04-06 17:33:45,048 [INFO] CmdLine:74 -  8       11     conv1d_21_conv2d (Conv2D)                119,200   smul_f32_f32
2025-04-06 17:33:45,049 [INFO] CmdLine:74 -  9       13     conv1d_22_conv2d (Conv2D)                418,048   smul_f32_f32
2025-04-06 17:33:45,049 [INFO] CmdLine:74 -  10      13     conv1d_22 (Nonlinearity)                   4,352     op_f32_f32
2025-04-06 17:33:45,050 [INFO] CmdLine:74 -  11      14     conv1d_23_conv2d (Conv2D)              2,949,376   smul_f32_f32
2025-04-06 17:33:45,050 [INFO] CmdLine:74 -  12      14     conv1d_23 (Nonlinearity)                   3,840     op_f32_f32
2025-04-06 17:33:45,050 [INFO] CmdLine:74 -  13      15     global_max_pooling1d_2_pool (Pool)         3,840   smul_f32_f32
2025-04-06 17:33:45,051 [INFO] CmdLine:74 -  14      17     dense_1_dense (Dense)                     16,448   smul_f32_f32
2025-04-06 17:33:45,051 [INFO] CmdLine:74 -  15      17     dense_1 (Nonlinearity)                        64     op_f32_f32
2025-04-06 17:33:45,051 [INFO] CmdLine:74 -  16      18     dense_2_dense (Dense)                      4,160   smul_f32_f32
2025-04-06 17:33:45,051 [INFO] CmdLine:74 -  17      18     dense_2 (Nonlinearity)                        64     op_f32_f32
2025-04-06 17:33:45,051 [INFO] CmdLine:74 -  18      19     dense_3_ptbdb_dense (Dense)                   65   smul_f32_f32
2025-04-06 17:33:45,052 [INFO] CmdLine:74 -  19      19     dense_3_ptbdb (Nonlinearity)                  10     op_f32_f32
2025-04-06 17:33:45,052 [INFO] CmdLine:74 -  ------- ------ ------------------------------------ ----------- --------------
2025-04-06 17:33:45,053 [INFO] CmdLine:74 -  total                                                 4,299,099
2025-04-06 17:33:45,053 [INFO] CmdLine:74 -  Number of operation types
2025-04-06 17:33:45,054 [INFO] CmdLine:74 -  ---------------- ----------- -----------
2025-04-06 17:33:45,054 [INFO] CmdLine:74 -  operation type             #           %
2025-04-06 17:33:45,055 [INFO] CmdLine:74 -  ---------------- ----------- -----------
2025-04-06 17:33:45,055 [INFO] CmdLine:74 -  smul_f32_f32       4,283,777       99.6%
2025-04-06 17:33:45,056 [INFO] CmdLine:74 -  op_f32_f32            15,322        0.4%
2025-04-06 17:33:45,056 [INFO] CmdLine:74 -  Complexity report (model)
2025-04-06 17:33:45,057 [INFO] CmdLine:74 -  ------ ----------------------------- ------------------------- ------------------------- ----------
2025-04-06 17:33:45,057 [INFO] CmdLine:74 -  m_id   name                          c_macc                    c_rom                     c_id
2025-04-06 17:33:45,058 [INFO] CmdLine:74 -  ------ ----------------------------- ------------------------- ------------------------- ----------
2025-04-06 17:33:45,059 [INFO] CmdLine:74 -  1      conv1d_16_conv2d              |                  0.4%   |                  0.0%   [0, 1]
2025-04-06 17:33:45,061 [INFO] CmdLine:74 -  3      max_pooling1d_6               ||                 5.5%   |                  0.5%   [2]
2025-04-06 17:33:45,062 [INFO] CmdLine:74 -  5      conv1d_18_conv2d              |                  3.2%   |                  0.6%   [3, 4]
2025-04-06 17:33:45,064 [INFO] CmdLine:74 -  7      max_pooling1d_7               ||                 6.2%   |                  1.2%   [5]
2025-04-06 17:33:45,078 [INFO] CmdLine:74 -  9      conv1d_20_conv2d              |                  2.9%   |                  1.2%   [6, 7]
2025-04-06 17:33:45,079 [INFO] CmdLine:74 -  11     max_pooling1d_8               |                  2.8%   |                  1.2%   [8]
2025-04-06 17:33:45,079 [INFO] CmdLine:74 -  13     conv1d_22_conv2d              |||                9.8%   ||                 9.8%   [9, 10]
2025-04-06 17:33:45,082 [INFO] CmdLine:74 -  14     conv1d_23_conv2d              ||||||||||||||||  68.7%   ||||||||||||||||  77.3%   [11, 12]
2025-04-06 17:33:45,082 [INFO] CmdLine:74 -  15     global_max_pooling1d_2_pool   |                  0.1%   |                  0.0%   [13]
2025-04-06 17:33:45,083 [INFO] CmdLine:74 -  17     dense_1_dense                 |                  0.4%   ||                 6.5%   [14, 15]
2025-04-06 17:33:45,084 [INFO] CmdLine:74 -  18     dense_2_dense                 |                  0.1%   |                  1.6%   [16, 17]
2025-04-06 17:33:45,084 [INFO] CmdLine:74 -  19     dense_3_ptbdb_dense           |                  0.0%   |                  0.0%   [18, 19]
2025-04-06 17:33:45,085 [INFO] CmdLine:74 -  ------ ----------------------------- ------------------------- ------------------------- ----------
2025-04-06 17:33:45,085 [INFO] CmdLine:74 -  macc=4,299,099 weights=1,018,564 act=21,504 ram_io=0
2025-04-06 17:33:45,086 [INFO] CmdLine:74 -  Requested memory size by section - "stm32f7" target
2025-04-06 17:33:45,086 [INFO] CmdLine:74 -  ------------------------------ -------- ----------- ------- --------
2025-04-06 17:33:45,086 [INFO] CmdLine:74 -  module                             text      rodata    data      bss
2025-04-06 17:33:45,088 [INFO] CmdLine:74 -  ------------------------------ -------- ----------- ------- --------
2025-04-06 17:33:45,089 [INFO] CmdLine:74 -  NetworkRuntime1000_CM7_GCC.a     13,884           0       0        0
2025-04-06 17:33:45,089 [INFO] CmdLine:74 -  network.o                         1,256         160   6,652      388
2025-04-06 17:33:45,090 [INFO] CmdLine:74 -  network_data.o                       48          16      88        0
2025-04-06 17:33:45,090 [INFO] CmdLine:74 -  lib (toolchain)*                    614          24       0        0
2025-04-06 17:33:45,090 [INFO] CmdLine:74 -  ------------------------------ -------- ----------- ------- --------
2025-04-06 17:33:45,092 [INFO] CmdLine:74 -  RT total**                       15,802         200   6,740      388
2025-04-06 17:33:45,092 [INFO] CmdLine:74 -  ------------------------------ -------- ----------- ------- --------
2025-04-06 17:33:45,093 [INFO] CmdLine:74 -  weights                               0   1,018,568       0        0
2025-04-06 17:33:45,095 [INFO] CmdLine:74 -  activations                           0           0       0   21,504
2025-04-06 17:33:45,096 [INFO] CmdLine:74 -  io                                    0           0       0        0
2025-04-06 17:33:45,097 [INFO] CmdLine:74 -  ------------------------------ -------- ----------- ------- --------
2025-04-06 17:33:45,097 [INFO] CmdLine:74 -  TOTAL                            15,802   1,018,768   6,740   21,892
2025-04-06 17:33:45,098 [INFO] CmdLine:74 -  ------------------------------ -------- ----------- ------- --------
2025-04-06 17:33:45,098 [INFO] CmdLine:74 -  *  toolchain objects (libm/libgcc*)
2025-04-06 17:33:45,098 [INFO] CmdLine:74 -  ** RT AI runtime objects (kernels+infrastructure)
2025-04-06 17:33:45,099 [INFO] CmdLine:74 -   Summary - "stm32f7" target
2025-04-06 17:33:45,099 [INFO] CmdLine:74 -   --------------------------------------------------
2025-04-06 17:33:45,099 [INFO] CmdLine:74 -                FLASH (ro)     %*   RAM (rw)       %
2025-04-06 17:33:45,100 [INFO] CmdLine:74 -   --------------------------------------------------
2025-04-06 17:33:45,100 [INFO] CmdLine:74 -   RT total         22,742   2.2%      7,128   24.9%
2025-04-06 17:33:45,100 [INFO] CmdLine:74 -   --------------------------------------------------
2025-04-06 17:33:45,101 [INFO] CmdLine:74 -   TOTAL         1,041,310            28,632
2025-04-06 17:33:45,101 [INFO] CmdLine:74 -   --------------------------------------------------
2025-04-06 17:33:45,102 [INFO] CmdLine:74 -   *  rt/total
2025-04-06 17:33:45,102 [INFO] CmdLine:74 - Creating txt report file C:\Users\OS\.stm32cubemx\network_output\network_analyze_report.txt
2025-04-06 17:33:53,886 [INFO] CmdLine:74 - elapsed time (analyze): 83.361s
2025-04-06 17:33:54,464 [INFO] CmdLine:142 - stedgeai exit with status: 0
2025-04-06 17:33:54,491 [INFO] AIModelDetailledView:1176 - Model file:      transfer_learning_ptbdb_full.h5
2025-04-06 17:33:54,492 [INFO] AIModelDetailledView:1176 - Total Flash:     1041306 B (1016.90 KiB)
2025-04-06 17:33:54,493 [INFO] AIModelDetailledView:1176 -     Weights:     1018564 B (994.69 KiB)
2025-04-06 17:33:54,494 [INFO] AIModelDetailledView:1176 -     Library:     22742 B (22.21 KiB)
2025-04-06 17:33:54,495 [INFO] AIModelDetailledView:1176 - Total Ram:       28632 B (27.96 KiB)
2025-04-06 17:33:54,495 [INFO] AIModelDetailledView:1176 -     Activations: 21504 B (21.00 KiB)
2025-04-06 17:33:54,496 [INFO] AIModelDetailledView:1176 -     Library:     7128 B (6.96 KiB)
2025-04-06 17:33:54,496 [INFO] AIModelDetailledView:1176 -     Input:       748 B (included in Activations)
2025-04-06 17:33:54,496 [INFO] AIModelDetailledView:1176 -     Output:      4 B (included in Activations)
2025-04-06 17:33:54,496 [INFO] AIModelDetailledView:1176 - Done
2025-04-06 17:33:54,497 [INFO] AIModelDetailledView:2707 - Analyze complete on AI model
2025-04-06 17:33:54,509 [INFO] AIModelDetailledView:2372 - Analysis status: done
2025-04-06 18:05:33,296 [INFO] WebApp:189 - Connection lost
2025-04-06 18:05:33,876 [INFO] WebApp:186 - Connection restablished
2025-04-06 18:05:35,158 [INFO] WebApp:189 - Connection lost
2025-04-06 18:05:35,310 [INFO] WebApp:186 - Connection restablished
2025-04-06 18:05:38,290 [INFO] WebApp:189 - Connection lost
2025-04-06 18:05:38,434 [INFO] WebApp:186 - Connection restablished
2025-04-06 18:06:49,386 [INFO] UtilMem:75 - End SaveConfig() Used Memory: 817915256 Bytes (1073741824)
2025-04-06 18:06:50,138 [INFO] Middleware:617 - instanceName : STMicroelectronics.X-CUBE-AI.10.0.0 bspName : COM Port check condition success for : !SEMDeviceJjApplicationJjApplicationTemplate
2025-04-06 18:06:50,138 [INFO] Middleware:617 - instanceName : STMicroelectronics.X-CUBE-AI.10.0.0 bspName : COM Port check condition success for : !SEMDeviceJjApplicationJjApplicationTemplate
2025-04-06 18:06:50,138 [INFO] Middleware:617 - instanceName : STMicroelectronics.X-CUBE-AI.10.0.0 bspName : COM Port check condition success for : !SEMDeviceJjApplicationJjApplicationTemplate
2025-04-06 18:06:50,139 [INFO] Middleware:617 - instanceName : STMicroelectronics.X-CUBE-AI.10.0.0 bspName : COM Port check condition success for : !SEMDeviceJjApplicationJjApplicationTemplate
2025-04-06 18:06:50,139 [INFO] Middleware:617 - instanceName : STMicroelectronics.X-CUBE-AI.10.0.0 bspName : COM Port check condition success for : !SEMDeviceJjApplicationJjApplicationTemplate
2025-04-06 18:06:50,139 [INFO] Middleware:617 - instanceName : STMicroelectronics.X-CUBE-AI.10.0.0 bspName : COM Port check condition success for : !SEMDeviceJjApplicationJjApplicationTemplate
2025-04-06 18:06:50,245 [INFO] Middleware:617 - instanceName : STMicroelectronics.X-CUBE-AI.10.0.0 bspName : COM Port check condition success for : !SEMDeviceJjApplicationJjApplicationTemplate
2025-04-06 18:06:50,245 [INFO] Middleware:617 - instanceName : STMicroelectronics.X-CUBE-AI.10.0.0 bspName : COM Port check condition success for : !SEMDeviceJjApplicationJjApplicationTemplate
2025-04-06 18:06:50,245 [INFO] Middleware:617 - instanceName : STMicroelectronics.X-CUBE-AI.10.0.0 bspName : COM Port check condition success for : !SEMDeviceJjApplicationJjApplicationTemplate
2025-04-06 18:06:50,245 [INFO] Middleware:617 - instanceName : STMicroelectronics.X-CUBE-AI.10.0.0 bspName : COM Port check condition success for : !SEMDeviceJjApplicationJjApplicationTemplate
2025-04-06 18:06:50,245 [INFO] Middleware:617 - instanceName : STMicroelectronics.X-CUBE-AI.10.0.0 bspName : COM Port check condition success for : !SEMDeviceJjApplicationJjApplicationTemplate
2025-04-06 18:06:50,245 [INFO] Middleware:617 - instanceName : STMicroelectronics.X-CUBE-AI.10.0.0 bspName : COM Port check condition success for : !SEMDeviceJjApplicationJjApplicationTemplate
2025-04-06 18:06:50,340 [INFO] Middleware:617 - instanceName : STMicroelectronics.X-CUBE-AI.10.0.0 bspName : COM Port check condition success for : !SEMDeviceJjApplicationJjApplicationTemplate
2025-04-06 18:06:50,340 [INFO] Middleware:617 - instanceName : STMicroelectronics.X-CUBE-AI.10.0.0 bspName : COM Port check condition success for : !SEMDeviceJjApplicationJjApplicationTemplate
2025-04-06 18:06:50,340 [INFO] Middleware:617 - instanceName : STMicroelectronics.X-CUBE-AI.10.0.0 bspName : COM Port check condition success for : !SEMDeviceJjApplicationJjApplicationTemplate
2025-04-06 18:06:50,340 [INFO] Middleware:617 - instanceName : STMicroelectronics.X-CUBE-AI.10.0.0 bspName : COM Port check condition success for : !SEMDeviceJjApplicationJjApplicationTemplate
2025-04-06 18:06:50,340 [INFO] Middleware:617 - instanceName : STMicroelectronics.X-CUBE-AI.10.0.0 bspName : COM Port check condition success for : !SEMDeviceJjApplicationJjApplicationTemplate
2025-04-06 18:06:50,340 [INFO] Middleware:617 - instanceName : STMicroelectronics.X-CUBE-AI.10.0.0 bspName : COM Port check condition success for : !SEMDeviceJjApplicationJjApplicationTemplate
2025-04-06 18:06:50,360 [INFO] AIModelDetailledView:2372 - Analysis status: -
2025-04-06 18:06:50,440 [INFO] AInterface:254 - ModelName:network; files:[D:\transfer_learning_ptbdb_full.h5]; type:Keras; compression:None
2025-04-06 18:06:50,446 [INFO] AInterface:519 - workspaceTempDir: C:/Users/OS/AppData/Local/Temp/mxAI_workspace334934178924004579020146612021600
2025-04-06 18:06:50,451 [INFO] AInterface:1132 - Setting Env: C:/Users/OS/STM32Cube/Repository/Packs/STMicroelectronics/X-CUBE-AI/10.0.0/Utilities/windows
2025-04-06 18:06:50,485 [INFO] STM32CubeIDEBuilder:265 - Looking for gnu-tools-for-stm32 tools/bin/arm-none-eabi-gcc.exe in C:\ST\STM32CubeIDE_1.16.0\STM32CubeIDE
2025-04-06 18:06:50,561 [INFO] STM32CubeIDEBuilder:294 - checking C:\ST\STM32CubeIDE_1.16.0\STM32CubeIDE\plugins\com.st.stm32cube.ide.mcu.externaltools.gnu-tools-for-stm32.13.3.rel1.win32_1.0.0.202411081344\tools\bin\arm-none-eabi-gcc.exe
2025-04-06 18:06:50,561 [INFO] STM32CubeIDEBuilder:297 - ret=C:\ST\STM32CubeIDE_1.16.0\STM32CubeIDE\plugins\com.st.stm32cube.ide.mcu.externaltools.gnu-tools-for-stm32.13.3.rel1.win32_1.0.0.202411081344\tools\bin\arm-none-eabi-gcc.exe
2025-04-06 18:06:50,561 [INFO] STM32CubeIDEBuilder:311 - returning C:\ST\STM32CubeIDE_1.16.0\STM32CubeIDE\plugins\com.st.stm32cube.ide.mcu.externaltools.gnu-tools-for-stm32.13.3.rel1.win32_1.0.0.202411081344\tools\bin\arm-none-eabi-gcc.exe
2025-04-06 18:06:50,562 [INFO] AInterface:1189 - Custom PATH variable: C:/Users/OS/STM32Cube/Repository/Packs/STMicroelectronics/X-CUBE-AI/10.0.0/Utilities/windows;C:/Users/OS/STM32Cube/Repository/Packs/STMicroelectronics/X-CUBE-AI/10.0.0/Utilities/windows/mingw64/bin;C:/Users/OS/STM32Cube/Repository/Packs/STMicroelectronics/X-CUBE-AI/10.0.0/Utilities/windows/mingw64/libexec/gcc/x86_64-w64-mingw32/7.3.0;;C:\ST\STM32CubeIDE_1.16.0\STM32CubeIDE\plugins\com.st.stm32cube.ide.mcu.externaltools.gnu-tools-for-stm32.13.3.rel1.win32_1.0.0.202411081344\tools\bin
2025-04-06 18:06:50,566 [INFO] CmdLine:109 - Command: C:/Users/OS/STM32Cube/Repository/Packs/STMicroelectronics/X-CUBE-AI/10.0.0/Utilities/windows/stedgeai.exe analyze --target stm32f7 --name network -m D:/transfer_learning_ptbdb_full.h5 --compression none --verbosity 1 --workspace C:/Users/OS/AppData/Local/Temp/mxAI_workspace334934178924004579020146612021600 --output C:/Users/OS/.stm32cubemx/network_output
2025-04-06 18:06:50,567 [INFO] AIModelDetailledView:2372 - Analysis status: pending
2025-04-06 18:06:56,219 [INFO] CmdLine:74 - ST Edge AI Core v2.0.0-20049
2025-04-06 18:07:17,638 [INFO] WebApp:189 - Connection lost
2025-04-06 18:07:17,815 [INFO] WebApp:186 - Connection restablished
2025-04-06 18:07:53,004 [INFO] CmdLine:74 - Creating c (debug) info json file C:\Users\OS\AppData\Local\Temp\mxAI_workspace334934178924004579020146612021600\network_c_info.json
2025-04-06 18:07:53,077 [INFO] CmdLine:74 -  
2025-04-06 18:07:53,077 [INFO] CmdLine:74 -  Exec/report summary (analyze)
2025-04-06 18:07:53,078 [INFO] CmdLine:74 -  --------------------------------------------------------------------------------------------------------
2025-04-06 18:07:53,078 [INFO] CmdLine:74 -  model file         :   D:\transfer_learning_ptbdb_full.h5                                               
2025-04-06 18:07:53,078 [INFO] CmdLine:74 -  type               :   keras                                                                            
2025-04-06 18:07:53,079 [INFO] CmdLine:74 -  c_name             :   network                                                                          
2025-04-06 18:07:53,079 [INFO] CmdLine:74 -  compression        :   none                                                                             
2025-04-06 18:07:53,080 [INFO] CmdLine:74 -  options            :   allocate-inputs, allocate-outputs                                                
2025-04-06 18:07:53,080 [INFO] CmdLine:74 -  optimization       :   balanced                                                                         
2025-04-06 18:07:53,081 [INFO] CmdLine:74 -  target/series      :   stm32f7                                                                          
2025-04-06 18:07:53,081 [INFO] CmdLine:74 -  workspace dir      :   C:\Users\OS\AppData\Local\Temp\mxAI_workspace334934178924004579020146612021600   
2025-04-06 18:07:53,081 [INFO] CmdLine:74 -  output dir         :   C:\Users\OS\.stm32cubemx\network_output                                          
2025-04-06 18:07:53,081 [INFO] CmdLine:74 -  model_fmt          :   float                                                                            
2025-04-06 18:07:53,082 [INFO] CmdLine:74 -  model_name         :   transfer_learning_ptbdb_full                                                     
2025-04-06 18:07:53,082 [INFO] CmdLine:74 -  model_hash         :   0xc10c3545c4f064811f7f88ffae13cb41                                               
2025-04-06 18:07:53,082 [INFO] CmdLine:74 -  params #           :   254,641 items (994.69 KiB)                                                       
2025-04-06 18:07:53,082 [INFO] CmdLine:74 -  --------------------------------------------------------------------------------------------------------
2025-04-06 18:07:53,083 [INFO] CmdLine:74 -  input 1/1          :   'input_3', f32(1x187x1), 748 Bytes, activations                                  
2025-04-06 18:07:53,083 [INFO] CmdLine:74 -  output 1/1         :   'dense_3_ptbdb', f32(1x1), 4 Bytes, activations                                  
2025-04-06 18:07:53,083 [INFO] CmdLine:74 -  macc               :   4,299,099                                                                        
2025-04-06 18:07:53,083 [INFO] CmdLine:74 -  weights (ro)       :   1,018,564 B (994.69 KiB) (1 segment)                                             
2025-04-06 18:07:53,084 [INFO] CmdLine:74 -  activations (rw)   :   21,504 B (21.00 KiB) (1 segment) *                                               
2025-04-06 18:07:53,085 [INFO] CmdLine:74 -  ram (total)        :   21,504 B (21.00 KiB) = 21,504 + 0 + 0                                            
2025-04-06 18:07:53,085 [INFO] CmdLine:74 -  --------------------------------------------------------------------------------------------------------
2025-04-06 18:07:53,085 [INFO] CmdLine:74 -  (*) 'input'/'output' buffers can be used from the activations buffer
2025-04-06 18:07:53,096 [INFO] CmdLine:74 - Computing AI RT data/code size (target=stm32f7)..
2025-04-06 18:07:56,438 [INFO] CmdLine:74 -  Model name - transfer_learning_ptbdb_full
2025-04-06 18:07:56,439 [INFO] CmdLine:74 -  ------ -------------------------------------------------- ------------------ ----------------- ----------- -----------------------------
2025-04-06 18:07:56,440 [INFO] CmdLine:74 -  m_id   layer (original)                                   oshape             param/size               macc                  connected to
2025-04-06 18:07:56,440 [INFO] CmdLine:74 -  ------ -------------------------------------------------- ------------------ ----------------- ----------- -----------------------------
2025-04-06 18:07:56,440 [INFO] CmdLine:74 -  0      input_3 (InputLayer)                               [b:1,h:187,c:1]
2025-04-06 18:07:56,440 [INFO] CmdLine:74 -  ------ -------------------------------------------------- ------------------ ----------------- ----------- -----------------------------
2025-04-06 18:07:56,441 [INFO] CmdLine:74 -  1      conv1d_16_conv2d (Conv1D)                          [b:1,h:183,c:16]   96/384                 14,656                       input_3
2025-04-06 18:07:56,441 [INFO] CmdLine:74 -         conv1d_16 (Conv1D)                                 [b:1,h:183,c:16]                           2,928              conv1d_16_conv2d
2025-04-06 18:07:56,441 [INFO] CmdLine:74 -  ------ -------------------------------------------------- ------------------ ----------------- ----------- -----------------------------
2025-04-06 18:07:56,442 [INFO] CmdLine:74 -  2      conv1d_17_conv2d (Conv1D)                          [b:1,h:179,c:16]   1,296/5,184           229,136                     conv1d_16
2025-04-06 18:07:56,442 [INFO] CmdLine:74 -         conv1d_17 (Conv1D)                                 [b:1,h:179,c:16]                           2,864              conv1d_17_conv2d
2025-04-06 18:07:56,443 [INFO] CmdLine:74 -  ------ -------------------------------------------------- ------------------ ----------------- ----------- -----------------------------
2025-04-06 18:07:56,443 [INFO] CmdLine:74 -  3      max_pooling1d_6 (MaxPooling1D)                     [b:1,h:89,c:16]                            2,848                     conv1d_17
2025-04-06 18:07:56,444 [INFO] CmdLine:74 -  ------ -------------------------------------------------- ------------------ ----------------- ----------- -----------------------------
2025-04-06 18:07:56,445 [INFO] CmdLine:74 -  5      conv1d_18_conv2d (Conv1D)                          [b:1,h:87,c:32]    1,568/6,272           133,664               max_pooling1d_6
2025-04-06 18:07:56,446 [INFO] CmdLine:74 -         conv1d_18 (Conv1D)                                 [b:1,h:87,c:32]                            2,784              conv1d_18_conv2d
2025-04-06 18:07:56,447 [INFO] CmdLine:74 -  ------ -------------------------------------------------- ------------------ ----------------- ----------- -----------------------------
2025-04-06 18:07:56,447 [INFO] CmdLine:74 -  6      conv1d_19_conv2d (Conv1D)                          [b:1,h:85,c:32]    3,104/12,416          261,152                     conv1d_18
2025-04-06 18:07:56,448 [INFO] CmdLine:74 -         conv1d_19 (Conv1D)                                 [b:1,h:85,c:32]                            2,720              conv1d_19_conv2d
2025-04-06 18:07:56,448 [INFO] CmdLine:74 -  ------ -------------------------------------------------- ------------------ ----------------- ----------- -----------------------------
2025-04-06 18:07:56,449 [INFO] CmdLine:74 -  7      max_pooling1d_7 (MaxPooling1D)                     [b:1,h:42,c:32]                            2,688                     conv1d_19
2025-04-06 18:07:56,449 [INFO] CmdLine:74 -  ------ -------------------------------------------------- ------------------ ----------------- ----------- -----------------------------
2025-04-06 18:07:56,450 [INFO] CmdLine:74 -  9      conv1d_20_conv2d (Conv1D)                          [b:1,h:40,c:32]    3,104/12,416          122,912               max_pooling1d_7
2025-04-06 18:07:56,451 [INFO] CmdLine:74 -         conv1d_20 (Conv1D)                                 [b:1,h:40,c:32]                            1,280              conv1d_20_conv2d
2025-04-06 18:07:56,451 [INFO] CmdLine:74 -  ------ -------------------------------------------------- ------------------ ----------------- ----------- -----------------------------
2025-04-06 18:07:56,452 [INFO] CmdLine:74 -  10     conv1d_21_conv2d (Conv1D)                          [b:1,h:38,c:32]    3,104/12,416          116,768                     conv1d_20
2025-04-06 18:07:56,452 [INFO] CmdLine:74 -         conv1d_21 (Conv1D)                                 [b:1,h:38,c:32]                            1,216              conv1d_21_conv2d
2025-04-06 18:07:56,453 [INFO] CmdLine:74 -  ------ -------------------------------------------------- ------------------ ----------------- ----------- -----------------------------
2025-04-06 18:07:56,453 [INFO] CmdLine:74 -  11     max_pooling1d_8 (MaxPooling1D)                     [b:1,h:19,c:32]                            1,216                     conv1d_21
2025-04-06 18:07:56,454 [INFO] CmdLine:74 -  ------ -------------------------------------------------- ------------------ ----------------- ----------- -----------------------------
2025-04-06 18:07:56,454 [INFO] CmdLine:74 -  13     conv1d_22_conv2d (Conv1D)                          [b:1,h:17,c:256]   24,832/99,328         418,048               max_pooling1d_8
2025-04-06 18:07:56,454 [INFO] CmdLine:74 -         conv1d_22 (Conv1D)                                 [b:1,h:17,c:256]                           4,352              conv1d_22_conv2d
2025-04-06 18:07:56,455 [INFO] CmdLine:74 -  ------ -------------------------------------------------- ------------------ ----------------- ----------- -----------------------------
2025-04-06 18:07:56,455 [INFO] CmdLine:74 -  14     conv1d_23_conv2d (Conv1D)                          [b:1,h:15,c:256]   196,864/787,456     2,949,376                     conv1d_22
2025-04-06 18:07:56,455 [INFO] CmdLine:74 -         conv1d_23 (Conv1D)                                 [b:1,h:15,c:256]                           3,840              conv1d_23_conv2d
2025-04-06 18:07:56,455 [INFO] CmdLine:74 -  ------ -------------------------------------------------- ------------------ ----------------- ----------- -----------------------------
2025-04-06 18:07:56,456 [INFO] CmdLine:74 -  15     global_max_pooling1d_2_pool (GlobalMaxPooling1D)   [b:1,h:1,c:256]                            3,840                     conv1d_23
2025-04-06 18:07:56,459 [INFO] CmdLine:74 -         global_max_pooling1d_2 (GlobalMaxPooling1D)        [b:1,c:256]                                        global_max_pooling1d_2_pool
2025-04-06 18:07:56,461 [INFO] CmdLine:74 -  ------ -------------------------------------------------- ------------------ ----------------- ----------- -----------------------------
2025-04-06 18:07:56,462 [INFO] CmdLine:74 -  17     dense_1_dense (Dense)                              [b:1,c:64]         16,448/65,792          16,448        global_max_pooling1d_2
2025-04-06 18:07:56,462 [INFO] CmdLine:74 -         dense_1 (Dense)                                    [b:1,c:64]                                    64                 dense_1_dense
2025-04-06 18:07:56,463 [INFO] CmdLine:74 -  ------ -------------------------------------------------- ------------------ ----------------- ----------- -----------------------------
2025-04-06 18:07:56,464 [INFO] CmdLine:74 -  18     dense_2_dense (Dense)                              [b:1,c:64]         4,160/16,640            4,160                       dense_1
2025-04-06 18:07:56,464 [INFO] CmdLine:74 -         dense_2 (Dense)                                    [b:1,c:64]                                    64                 dense_2_dense
2025-04-06 18:07:56,464 [INFO] CmdLine:74 -  ------ -------------------------------------------------- ------------------ ----------------- ----------- -----------------------------
2025-04-06 18:07:56,465 [INFO] CmdLine:74 -  19     dense_3_ptbdb_dense (Dense)                        [b:1,c:1]          65/260                     65                       dense_2
2025-04-06 18:07:56,465 [INFO] CmdLine:74 -         dense_3_ptbdb (Dense)                              [b:1,c:1]                                     10           dense_3_ptbdb_dense
2025-04-06 18:07:56,466 [INFO] CmdLine:74 -  ------ -------------------------------------------------- ------------------ ----------------- ----------- -----------------------------
2025-04-06 18:07:56,467 [INFO] CmdLine:74 -  model: macc=4,299,099 weights=1,018,564 activations=-- io=--
2025-04-06 18:07:56,467 [INFO] CmdLine:74 -  Number of operations per c-layer
2025-04-06 18:07:56,468 [INFO] CmdLine:74 -  ------- ------ ------------------------------------ ----------- --------------
2025-04-06 18:07:56,468 [INFO] CmdLine:74 -  c_id    m_id   name (type)                                  #op           type
2025-04-06 18:07:56,468 [INFO] CmdLine:74 -  ------- ------ ------------------------------------ ----------- --------------
2025-04-06 18:07:56,469 [INFO] CmdLine:74 -  0       1      conv1d_16_conv2d (Conv2D)                 14,656   smul_f32_f32
2025-04-06 18:07:56,469 [INFO] CmdLine:74 -  1       1      conv1d_16 (Nonlinearity)                   2,928     op_f32_f32
2025-04-06 18:07:56,469 [INFO] CmdLine:74 -  2       3      conv1d_17_conv2d (Conv2D)                234,848   smul_f32_f32
2025-04-06 18:07:56,470 [INFO] CmdLine:74 -  3       5      conv1d_18_conv2d (Conv2D)                133,664   smul_f32_f32
2025-04-06 18:07:56,470 [INFO] CmdLine:74 -  4       5      conv1d_18 (Nonlinearity)                   2,784     op_f32_f32
2025-04-06 18:07:56,470 [INFO] CmdLine:74 -  5       7      conv1d_19_conv2d (Conv2D)                266,560   smul_f32_f32
2025-04-06 18:07:56,470 [INFO] CmdLine:74 -  6       9      conv1d_20_conv2d (Conv2D)                122,912   smul_f32_f32
2025-04-06 18:07:56,471 [INFO] CmdLine:74 -  7       9      conv1d_20 (Nonlinearity)                   1,280     op_f32_f32
2025-04-06 18:07:56,471 [INFO] CmdLine:74 -  8       11     conv1d_21_conv2d (Conv2D)                119,200   smul_f32_f32
2025-04-06 18:07:56,472 [INFO] CmdLine:74 -  9       13     conv1d_22_conv2d (Conv2D)                418,048   smul_f32_f32
2025-04-06 18:07:56,472 [INFO] CmdLine:74 -  10      13     conv1d_22 (Nonlinearity)                   4,352     op_f32_f32
2025-04-06 18:07:56,472 [INFO] CmdLine:74 -  11      14     conv1d_23_conv2d (Conv2D)              2,949,376   smul_f32_f32
2025-04-06 18:07:56,473 [INFO] CmdLine:74 -  12      14     conv1d_23 (Nonlinearity)                   3,840     op_f32_f32
2025-04-06 18:07:56,473 [INFO] CmdLine:74 -  13      15     global_max_pooling1d_2_pool (Pool)         3,840   smul_f32_f32
2025-04-06 18:07:56,473 [INFO] CmdLine:74 -  14      17     dense_1_dense (Dense)                     16,448   smul_f32_f32
2025-04-06 18:07:56,474 [INFO] CmdLine:74 -  15      17     dense_1 (Nonlinearity)                        64     op_f32_f32
2025-04-06 18:07:56,474 [INFO] CmdLine:74 -  16      18     dense_2_dense (Dense)                      4,160   smul_f32_f32
2025-04-06 18:07:56,475 [INFO] CmdLine:74 -  17      18     dense_2 (Nonlinearity)                        64     op_f32_f32
2025-04-06 18:07:56,476 [INFO] CmdLine:74 -  18      19     dense_3_ptbdb_dense (Dense)                   65   smul_f32_f32
2025-04-06 18:07:56,477 [INFO] CmdLine:74 -  19      19     dense_3_ptbdb (Nonlinearity)                  10     op_f32_f32
2025-04-06 18:07:56,478 [INFO] CmdLine:74 -  ------- ------ ------------------------------------ ----------- --------------
2025-04-06 18:07:56,479 [INFO] CmdLine:74 -  total                                                 4,299,099
2025-04-06 18:07:56,479 [INFO] CmdLine:74 -  Number of operation types
2025-04-06 18:07:56,479 [INFO] CmdLine:74 -  ---------------- ----------- -----------
2025-04-06 18:07:56,480 [INFO] CmdLine:74 -  operation type             #           %
2025-04-06 18:07:56,480 [INFO] CmdLine:74 -  ---------------- ----------- -----------
2025-04-06 18:07:56,480 [INFO] CmdLine:74 -  smul_f32_f32       4,283,777       99.6%
2025-04-06 18:07:56,480 [INFO] CmdLine:74 -  op_f32_f32            15,322        0.4%
2025-04-06 18:07:56,480 [INFO] CmdLine:74 -  Complexity report (model)
2025-04-06 18:07:56,481 [INFO] CmdLine:74 -  ------ ----------------------------- ------------------------- ------------------------- ----------
2025-04-06 18:07:56,481 [INFO] CmdLine:74 -  m_id   name                          c_macc                    c_rom                     c_id
…
2025-04-06 18:14:51,348 [INFO] CmdLine:74 -         reshape_0 (EXPAND_DIMS)           [b:1,h:1,w:187,c:1]                                    serving_default_input_30
2025-04-06 18:14:51,348 [INFO] CmdLine:74 -  ------ --------------------------------- ---------------------- ----------------- ----------- --------------------------
2025-04-06 18:14:51,349 [INFO] CmdLine:74 -  1      conv2d_1 (CONV_2D)                [b:1,h:1,w:183,c:16]   96/384                 14,656                  reshape_0
2025-04-06 18:14:51,349 [INFO] CmdLine:74 -         nl_1_nl (CONV_2D)                 [b:1,h:1,w:183,c:16]                           2,928                   conv2d_1
2025-04-06 18:14:51,353 [INFO] CmdLine:74 -  ------ --------------------------------- ---------------------- ----------------- ----------- --------------------------
2025-04-06 18:14:51,353 [INFO] CmdLine:74 -  2      reshape_2 (RESHAPE)               [b:1,h:183,c:16]                                                        nl_1_nl
2025-04-06 18:14:51,353 [INFO] CmdLine:74 -  ------ --------------------------------- ---------------------- ----------------- ----------- --------------------------
2025-04-06 18:14:51,354 [INFO] CmdLine:74 -  3      reshape_3 (EXPAND_DIMS)           [b:1,h:1,w:183,c:16]                                                  reshape_2
2025-04-06 18:14:51,354 [INFO] CmdLine:74 -  ------ --------------------------------- ---------------------- ----------------- ----------- --------------------------
2025-04-06 18:14:51,354 [INFO] CmdLine:74 -  4      conv2d_4 (CONV_2D)                [b:1,h:1,w:179,c:16]   1,296/5,184           229,136                  reshape_3
2025-04-06 18:14:51,354 [INFO] CmdLine:74 -         nl_4_nl (CONV_2D)                 [b:1,h:1,w:179,c:16]                           2,864                   conv2d_4
2025-04-06 18:14:51,355 [INFO] CmdLine:74 -  ------ --------------------------------- ---------------------- ----------------- ----------- --------------------------
2025-04-06 18:14:51,355 [INFO] CmdLine:74 -  5      reshape_5 (RESHAPE)               [b:1,h:179,c:16]                                                        nl_4_nl
2025-04-06 18:14:51,355 [INFO] CmdLine:74 -  ------ --------------------------------- ---------------------- ----------------- ----------- --------------------------
2025-04-06 18:14:51,355 [INFO] CmdLine:74 -  6      reshape_6 (EXPAND_DIMS)           [b:1,h:1,w:179,c:16]                                                  reshape_5
2025-04-06 18:14:51,356 [INFO] CmdLine:74 -  ------ --------------------------------- ---------------------- ----------------- ----------- --------------------------
2025-04-06 18:14:51,356 [INFO] CmdLine:74 -  7      pool_7 (MAX_POOL_2D)              [b:1,h:1,w:89,c:16]                            2,848                  reshape_6
2025-04-06 18:14:51,359 [INFO] CmdLine:74 -  ------ --------------------------------- ---------------------- ----------------- ----------- --------------------------
2025-04-06 18:14:51,360 [INFO] CmdLine:74 -  8      reshape_8 (RESHAPE)               [b:1,h:89,c:16]                                                          pool_7
2025-04-06 18:14:51,360 [INFO] CmdLine:74 -  ------ --------------------------------- ---------------------- ----------------- ----------- --------------------------
2025-04-06 18:14:51,361 [INFO] CmdLine:74 -  9      reshape_9 (EXPAND_DIMS)           [b:1,h:1,w:89,c:16]                                                   reshape_8
2025-04-06 18:14:51,361 [INFO] CmdLine:74 -  ------ --------------------------------- ---------------------- ----------------- ----------- --------------------------
2025-04-06 18:14:51,362 [INFO] CmdLine:74 -  10     conv2d_10 (CONV_2D)               [b:1,h:1,w:87,c:32]    1,568/6,272           133,664                  reshape_9
2025-04-06 18:14:51,362 [INFO] CmdLine:74 -         nl_10_nl (CONV_2D)                [b:1,h:1,w:87,c:32]                            2,784                  conv2d_10
2025-04-06 18:14:51,362 [INFO] CmdLine:74 -  ------ --------------------------------- ---------------------- ----------------- ----------- --------------------------
2025-04-06 18:14:51,363 [INFO] CmdLine:74 -  11     reshape_11 (RESHAPE)              [b:1,h:87,c:32]                                                        nl_10_nl
2025-04-06 18:14:51,363 [INFO] CmdLine:74 -  ------ --------------------------------- ---------------------- ----------------- ----------- --------------------------
2025-04-06 18:14:51,363 [INFO] CmdLine:74 -  12     reshape_12 (EXPAND_DIMS)          [b:1,h:1,w:87,c:32]                                                  reshape_11
2025-04-06 18:14:51,364 [INFO] CmdLine:74 -  ------ --------------------------------- ---------------------- ----------------- ----------- --------------------------
2025-04-06 18:14:51,364 [INFO] CmdLine:74 -  13     conv2d_13 (CONV_2D)               [b:1,h:1,w:85,c:32]    3,104/12,416          261,152                 reshape_12
2025-04-06 18:14:51,364 [INFO] CmdLine:74 -         nl_13_nl (CONV_2D)                [b:1,h:1,w:85,c:32]                            2,720                  conv2d_13
2025-04-06 18:14:51,365 [INFO] CmdLine:74 -  ------ --------------------------------- ---------------------- ----------------- ----------- --------------------------
2025-04-06 18:14:51,365 [INFO] CmdLine:74 -  14     reshape_14 (RESHAPE)              [b:1,h:85,c:32]                                                        nl_13_nl
2025-04-06 18:14:51,368 [INFO] CmdLine:74 -  ------ --------------------------------- ---------------------- ----------------- ----------- --------------------------
2025-04-06 18:14:51,368 [INFO] CmdLine:74 -  15     reshape_15 (EXPAND_DIMS)          [b:1,h:1,w:85,c:32]                                                  reshape_14
2025-04-06 18:14:51,368 [INFO] CmdLine:74 -  ------ --------------------------------- ---------------------- ----------------- ----------- --------------------------
2025-04-06 18:14:51,368 [INFO] CmdLine:74 -  16     pool_16 (MAX_POOL_2D)             [b:1,h:1,w:42,c:32]                            2,688                 reshape_15
2025-04-06 18:14:51,368 [INFO] CmdLine:74 -  ------ --------------------------------- ---------------------- ----------------- ----------- --------------------------
2025-04-06 18:14:51,369 [INFO] CmdLine:74 -  17     reshape_17 (RESHAPE)              [b:1,h:42,c:32]                                                         pool_16
2025-04-06 18:14:51,369 [INFO] CmdLine:74 -  ------ --------------------------------- ---------------------- ----------------- ----------- --------------------------
2025-04-06 18:14:51,369 [INFO] CmdLine:74 -  18     reshape_18 (EXPAND_DIMS)          [b:1,h:1,w:42,c:32]                                                  reshape_17
2025-04-06 18:14:51,369 [INFO] CmdLine:74 -  ------ --------------------------------- ---------------------- ----------------- ----------- --------------------------
2025-04-06 18:14:51,370 [INFO] CmdLine:74 -  19     conv2d_19 (CONV_2D)               [b:1,h:1,w:40,c:32]    3,104/12,416          122,912                 reshape_18
2025-04-06 18:14:51,370 [INFO] CmdLine:74 -         nl_19_nl (CONV_2D)                [b:1,h:1,w:40,c:32]                            1,280                  conv2d_19
2025-04-06 18:14:51,370 [INFO] CmdLine:74 -  ------ --------------------------------- ---------------------- ----------------- ----------- --------------------------
2025-04-06 18:14:51,370 [INFO] CmdLine:74 -  20     reshape_20 (RESHAPE)              [b:1,h:40,c:32]                                                        nl_19_nl
2025-04-06 18:14:51,370 [INFO] CmdLine:74 -  ------ --------------------------------- ---------------------- ----------------- ----------- --------------------------
2025-04-06 18:14:51,371 [INFO] CmdLine:74 -  21     reshape_21 (EXPAND_DIMS)          [b:1,h:1,w:40,c:32]                                                  reshape_20
2025-04-06 18:14:51,371 [INFO] CmdLine:74 -  ------ --------------------------------- ---------------------- ----------------- ----------- --------------------------
2025-04-06 18:14:51,371 [INFO] CmdLine:74 -  22     conv2d_22 (CONV_2D)               [b:1,h:1,w:38,c:32]    3,104/12,416          116,768                 reshape_21
2025-04-06 18:14:51,371 [INFO] CmdLine:74 -         nl_22_nl (CONV_2D)                [b:1,h:1,w:38,c:32]                            1,216                  conv2d_22
2025-04-06 18:14:51,372 [INFO] CmdLine:74 -  ------ --------------------------------- ---------------------- ----------------- ----------- --------------------------
2025-04-06 18:14:51,372 [INFO] CmdLine:74 -  23     reshape_23 (RESHAPE)              [b:1,h:38,c:32]                                                        nl_22_nl
2025-04-06 18:14:51,372 [INFO] CmdLine:74 -  ------ --------------------------------- ---------------------- ----------------- ----------- --------------------------
2025-04-06 18:14:51,373 [INFO] CmdLine:74 -  24     reshape_24 (EXPAND_DIMS)          [b:1,h:1,w:38,c:32]                                                  reshape_23
2025-04-06 18:14:51,373 [INFO] CmdLine:74 -  ------ --------------------------------- ---------------------- ----------------- ----------- --------------------------
2025-04-06 18:14:51,377 [INFO] CmdLine:74 -  25     pool_25 (MAX_POOL_2D)             [b:1,h:1,w:19,c:32]                            1,216                 reshape_24
2025-04-06 18:14:51,378 [INFO] CmdLine:74 -  ------ --------------------------------- ---------------------- ----------------- ----------- --------------------------
2025-04-06 18:14:51,378 [INFO] CmdLine:74 -  26     reshape_26 (RESHAPE)              [b:1,h:19,c:32]                                                         pool_25
2025-04-06 18:14:51,378 [INFO] CmdLine:74 -  ------ --------------------------------- ---------------------- ----------------- ----------- --------------------------
2025-04-06 18:14:51,378 [INFO] CmdLine:74 -  27     reshape_27 (EXPAND_DIMS)          [b:1,h:1,w:19,c:32]                                                  reshape_26
2025-04-06 18:14:51,379 [INFO] CmdLine:74 -  ------ --------------------------------- ---------------------- ----------------- ----------- --------------------------
2025-04-06 18:14:51,379 [INFO] CmdLine:74 -  28     conv2d_28 (CONV_2D)               [b:1,h:1,w:17,c:256]   24,832/99,328         418,048                 reshape_27
2025-04-06 18:14:51,379 [INFO] CmdLine:74 -         nl_28_nl (CONV_2D)                [b:1,h:1,w:17,c:256]                           4,352                  conv2d_28
2025-04-06 18:14:51,379 [INFO] CmdLine:74 -  ------ --------------------------------- ---------------------- ----------------- ----------- --------------------------
2025-04-06 18:14:51,379 [INFO] CmdLine:74 -  29     reshape_29 (RESHAPE)              [b:1,h:17,c:256]                                                       nl_28_nl
2025-04-06 18:14:51,380 [INFO] CmdLine:74 -  ------ --------------------------------- ---------------------- ----------------- ----------- --------------------------
2025-04-06 18:14:51,380 [INFO] CmdLine:74 -  30     reshape_30 (EXPAND_DIMS)          [b:1,h:1,w:17,c:256]                                                 reshape_29
2025-04-06 18:14:51,380 [INFO] CmdLine:74 -  ------ --------------------------------- ---------------------- ----------------- ----------- --------------------------
2025-04-06 18:14:51,380 [INFO] CmdLine:74 -  31     conv2d_31 (CONV_2D)               [b:1,h:1,w:15,c:256]   196,864/787,456     2,949,376                 reshape_30
2025-04-06 18:14:51,381 [INFO] CmdLine:74 -         nl_31_nl (CONV_2D)                [b:1,h:1,w:15,c:256]                           3,840                  conv2d_31
2025-04-06 18:14:51,381 [INFO] CmdLine:74 -  ------ --------------------------------- ---------------------- ----------------- ----------- --------------------------
2025-04-06 18:14:51,381 [INFO] CmdLine:74 -  32     reshape_32 (RESHAPE)              [b:1,h:15,c:256]                                                       nl_31_nl
2025-04-06 18:14:51,381 [INFO] CmdLine:74 -  ------ --------------------------------- ---------------------- ----------------- ----------- --------------------------
2025-04-06 18:14:51,381 [INFO] CmdLine:74 -  33     pool_33 (REDUCE_MAX)              [b:1,h:1,c:256]                                3,840                 reshape_32
2025-04-06 18:14:51,382 [INFO] CmdLine:74 -         reshape_33_reshape (REDUCE_MAX)   [b:1,c:256]                                                             pool_33
2025-04-06 18:14:51,382 [INFO] CmdLine:74 -  ------ --------------------------------- ---------------------- ----------------- ----------- --------------------------
2025-04-06 18:14:51,382 [INFO] CmdLine:74 -  34     arith_constant29 ()               [b:64,c:256]           16,384/65,536
2025-04-06 18:14:51,382 [INFO] CmdLine:74 -         arith_constant32 ()               [b:64]                 64/256
2025-04-06 18:14:51,382 [INFO] CmdLine:74 -         gemm_34 (FULLY_CONNECTED)         [b:1,c:64]                                    16,448         reshape_33_reshape
2025-04-06 18:14:51,383 [INFO] CmdLine:74 -                                                                                                          arith_constant29
2025-04-06 18:14:51,383 [INFO] CmdLine:74 -                                                                                                          arith_constant32
2025-04-06 18:14:51,383 [INFO] CmdLine:74 -         nl_34_nl (FULLY_CONNECTED)        [b:1,c:64]                                        64                    gemm_34
2025-04-06 18:14:51,383 [INFO] CmdLine:74 -  ------ --------------------------------- ---------------------- ----------------- ----------- --------------------------
2025-04-06 18:14:51,384 [INFO] CmdLine:74 -  35     arith_constant28 ()               [b:64,c:64]            4,096/16,384
2025-04-06 18:14:51,384 [INFO] CmdLine:74 -         arith_constant31 ()               [b:64]                 64/256
2025-04-06 18:14:51,384 [INFO] CmdLine:74 -         gemm_35 (FULLY_CONNECTED)         [b:1,c:64]                                     4,160                   nl_34_nl
2025-04-06 18:14:51,384 [INFO] CmdLine:74 -                                                                                                          arith_constant28
2025-04-06 18:14:51,384 [INFO] CmdLine:74 -                                                                                                          arith_constant31
2025-04-06 18:14:51,385 [INFO] CmdLine:74 -         nl_35_nl (FULLY_CONNECTED)        [b:1,c:64]                                        64                    gemm_35
2025-04-06 18:14:51,385 [INFO] CmdLine:74 -  ------ --------------------------------- ---------------------- ----------------- ----------- --------------------------
2025-04-06 18:14:51,398 [INFO] CmdLine:74 -  36     arith_constant27 ()               [b:1,c:64]             64/256
2025-04-06 18:14:51,399 [INFO] CmdLine:74 -         arith_constant30 ()               [b:1]                  1/4
2025-04-06 18:14:51,399 [INFO] CmdLine:74 -         gemm_36 (FULLY_CONNECTED)         [b:1,c:1]                                         65                   nl_35_nl
2025-04-06 18:14:51,400 [INFO] CmdLine:74 -                                                                                                          arith_constant27
2025-04-06 18:14:51,400 [INFO] CmdLine:74 -                                                                                                          arith_constant30
2025-04-06 18:14:51,409 [INFO] CmdLine:74 -  ------ --------------------------------- ---------------------- ----------------- ----------- --------------------------
2025-04-06 18:14:51,409 [INFO] CmdLine:74 -  37     nl_37 (LOGISTIC)                  [b:1,c:1]                                         10                    gemm_36
2025-04-06 18:14:51,412 [INFO] CmdLine:74 -  ------ --------------------------------- ---------------------- ----------------- ----------- --------------------------
2025-04-06 18:14:51,412 [INFO] CmdLine:74 -  model: macc=4,299,099 weights=1,018,564 activations=-- io=--
2025-04-06 18:14:51,413 [INFO] CmdLine:74 -  Number of operations per c-layer
2025-04-06 18:14:51,413 [INFO] CmdLine:74 -  ------- ------ ------------------------- ----------- --------------
2025-04-06 18:14:51,413 [INFO] CmdLine:74 -  c_id    m_id   name (type)                       #op           type
2025-04-06 18:14:51,413 [INFO] CmdLine:74 -  ------- ------ ------------------------- ----------- --------------
2025-04-06 18:14:51,414 [INFO] CmdLine:74 -  0       1      conv2d_1 (Conv2D)              14,656   smul_f32_f32
2025-04-06 18:14:51,414 [INFO] CmdLine:74 -  1       1      nl_1_nl (Nonlinearity)          2,928     op_f32_f32
2025-04-06 18:14:51,414 [INFO] CmdLine:74 -  2       4      conv2d_4 (Conv2D)             229,136   smul_f32_f32
2025-04-06 18:14:51,415 [INFO] CmdLine:74 -  3       4      nl_4_nl (Nonlinearity)          2,864     op_f32_f32
2025-04-06 18:14:51,415 [INFO] CmdLine:74 -  4       7      pool_7 (Pool)                   2,848   smul_f32_f32
2025-04-06 18:14:51,415 [INFO] CmdLine:74 -  5       10     conv2d_10 (Conv2D)            133,664   smul_f32_f32
2025-04-06 18:14:51,416 [INFO] CmdLine:74 -  6       10     nl_10_nl (Nonlinearity)         2,784     op_f32_f32
2025-04-06 18:14:51,416 [INFO] CmdLine:74 -  7       13     conv2d_13 (Conv2D)            261,152   smul_f32_f32
2025-04-06 18:14:51,416 [INFO] CmdLine:74 -  8       13     nl_13_nl (Nonlinearity)         2,720     op_f32_f32
2025-04-06 18:14:51,416 [INFO] CmdLine:74 -  9       16     pool_16 (Pool)                  2,688   smul_f32_f32
2025-04-06 18:14:51,417 [INFO] CmdLine:74 -  10      19     conv2d_19 (Conv2D)            122,912   smul_f32_f32
2025-04-06 18:14:51,417 [INFO] CmdLine:74 -  11      19     nl_19_nl (Nonlinearity)         1,280     op_f32_f32
2025-04-06 18:14:51,417 [INFO] CmdLine:74 -  12      22     conv2d_22 (Conv2D)            116,768   smul_f32_f32
2025-04-06 18:14:51,417 [INFO] CmdLine:74 -  13      22     nl_22_nl (Nonlinearity)         1,216     op_f32_f32
2025-04-06 18:14:51,418 [INFO] CmdLine:74 -  14      25     pool_25 (Pool)                  1,216   smul_f32_f32
2025-04-06 18:14:51,418 [INFO] CmdLine:74 -  15      28     conv2d_28 (Conv2D)            418,048   smul_f32_f32
2025-04-06 18:14:51,418 [INFO] CmdLine:74 -  16      28     nl_28_nl (Nonlinearity)         4,352     op_f32_f32
2025-04-06 18:14:51,419 [INFO] CmdLine:74 -  17      31     conv2d_31 (Conv2D)          2,949,376   smul_f32_f32
2025-04-06 18:14:51,419 [INFO] CmdLine:74 -  18      31     nl_31_nl (Nonlinearity)         3,840     op_f32_f32
2025-04-06 18:14:51,419 [INFO] CmdLine:74 -  19      33     pool_33 (Pool)                  3,840   smul_f32_f32
2025-04-06 18:14:51,420 [INFO] CmdLine:74 -  20      34     gemm_34 (Dense)                16,448   smul_f32_f32
2025-04-06 18:14:51,420 [INFO] CmdLine:74 -  21      34     nl_34_nl (Nonlinearity)            64     op_f32_f32
2025-04-06 18:14:51,420 [INFO] CmdLine:74 -  22      35     gemm_35 (Dense)                 4,160   smul_f32_f32
2025-04-06 18:14:51,421 [INFO] CmdLine:74 -  23      35     nl_35_nl (Nonlinearity)            64     op_f32_f32
2025-04-06 18:14:51,421 [INFO] CmdLine:74 -  24      36     gemm_36 (Dense)                    65   smul_f32_f32
2025-04-06 18:14:51,421 [INFO] CmdLine:74 -  25      37     nl_37 (Nonlinearity)               10     op_f32_f32
2025-04-06 18:14:51,421 [INFO] CmdLine:74 -  ------- ------ ------------------------- ----------- --------------
2025-04-06 18:14:51,422 [INFO] CmdLine:74 -  total                                      4,299,099
2025-04-06 18:14:51,422 [INFO] CmdLine:74 -  Number of operation types
2025-04-06 18:14:51,422 [INFO] CmdLine:74 -  ---------------- ----------- -----------
2025-04-06 18:14:51,422 [INFO] CmdLine:74 -  operation type             #           %
2025-04-06 18:14:51,423 [INFO] CmdLine:74 -  ---------------- ----------- -----------
2025-04-06 18:14:51,423 [INFO] CmdLine:74 -  smul_f32_f32       4,276,977       99.5%
2025-04-06 18:14:51,423 [INFO] CmdLine:74 -  op_f32_f32            22,122        0.5%
2025-04-06 18:14:51,423 [INFO] CmdLine:74 -  Complexity report (model)
2025-04-06 18:14:51,423 [INFO] CmdLine:74 -  ------ ------------------ ------------------------- ------------------------- ----------
2025-04-06 18:14:51,423 [INFO] CmdLine:74 -  m_id   name               c_macc                    c_rom                     c_id
2025-04-06 18:14:51,424 [INFO] CmdLine:74 -  ------ ------------------ ------------------------- ------------------------- ----------
2025-04-06 18:14:51,424 [INFO] CmdLine:74 -  1      conv2d_1           |                  0.4%   |                  0.0%   [0, 1]
2025-04-06 18:14:51,424 [INFO] CmdLine:74 -  4      conv2d_4           ||                 5.4%   |                  0.5%   [2, 3]
2025-04-06 18:14:51,425 [INFO] CmdLine:74 -  7      pool_7             |                  0.1%   |                  0.0%   [4]
2025-04-06 18:14:51,425 [INFO] CmdLine:74 -  10     conv2d_10          |                  3.2%   |                  0.6%   [5, 6]
2025-04-06 18:14:51,425 [INFO] CmdLine:74 -  13     conv2d_13          ||                 6.1%   |                  1.2%   [7, 8]
2025-04-06 18:14:51,425 [INFO] CmdLine:74 -  16     pool_16            |                  0.1%   |                  0.0%   [9]
2025-04-06 18:14:51,426 [INFO] CmdLine:74 -  19     conv2d_19          |                  2.9%   |                  1.2%   [10, 11]
2025-04-06 18:14:51,427 [INFO] CmdLine:74 -  22     conv2d_22          |                  2.7%   |                  1.2%   [12, 13]
2025-04-06 18:14:51,427 [INFO] CmdLine:74 -  25     pool_25            |                  0.0%   |                  0.0%   [14]
2025-04-06 18:14:51,428 [INFO] CmdLine:74 -  28     conv2d_28          |||                9.8%   ||                 9.8%   [15, 16]
2025-04-06 18:14:51,428 [INFO] CmdLine:74 -  31     conv2d_31          ||||||||||||||||  68.7%   ||||||||||||||||  77.3%   [17, 18]
2025-04-06 18:14:51,429 [INFO] CmdLine:74 -  33     pool_33            |                  0.1%   |                  0.0%   [19]
2025-04-06 18:14:51,429 [INFO] CmdLine:74 -  34     arith_constant29   |                  0.4%   ||                 6.5%   [20, 21]
2025-04-06 18:14:51,429 [INFO] CmdLine:74 -  35     arith_constant28   |                  0.1%   |                  1.6%   [22, 23]
2025-04-06 18:14:51,429 [INFO] CmdLine:74 -  36     arith_constant27   |                  0.0%   |                  0.0%   [24]
2025-04-06 18:14:51,430 [INFO] CmdLine:74 -  37     nl_37              |                  0.0%   |                  0.0%   [25]
2025-04-06 18:14:51,430 [INFO] CmdLine:74 -  ------ ------------------ ------------------------- ------------------------- ----------
2025-04-06 18:14:51,431 [INFO] CmdLine:74 -  macc=4,299,099 weights=1,018,564 act=35,840 ram_io=0
2025-04-06 18:14:51,431 [INFO] CmdLine:74 -  Requested memory size by section - "stm32f7" target
2025-04-06 18:14:51,431 [INFO] CmdLine:74 -  ------------------------------ -------- ----------- ------- --------
2025-04-06 18:14:51,431 [INFO] CmdLine:74 -  module                             text      rodata    data      bss
2025-04-06 18:14:51,432 [INFO] CmdLine:74 -  ------------------------------ -------- ----------- ------- --------
2025-04-06 18:14:51,432 [INFO] CmdLine:74 -  NetworkRuntime1000_CM7_GCC.a      9,932           0       0        0
2025-04-06 18:14:51,432 [INFO] CmdLine:74 -  network.o                         1,280         208   7,516      436
2025-04-06 18:14:51,433 [INFO] CmdLine:74 -  network_data.o                       48          16      88        0
2025-04-06 18:14:51,433 [INFO] CmdLine:74 -  lib (toolchain)*                    614          24       0        0
2025-04-06 18:14:51,433 [INFO] CmdLine:74 -  ------------------------------ -------- ----------- ------- --------
2025-04-06 18:14:51,434 [INFO] CmdLine:74 -  RT total**                       11,874         248   7,604      436
2025-04-06 18:14:51,434 [INFO] CmdLine:74 -  ------------------------------ -------- ----------- ------- --------
2025-04-06 18:14:51,434 [INFO] CmdLine:74 -  weights                               0   1,018,568       0        0
2025-04-06 18:14:51,435 [INFO] CmdLine:74 -  activations                           0           0       0   35,840
2025-04-06 18:14:51,435 [INFO] CmdLine:74 -  io                                    0           0       0        0
2025-04-06 18:14:51,435 [INFO] CmdLine:74 -  ------------------------------ -------- ----------- ------- --------
2025-04-06 18:14:51,436 [INFO] CmdLine:74 -  TOTAL                            11,874   1,018,816   7,604   36,276
2025-04-06 18:14:51,436 [INFO] CmdLine:74 -  ------------------------------ -------- ----------- ------- --------
2025-04-06 18:14:51,436 [INFO] CmdLine:74 -  *  toolchain objects (libm/libgcc*)
2025-04-06 18:14:51,437 [INFO] CmdLine:74 -  ** RT AI runtime objects (kernels+infrastructure)
2025-04-06 18:14:51,437 [INFO] CmdLine:74 -   Summary - "stm32f7" target
2025-04-06 18:14:51,437 [INFO] CmdLine:74 -   --------------------------------------------------
2025-04-06 18:14:51,437 [INFO] CmdLine:74 -                FLASH (ro)     %*   RAM (rw)       %
2025-04-06 18:14:51,438 [INFO] CmdLine:74 -   --------------------------------------------------
2025-04-06 18:14:51,438 [INFO] CmdLine:74 -   RT total         19,726   1.9%      8,040   18.3%
2025-04-06 18:14:51,438 [INFO] CmdLine:74 -   --------------------------------------------------
2025-04-06 18:14:51,438 [INFO] CmdLine:74 -   TOTAL         1,038,294            43,880
2025-04-06 18:14:51,439 [INFO] CmdLine:74 -   --------------------------------------------------
2025-04-06 18:14:51,439 [INFO] CmdLine:74 -   *  rt/total
2025-04-06 18:14:51,439 [INFO] CmdLine:74 - Creating txt report file C:\Users\OS\.stm32cubemx\network_output\network_analyze_report.txt
2025-04-06 18:14:58,209 [INFO] CmdLine:74 - elapsed time (analyze): 28.341s
2025-04-06 18:14:58,883 [INFO] CmdLine:142 - stedgeai exit with status: 0
2025-04-06 18:14:58,899 [INFO] AIModelDetailledView:1176 - Model file:      train_mitbih_cnn.tflite
2025-04-06 18:14:58,899 [INFO] AIModelDetailledView:1176 - Total Flash:     1038290 B (1013.96 KiB)
2025-04-06 18:14:58,900 [INFO] AIModelDetailledView:1176 -     Weights:     1018564 B (994.69 KiB)
2025-04-06 18:14:58,900 [INFO] AIModelDetailledView:1176 -     Library:     19726 B (19.26 KiB)
2025-04-06 18:14:58,901 [INFO] AIModelDetailledView:1176 - Total Ram:       43880 B (42.85 KiB)
2025-04-06 18:14:58,901 [INFO] AIModelDetailledView:1176 -     Activations: 35840 B (35.00 KiB)
2025-04-06 18:14:58,902 [INFO] AIModelDetailledView:1176 -     Library:     8040 B (7.85 KiB)
2025-04-06 18:14:58,902 [INFO] AIModelDetailledView:1176 -     Input:       748 B (included in Activations)
2025-04-06 18:14:58,902 [INFO] AIModelDetailledView:1176 -     Output:      4 B (included in Activations)
2025-04-06 18:14:58,902 [INFO] AIModelDetailledView:1176 - Done
2025-04-06 18:14:58,902 [INFO] AIModelDetailledView:2707 - Analyze complete on AI model
2025-04-06 18:14:58,926 [INFO] Middleware:617 - instanceName : STMicroelectronics.X-CUBE-AI.10.0.0 bspName : COM Port check condition success for : !SEMDeviceJjApplicationJjApplicationTemplate
2025-04-06 18:14:58,926 [INFO] Middleware:617 - instanceName : STMicroelectronics.X-CUBE-AI.10.0.0 bspName : COM Port check condition success for : !SEMDeviceJjApplicationJjApplicationTemplate
2025-04-06 18:14:58,926 [INFO] Middleware:617 - instanceName : STMicroelectronics.X-CUBE-AI.10.0.0 bspName : COM Port check condition success for : !SEMDeviceJjApplicationJjApplicationTemplate
2025-04-06 18:14:58,926 [INFO] Middleware:617 - instanceName : STMicroelectronics.X-CUBE-AI.10.0.0 bspName : COM Port check condition success for : !SEMDeviceJjApplicationJjApplicationTemplate
2025-04-06 18:14:58,927 [INFO] Middleware:617 - instanceName : STMicroelectronics.X-CUBE-AI.10.0.0 bspName : COM Port check condition success for : !SEMDeviceJjApplicationJjApplicationTemplate
2025-04-06 18:14:58,927 [INFO] Middleware:617 - instanceName : STMicroelectronics.X-CUBE-AI.10.0.0 bspName : COM Port check condition success for : !SEMDeviceJjApplicationJjApplicationTemplate
2025-04-06 18:14:58,964 [INFO] Middleware:617 - instanceName : STMicroelectronics.X-CUBE-AI.10.0.0 bspName : COM Port check condition success for : !SEMDeviceJjApplicationJjApplicationTemplate
2025-04-06 18:14:58,965 [INFO] Middleware:617 - instanceName : STMicroelectronics.X-CUBE-AI.10.0.0 bspName : COM Port check condition success for : !SEMDeviceJjApplicationJjApplicationTemplate
2025-04-06 18:14:58,965 [INFO] Middleware:617 - instanceName : STMicroelectronics.X-CUBE-AI.10.0.0 bspName : COM Port check condition success for : !SEMDeviceJjApplicationJjApplicationTemplate
2025-04-06 18:14:58,965 [INFO] Middleware:617 - instanceName : STMicroelectronics.X-CUBE-AI.10.0.0 bspName : COM Port check condition success for : !SEMDeviceJjApplicationJjApplicationTemplate
2025-04-06 18:14:58,965 [INFO] Middleware:617 - instanceName : STMicroelectronics.X-CUBE-AI.10.0.0 bspName : COM Port check condition success for : !SEMDeviceJjApplicationJjApplicationTemplate
2025-04-06 18:14:58,965 [INFO] Middleware:617 - instanceName : STMicroelectronics.X-CUBE-AI.10.0.0 bspName : COM Port check condition success for : !SEMDeviceJjApplicationJjApplicationTemplate
2025-04-06 18:14:58,968 [INFO] AIModelDetailledView:2372 - Analysis status: done
2025-04-06 19:14:11,263 [INFO] WebApp:189 - Connection lost
2025-04-06 19:14:12,063 [INFO] WebApp:186 - Connection restablished
2025-04-06 19:14:13,136 [INFO] WebApp:189 - Connection lost
2025-04-06 19:14:13,277 [INFO] WebApp:186 - Connection restablished
2025-04-06 19:14:16,352 [INFO] WebApp:189 - Connection lost
2025-04-06 19:14:16,501 [INFO] WebApp:186 - Connection restablished
2025-04-06 19:15:58,164 [INFO] WebApp:189 - Connection lost
2025-04-06 19:15:58,331 [INFO] WebApp:186 - Connection restablished
2025-04-06 19:20:55,413 [INFO] UtilMem:75 - End SaveConfig() Used Memory: 884776120 Bytes (1073741824)
2025-04-06 19:20:55,575 [INFO] Middleware:617 - instanceName : STMicroelectronics.X-CUBE-AI.10.0.0 bspName : COM Port check condition success for : !SEMDeviceJjApplicationJjApplicationTemplate
2025-04-06 19:20:55,575 [INFO] Middleware:617 - instanceName : STMicroelectronics.X-CUBE-AI.10.0.0 bspName : COM Port check condition success for : !SEMDeviceJjApplicationJjApplicationTemplate
2025-04-06 19:20:55,575 [INFO] Middleware:617 - instanceName : STMicroelectronics.X-CUBE-AI.10.0.0 bspName : COM Port check condition success for : !SEMDeviceJjApplicationJjApplicationTemplate
2025-04-06 19:20:55,575 [INFO] Middleware:617 - instanceName : STMicroelectronics.X-CUBE-AI.10.0.0 bspName : COM Port check condition success for : !SEMDeviceJjApplicationJjApplicationTemplate
2025-04-06 19:20:55,575 [INFO] Middleware:617 - instanceName : STMicroelectronics.X-CUBE-AI.10.0.0 bspName : COM Port check condition success for : !SEMDeviceJjApplicationJjApplicationTemplate
2025-04-06 19:20:55,575 [INFO] Middleware:617 - instanceName : STMicroelectronics.X-CUBE-AI.10.0.0 bspName : COM Port check condition success for : !SEMDeviceJjApplicationJjApplicationTemplate
2025-04-06 19:20:57,375 [INFO] UtilMem:75 - End SaveConfig() Used Memory: 935107768 Bytes (1073741824)
2025-04-06 19:20:57,696 [INFO] UtilMem:75 - End SaveConfig() Used Memory: 856267400 Bytes (1073741824)
2025-04-06 19:20:58,016 [INFO] BlockDiagram:2766 - set Specific Code input for plugin: SYS
2025-04-06 19:20:58,016 [INFO] BlockDiagram:2766 - set Specific Code input for plugin: RCC
2025-04-06 19:20:58,016 [INFO] BlockDiagram:2766 - set Specific Code input for plugin: NVIC
2025-04-06 19:20:58,016 [INFO] BlockDiagram:2766 - set Specific Code input for plugin: CORTEX_M7
2025-04-06 19:20:58,016 [INFO] BlockDiagram:2766 - set Specific Code input for plugin: STMicroelectronics.X-CUBE-AI.10.0.0
2025-04-06 19:20:58,018 [INFO] BlockDiagram:2766 - set Specific Code input for plugin: GPIO
2025-04-06 19:20:58,025 [INFO] CodeGenerator:807 - code generatio: config db path: C:\ST\STM32CubeIDE_1.16.0\STM32CubeIDE\plugins\com.st.stm32cube.common.mx_6.12.0.202406281431\\db\
2025-04-06 19:20:58,146 [INFO] IP:3348 - RTE Config file name : RTE_Component
2025-04-06 19:20:58,146 [INFO] IP:3366 - RTE template : RTE_Components.ftl
2025-04-06 19:20:58,160 [INFO] CodeEngine:255 - oldGeneratedFile, D:\project-EdgeAI\Embedded\CubeAI\MXTmpFiles\license.tmp_save
2025-04-06 19:20:58,383 [INFO] CodeEngine:279 - Generated code: D:\project-EdgeAI\Embedded\CubeAI\MXTmpFiles\license.tmp
2025-04-06 19:20:58,398 [INFO] CodeEngine:255 - oldGeneratedFile, D:\project-EdgeAI\Embedded\CubeAI\MXTmpFiles\gpio.tmp_save
2025-04-06 19:20:58,522 [INFO] CodeEngine:279 - Generated code: D:\project-EdgeAI\Embedded\CubeAI\MXTmpFiles\gpio.tmp
2025-04-06 19:20:58,548 [INFO] Middleware:1439 - No code input for Bsp Dependency
2025-04-06 19:20:58,556 [INFO] CodeEngine:255 - oldGeneratedFile, D:\project-EdgeAI\Embedded\CubeAI\MXTmpFiles\cortex.tmp_save
2025-04-06 19:20:58,735 [INFO] CodeEngine:279 - Generated code: D:\project-EdgeAI\Embedded\CubeAI\MXTmpFiles\cortex.tmp
2025-04-06 19:20:58,737 [INFO] Middleware:1439 - No code input for Bsp Dependency
2025-04-06 19:20:58,770 [INFO] CodeEngine:255 - oldGeneratedFile, D:\project-EdgeAI\Embedded\CubeAI\Core\Src\stm32f7xx_it.c_save
2025-04-06 19:20:59,058 [INFO] CodeEngine:279 - Generated code: D:\project-EdgeAI\Embedded\CubeAI\Core\Src\stm32f7xx_it.c
2025-04-06 19:20:59,066 [INFO] CodeEngine:255 - oldGeneratedFile, D:\project-EdgeAI\Embedded\CubeAI\Core\Inc\stm32f7xx_it.h_save
2025-04-06 19:20:59,176 [INFO] CodeEngine:279 - Generated code: D:\project-EdgeAI\Embedded\CubeAI\Core\Inc\stm32f7xx_it.h
2025-04-06 19:20:59,213 [INFO] CodeEngine:255 - oldGeneratedFile, D:\project-EdgeAI\Embedded\CubeAI\Core\Src\stm32f7xx_hal_msp.c_save
2025-04-06 19:20:59,336 [INFO] CodeEngine:279 - Generated code: D:\project-EdgeAI\Embedded\CubeAI\Core\Src\stm32f7xx_hal_msp.c
2025-04-06 19:20:59,342 [INFO] CodeEngine:255 - oldGeneratedFile, D:\project-EdgeAI\Embedded\CubeAI\MXTmpFiles\system.tmp_save
2025-04-06 19:20:59,445 [INFO] CodeEngine:279 - Generated code: D:\project-EdgeAI\Embedded\CubeAI\MXTmpFiles\system.tmp
2025-04-06 19:20:59,478 [INFO] CodeEngine:311 - oldGeneratedFile, D:\project-EdgeAI\Embedded\CubeAI\Core\Inc\stm32f7xx_hal_conf.h_save
2025-04-06 19:20:59,602 [INFO] CodeEngine:335 - Generated code: D:\project-EdgeAI\Embedded\CubeAI\Core\Inc\stm32f7xx_hal_conf.h
2025-04-06 19:20:59,660 [INFO] CodeEngine:255 - oldGeneratedFile, D:\project-EdgeAI\Embedded\CubeAI\Core\Inc\main.h_save
2025-04-06 19:20:59,770 [INFO] CodeEngine:279 - Generated code: D:\project-EdgeAI\Embedded\CubeAI\Core\Inc\main.h
2025-04-06 19:20:59,787 [INFO] CodeEngine:255 - oldGeneratedFile, D:\project-EdgeAI\Embedded\CubeAI\Core\Src\main.c_save
2025-04-06 19:20:59,880 [INFO] CodeEngine:279 - Generated code: D:\project-EdgeAI\Embedded\CubeAI\Core\Src\main.c
2025-04-06 19:21:00,104 [INFO] AInterface:317 - ModelName:network; files:[C:\Users\OS\Downloads\train_mitbih_cnn.tflite]; type:TFLite; compression:None
2025-04-06 19:21:00,106 [INFO] AInterface:519 - workspaceTempDir: C:/Users/OS/AppData/Local/Temp/mxAI_workspace3794309511720014311594426677821562
2025-04-06 19:21:00,107 [INFO] AInterface:1132 - Setting Env: C:/Users/OS/STM32Cube/Repository/Packs/STMicroelectronics/X-CUBE-AI/10.0.0/Utilities/windows
2025-04-06 19:21:00,115 [INFO] STM32CubeIDEBuilder:265 - Looking for gnu-tools-for-stm32 tools/bin/arm-none-eabi-gcc.exe in C:\ST\STM32CubeIDE_1.16.0\STM32CubeIDE
2025-04-06 19:21:00,144 [INFO] STM32CubeIDEBuilder:294 - checking C:\ST\STM32CubeIDE_1.16.0\STM32CubeIDE\plugins\com.st.stm32cube.ide.mcu.externaltools.gnu-tools-for-stm32.13.3.rel1.win32_1.0.0.202411081344\tools\bin\arm-none-eabi-gcc.exe
2025-04-06 19:21:00,145 [INFO] STM32CubeIDEBuilder:297 - ret=C:\ST\STM32CubeIDE_1.16.0\STM32CubeIDE\plugins\com.st.stm32cube.ide.mcu.externaltools.gnu-tools-for-stm32.13.3.rel1.win32_1.0.0.202411081344\tools\bin\arm-none-eabi-gcc.exe
2025-04-06 19:21:00,145 [INFO] STM32CubeIDEBuilder:311 - returning C:\ST\STM32CubeIDE_1.16.0\STM32CubeIDE\plugins\com.st.stm32cube.ide.mcu.externaltools.gnu-tools-for-stm32.13.3.rel1.win32_1.0.0.202411081344\tools\bin\arm-none-eabi-gcc.exe
2025-04-06 19:21:00,145 [INFO] AInterface:1189 - Custom PATH variable: C:/Users/OS/STM32Cube/Repository/Packs/STMicroelectronics/X-CUBE-AI/10.0.0/Utilities/windows;C:/Users/OS/STM32Cube/Repository/Packs/STMicroelectronics/X-CUBE-AI/10.0.0/Utilities/windows/mingw64/bin;C:/Users/OS/STM32Cube/Repository/Packs/STMicroelectronics/X-CUBE-AI/10.0.0/Utilities/windows/mingw64/libexec/gcc/x86_64-w64-mingw32/7.3.0;;C:\ST\STM32CubeIDE_1.16.0\STM32CubeIDE\plugins\com.st.stm32cube.ide.mcu.externaltools.gnu-tools-for-stm32.13.3.rel1.win32_1.0.0.202411081344\tools\bin
2025-04-06 19:21:00,145 [INFO] CmdLine:109 - Command: C:/Users/OS/STM32Cube/Repository/Packs/STMicroelectronics/X-CUBE-AI/10.0.0/Utilities/windows/stedgeai.exe generate --target stm32f7 --name network -m C:/Users/OS/Downloads/train_mitbih_cnn.tflite --compression none --verbosity 1 --workspace C:/Users/OS/AppData/Local/Temp/mxAI_workspace3794309511720014311594426677821562 --output C:/Users/OS/.stm32cubemx/network_output
2025-04-06 19:21:00,146 [INFO] AIModelDetailledView:2372 - Analysis status: pending
2025-04-06 19:21:00,923 [INFO] CmdLine:74 - ST Edge AI Core v2.0.0-20049
2025-04-06 19:21:24,223 [INFO] CmdLine:74 - Creating c (debug) info json file C:\Users\OS\AppData\Local\Temp\mxAI_workspace3794309511720014311594426677821562\network_c_info.json
2025-04-06 19:21:24,296 [INFO] CmdLine:74 -  
2025-04-06 19:21:24,296 [INFO] CmdLine:74 -  Exec/report summary (generate)
2025-04-06 19:21:24,296 [INFO] CmdLine:74 -  ---------------------------------------------------------------------------------------------------------
2025-04-06 19:21:24,296 [INFO] CmdLine:74 -  model file         :   C:\Users\OS\Downloads\train_mitbih_cnn.tflite                                     
2025-04-06 19:21:24,297 [INFO] CmdLine:74 -  type               :   tflite                                                                            
2025-04-06 19:21:24,297 [INFO] CmdLine:74 -  c_name             :   network                                                                           
2025-04-06 19:21:24,297 [INFO] CmdLine:74 -  compression        :   none                                                                              
2025-04-06 19:21:24,297 [INFO] CmdLine:74 -  options            :   allocate-inputs, allocate-outputs                                                 
2025-04-06 19:21:24,297 [INFO] CmdLine:74 -  optimization       :   balanced                                                                          
2025-04-06 19:21:24,297 [INFO] CmdLine:74 -  target/series      :   stm32f7                                                                           
2025-04-06 19:21:24,297 [INFO] CmdLine:74 -  workspace dir      :   C:\Users\OS\AppData\Local\Temp\mxAI_workspace3794309511720014311594426677821562   
2025-04-06 19:21:24,297 [INFO] CmdLine:74 -  output dir         :   C:\Users\OS\.stm32cubemx\network_output                                           
2025-04-06 19:21:24,297 [INFO] CmdLine:74 -  model_fmt          :   float                                                                             
2025-04-06 19:21:24,297 [INFO] CmdLine:74 -  model_name         :   train_mitbih_cnn                                                                  
2025-04-06 19:21:24,297 [INFO] CmdLine:74 -  model_hash         :   0x614099b9ce971b3f0603bb434e3eabca                                                
2025-04-06 19:21:24,297 [INFO] CmdLine:74 -  params #           :   254,641 items (994.69 KiB)                                                        
2025-04-06 19:21:24,297 [INFO] CmdLine:74 -  ---------------------------------------------------------------------------------------------------------
2025-04-06 19:21:24,297 [INFO] CmdLine:74 -  input 1/1          :   'serving_default_input_30', f32(1x187x1), 748 Bytes, activations                  
2025-04-06 19:21:24,297 [INFO] CmdLine:74 -  output 1/1         :   'nl_37', f32(1x1), 4 Bytes, activations                                           
2025-04-06 19:21:24,299 [INFO] CmdLine:74 -  macc               :   4,299,099                                                                         
2025-04-06 19:21:24,299 [INFO] CmdLine:74 -  weights (ro)       :   1,018,564 B (994.69 KiB) (1 segment)                                              
2025-04-06 19:21:24,299 [INFO] CmdLine:74 -  activations (rw)   :   35,840 B (35.00 KiB) (1 segment) *                                                
2025-04-06 19:21:24,299 [INFO] CmdLine:74 -  ram (total)        :   35,840 B (35.00 KiB) = 35,840 + 0 + 0                                             
2025-04-06 19:21:24,299 [INFO] CmdLine:74 -  ---------------------------------------------------------------------------------------------------------
2025-04-06 19:21:24,299 [INFO] CmdLine:74 -  (*) 'input'/'output' buffers can be used from the activations buffer
2025-04-06 19:21:24,316 [INFO] CmdLine:74 - Computing AI RT data/code size (target=stm32f7)..
2025-04-06 19:21:26,651 [INFO] CmdLine:74 -  Requested memory size by section - "stm32f7" target
2025-04-06 19:21:26,652 [INFO] CmdLine:74 -  ------------------------------ -------- ----------- ------- --------
2025-04-06 19:21:26,652 [INFO] CmdLine:74 -  module                             text      rodata    data      bss
2025-04-06 19:21:26,652 [INFO] CmdLine:74 -  ------------------------------ -------- ----------- ------- --------
2025-04-06 19:21:26,653 [INFO] CmdLine:74 -  NetworkRuntime1000_CM7_GCC.a      9,932           0       0        0
2025-04-06 19:21:26,653 [INFO] CmdLine:74 -  network.o                         1,280         208   7,516      436
2025-04-06 19:21:26,653 [INFO] CmdLine:74 -  network_data.o                       48          16      88        0
2025-04-06 19:21:26,653 [INFO] CmdLine:74 -  lib (toolchain)*                    614          24       0        0
2025-04-06 19:21:26,654 [INFO] CmdLine:74 -  ------------------------------ -------- ----------- ------- --------
2025-04-06 19:21:26,654 [INFO] CmdLine:74 -  RT total**                       11,874         248   7,604      436
2025-04-06 19:21:26,654 [INFO] CmdLine:74 -  ------------------------------ -------- ----------- ------- --------
2025-04-06 19:21:26,654 [INFO] CmdLine:74 -  weights                               0   1,018,568       0        0
2025-04-06 19:21:26,654 [INFO] CmdLine:74 -  activations                           0           0       0   35,840
2025-04-06 19:21:26,655 [INFO] CmdLine:74 -  io                                    0           0       0        0
2025-04-06 19:21:26,655 [INFO] CmdLine:74 -  ------------------------------ -------- ----------- ------- --------
2025-04-06 19:21:26,655 [INFO] CmdLine:74 -  TOTAL                            11,874   1,018,816   7,604   36,276
2025-04-06 19:21:26,656 [INFO] CmdLine:74 -  ------------------------------ -------- ----------- ------- --------
2025-04-06 19:21:26,657 [INFO] CmdLine:74 -  *  toolchain objects (libm/libgcc*)
2025-04-06 19:21:26,657 [INFO] CmdLine:74 -  ** RT AI runtime objects (kernels+infrastructure)
2025-04-06 19:21:26,657 [INFO] CmdLine:74 -   Summary - "stm32f7" target
2025-04-06 19:21:26,657 [INFO] CmdLine:74 -   --------------------------------------------------
2025-04-06 19:21:26,657 [INFO] CmdLine:74 -                FLASH (ro)     %*   RAM (rw)       %
2025-04-06 19:21:26,657 [INFO] CmdLine:74 -   --------------------------------------------------
2025-04-06 19:21:26,659 [INFO] CmdLine:74 -   RT total         19,726   1.9%      8,040   18.3%
2025-04-06 19:21:26,659 [INFO] CmdLine:74 -   --------------------------------------------------
2025-04-06 19:21:26,659 [INFO] CmdLine:74 -   TOTAL         1,038,294            43,880
2025-04-06 19:21:26,661 [INFO] CmdLine:74 -   --------------------------------------------------
2025-04-06 19:21:26,661 [INFO] CmdLine:74 -   *  rt/total
2025-04-06 19:21:26,661 [INFO] CmdLine:74 -  Generated files (7)
2025-04-06 19:21:26,661 [INFO] CmdLine:74 -  ---------------------------------------------------------------
2025-04-06 19:21:26,661 [INFO] CmdLine:74 -  C:\Users\OS\.stm32cubemx\network_output\network_data_params.h
2025-04-06 19:21:26,664 [INFO] CmdLine:74 -  C:\Users\OS\.stm32cubemx\network_output\network_data_params.c
2025-04-06 19:21:26,664 [INFO] CmdLine:74 -  C:\Users\OS\.stm32cubemx\network_output\network_data.h
2025-04-06 19:21:26,664 [INFO] CmdLine:74 -  C:\Users\OS\.stm32cubemx\network_output\network_data.c
2025-04-06 19:21:26,666 [INFO] CmdLine:74 -  C:\Users\OS\.stm32cubemx\network_output\network_config.h
2025-04-06 19:21:26,666 [INFO] CmdLine:74 -  C:\Users\OS\.stm32cubemx\network_output\network.h
2025-04-06 19:21:26,666 [INFO] CmdLine:74 -  C:\Users\OS\.stm32cubemx\network_output\network.c
2025-04-06 19:21:26,666 [INFO] CmdLine:74 - Creating txt report file C:\Users\OS\.stm32cubemx\network_output\network_generate_report.txt
2025-04-06 19:21:34,424 [INFO] CmdLine:74 - elapsed time (generate): 33.491s
2025-04-06 19:21:35,254 [INFO] CmdLine:142 - stedgeai exit with status: 0
2025-04-06 19:21:35,287 [INFO] AIModelDetailledView:2372 - Analysis status: done
2025-04-06 19:21:35,775 [INFO] ProjectBuilder:3249 - Time for Copy HAL[1] : 166mS.
2025-04-06 19:21:35,775 [ERROR] Middleware:2969 - Invalid RefComponent list
2025-04-06 19:21:35,775 [ERROR] Middleware:2969 - Invalid RefComponent list
2025-04-06 19:21:35,775 [ERROR] Middleware:2969 - Invalid RefComponent list
2025-04-06 19:21:35,775 [ERROR] Middleware:2969 - Invalid RefComponent list
2025-04-06 19:21:35,775 [ERROR] Middleware:2969 - Invalid RefComponent list
2025-04-06 19:21:35,775 [ERROR] Middleware:2969 - Invalid RefComponent list
2025-04-06 19:21:35,775 [ERROR] Middleware:2969 - Invalid RefComponent list
2025-04-06 19:21:35,775 [ERROR] Middleware:2969 - Invalid RefComponent list
2025-04-06 19:21:35,775 [ERROR] Middleware:2969 - Invalid RefComponent list
2025-04-06 19:21:35,775 [ERROR] Middleware:2969 - Invalid RefComponent list
2025-04-06 19:21:35,775 [ERROR] Middleware:2969 - Invalid RefComponent list
2025-04-06 19:21:35,775 [ERROR] Middleware:2969 - Invalid RefComponent list
2025-04-06 19:21:35,775 [ERROR] Middleware:2969 - Invalid RefComponent list
2025-04-06 19:21:35,775 [ERROR] Middleware:2969 - Invalid RefComponent list
2025-04-06 19:21:35,775 [ERROR] Middleware:2969 - Invalid RefComponent list
2025-04-06 19:21:35,775 [ERROR] Middleware:2969 - Invalid RefComponent list
2025-04-06 19:21:35,775 [ERROR] Middleware:2969 - Invalid RefComponent list
2025-04-06 19:21:35,775 [ERROR] Middleware:2969 - Invalid RefComponent list
2025-04-06 19:21:35,775 [ERROR] Middleware:2969 - Invalid RefComponent list
2025-04-06 19:21:35,775 [ERROR] Middleware:2969 - Invalid RefComponent list
2025-04-06 19:21:35,775 [ERROR] Middleware:2969 - Invalid RefComponent list
2025-04-06 19:21:35,775 [ERROR] Middleware:2969 - Invalid RefComponent list
2025-04-06 19:21:35,775 [ERROR] Middleware:2969 - Invalid RefComponent list
2025-04-06 19:21:35,775 [ERROR] Middleware:2969 - Invalid RefComponent list
2025-04-06 19:21:35,775 [ERROR] Middleware:2969 - Invalid RefComponent list
2025-04-06 19:21:35,776 [ERROR] Middleware:2969 - Invalid RefComponent list
2025-04-06 19:21:35,776 [ERROR] Middleware:2969 - Invalid RefComponent list
2025-04-06 19:21:35,776 [ERROR] Middleware:2969 - Invalid RefComponent list
2025-04-06 19:21:35,776 [ERROR] Middleware:2969 - Invalid RefComponent list
2025-04-06 19:21:35,776 [ERROR] Middleware:2969 - Invalid RefComponent list
2025-04-06 19:21:35,776 [ERROR] Middleware:2969 - Invalid RefComponent list
2025-04-06 19:21:35,776 [ERROR] Middleware:2969 - Invalid RefComponent list
2025-04-06 19:21:35,776 [ERROR] Middleware:2969 - Invalid RefComponent list
2025-04-06 19:21:35,776 [ERROR] Middleware:2969 - Invalid RefComponent list
2025-04-06 19:21:35,776 [ERROR] Middleware:2969 - Invalid RefComponent list
2025-04-06 19:21:35,776 [ERROR] Middleware:2969 - Invalid RefComponent list
2025-04-06 19:21:35,776 [ERROR] Middleware:2969 - Invalid RefComponent list
2025-04-06 19:21:35,776 [ERROR] Middleware:2969 - Invalid RefComponent list
2025-04-06 19:21:35,776 [ERROR] Middleware:2969 - Invalid RefComponent list
2025-04-06 19:21:35,776 [ERROR] Middleware:2969 - Invalid RefComponent list
2025-04-06 19:21:35,776 [ERROR] Middleware:2969 - Invalid RefComponent list
2025-04-06 19:21:35,776 [ERROR] Middleware:2969 - Invalid RefComponent list
2025-04-06 19:21:35,776 [ERROR] Middleware:2969 - Invalid RefComponent list
2025-04-06 19:21:35,776 [ERROR] Middleware:2969 - Invalid RefComponent list
2025-04-06 19:21:35,776 [ERROR] Middleware:2969 - Invalid RefComponent list
2025-04-06 19:21:35,776 [ERROR] Middleware:2969 - Invalid RefComponent list
2025-04-06 19:21:35,776 [ERROR] Middleware:2969 - Invalid RefComponent list
2025-04-06 19:21:35,776 [ERROR] Middleware:2969 - Invalid RefComponent list
2025-04-06 19:21:35,776 [ERROR] Middleware:2969 - Invalid RefComponent list
2025-04-06 19:21:35,776 [ERROR] Middleware:2969 - Invalid RefComponent list
2025-04-06 19:21:35,779 [INFO] ProjectBuilder:4828 - Project Generator version: 4.4.0-B60
2025-04-06 19:21:35,866 [INFO] ConfigFileManager:1531 - The Die is : DIE449
2025-04-06 19:21:38,147 [INFO] ProjectBuilder:5097 - Time for Generating toolchain IDE Files: 2368mS.
2025-04-06 19:21:38,152 [INFO] ProjectBuilder:3107 - Time for Copy CMSIS : 1mS.
2025-04-06 19:21:38,160 [INFO] ProjectBuilder:3107 - Time for Copy CMSIS : 0mS.
